cache/pretrained/pretrained_67.pt (torch_old, 740152 bytes, 4 tensors)

layers.0.gcn_0.weight f4 [2879, 64]
0.0056194244 -1.1618047e-06 0.0060273274 0.021710165 -0.0060427403 0.008153157 -0.00829973 -0.006669298
-0.007153692 -0.008850758 0.006769578 -0.009304108 0.009029348 0.008987436 -0.0041556093 -0.010522976
0.00362369 0.0039906753 -0.022920083 0.006875792 0.0026080005 0.01067214 0.014518165 0.02527076
-0.004840858 -0.00018684208 -0.010737316 -0.0013300297 -0.0051225745 0.013711444 0.0172269 0.00123657
-0.01965326 0.008782258 0.017156376 -0.0037624596 -0.00069326634 0.010863345 -0.017505212 0.00392741
-0.020510353 0.014041773 0.0025836655 0.010599985 -0.0053108386 -0.008892143 0.0072617764 0.0034854314
2.8954696e-07 0.009809415 -0.0015007537 -0.002478019 -0.0032783954 0.008426382 -0.0005398625 -0.0015871658
0.0070168716 -0.014364186 0.0057230326 -0.013261899 -0.0088005895 0.0055894973 0.0152022345 1.8256017e-06
0.00502644 1.9797805e-07 -0.024363335 0.009748199 0.0002326497 0.009413428 0.014784141 0.010589332
-0.0020129378 -0.0055080913 0.017822113 -0.0050754827 0.031923406 -0.00070868724 0.031293098 -0.009657194
0.022329126 -0.0024881172 0.0003977519 -0.006813309 0.013320408 -0.024080139 0.007992799 0.0014931388
0.026255999 -0.0027317957 -0.0055023 -0.020744044 0.023839023 0.008490521 -0.0012161919 0.038451754
-0.0042138095 -0.009710805 -0.006141799 -0.0050797034 0.014110429 0.037318636 0.0051306873 -0.0046820785
0.005594632 0.006184571 0.01652295 0.0077447128 -0.021033805 -0.014351067 0.024833238 0.02278764
3.1576062e-07 0.017077697 -0.009962688 -0.02958628 0.004733872 0.008810219 0.020746687 -0.004213865
0.013960923 -0.0025618728 -0.0009049813 -0.013277003 -0.015397059 0.02362192 -0.010620562 1.8874067e-07
0.015702624 8.40476e-08 -0.008645001 -0.007434561 0.010463198 -0.0050364383 -0.0061477525 0.012800679
-0.0059846686 -0.0083741145 -0.0036932675 0.0026930394 -0.0097554885 -0.010469876 0.017820647 0.013350952
0.002044882 -0.00023739494 0.018374838 -0.01727529 0.010877933 -0.0133133 -0.00759011 -0.010419926
0.010746184 -0.0024880779 0.010670251 -0.020995343 0.009949757 -0.0025036419 -0.012369838 -0.0026209538
0.009920009 0.001887836 -0.015672052 -0.004819041 -0.008426035 0.0017813405 0.0136430515 0.004342641
0.00460191 -0.011845894 0.01408412 -0.001451728 0.009049302 -0.0069233496 -0.0024936267 0.009624469
1.1297185e-06 -0.008146303 -0.0005883961 -0.0052320566 0.011918764 0.0036927597 -0.0052149678 -0.013687555
0.013284548 0.016082317 -0.0011184736 -0.0015642699 0.0069779097 0.013174896 0.0035434996 1.1204165e-06
0.029554205 5.3034347e-07 -0.016119925 0.03769281 -0.036352493 0.0040793577 0.007331839 -0.06541958
-0.022679422 0.0014791337 0.032695632 -0.02014277 0.099834934 0.027005926 0.030167501 -0.060660686
0.057290632 0.048310105 -0.044451907 0.039050408 0.02465508 -0.047957636 -0.029045885 0.05996281
0.07199465 -0.034834895 -0.02443977 -0.01597691 -0.01276541 0.06534218 0.025513541 0.077286646
-0.042642843 -0.051965844 0.051350333 -0.026190711 0.02409773 0.06046201 -0.0887301 -0.025797058
-0.014728076 0.02791622 0.01909402 0.049618423 -0.07120353 -0.017611997 0.07240053 0.0672073
-2.5150475e-06 0.09291225 -0.05201144 -0.05447112 0.011429384 0.0067013893 0.0072616045 0.0018654363
0.008799275 -0.061560363 -0.048847426 -0.024794508 -0.014555933 0.015065379 0.017520243 1.2062619e-06
00000000: 2623 b83b 4eef 9bb5 e380 c53b 84d9 b13c
00000010: 2e02 c6bb d294 053c 97fb 07bc 208a dabb
00000020: 8569 eabb c502 11bc 56d3 dd3b 4270 18bc
00000030: d5ef 133c 0a40 133c c72b 88bb 8f68 2cbc
00000040: 6e7b 6d3b 36c4 823b e6c2 bbbc 534e e13b
00000050: fdea 2a3b 33da 2e3c 99dd 6d3c a004 cf3c
00000060: 0fa0 9ebb 0aeb 43b9 91eb 2fbc 6454 aeba
00000070: 45db a7bb f7a5 603c 6e1f 8d3c 6714 a23a
00000080: e0ff a0bc 76e3 0f3c 878b 8c3c 9993 76bb
00000090: 51bc 35ba 2cfc 313c 1767 8fbc 81b1 803b
000000a0: 5405 a8bc 770f 663c b752 293b 8fab 2d3c
000000b0: 8b06 aebb 5ab0 11bc 32f4 ed3b d66b 643b
000000c0: 0873 9b34 abb7 203c f0b4 c4ba 4366 22bb
000000d0: 59da 56bb cf0e 0a3c 8f85 0dba 7208 d0ba
000000e0: c9ed e53b c357 6bbc 4788 bb3b 7048 59bc
000000f0: 5930 10bc 1a28 b73b cb12 793c 3207 f535
00000100: d6b4 a43b cb93 5434 9e95 c7bc e9b6 1f3c
00000110: 6ef3 7339 c73a 1a3c 2f39 723c e17e 2d3c
00000120: 7eeb 03bb 387d b4bb aeff 913c 3c50 a6bb
00000130: 1ec2 023d 32c7 39ba 312d 003d 3539 1ebc
00000140: 92eb b63c ae0f 23bb 5b89 d039 2e42 dfbb
00000150: d73d 5a3c b643 c5bc 3bf4 023c 6db5 c33a
00000160: d216 d73c ed07 33bb a34c b4bb 6aef a9bc
00000170: 0e4a c33c d41b 0b3c a168 9fba 967f 1d3d
00000180: ff13 8abb 111a 1fbc 2541 c9bb a473 a6bb
00000190: 6e2f 673c 6ddb 183d 531f a83b 1f6c 99bb
000001a0: 2d53 b73b f1a7 ca3b 235b 873c 5cc7 fd3b
000001b0: 164f acbc bd20 6bbc 136f cb3c 25ad ba3c
000001c0: cf85 a934 87e6 8b3c 8b3a 23bc ed5e f2bc
000001d0: 991e 9b3b bd58 103c f5f4 a93c 7614 8abb
000001e0: 5bbc 643c 18e5 27bb 443c 6dba c987 59bc
000001f0: f243 7cbc c282 c13c de01 2ebc a4a8 4a34
00000200: caa2 803c a87d b433 c3a3 0dbc 9e9d f3bb
00000210: d56d 2b3c b508 a5bb 1673 c9bb f0b9 513c
00000220: 0a1b c4bb 9533 09bc bf0a 72bb b47d 303b
00000230: 7cd5 1fbc d889 2bbc 9bfc 913c f4bd 5a3c
00000240: 6d03 063b 38ed 78b9 d486 963c e984 8dbc
00000250: 5c39 323c 0720 5abc 75b6 f8bb 56b8 2abc
00000260: c310 303c 050f 23bb 47d2 2e3c 6dfe abbc
00000270: 4e04 233c 2414 24bb dcaa 4abc 4fc4 2bbb
00000280: 8987 223c 4471 f73a ad62 80bc 0ce9 9dbb
00000290: 5a0d 0abc de7b e93a 1b87 5f3c b74c 8e3b
000002a0: 9ecb 963b 4815 42bc 15c1 663c e947 beba
000002b0: 8643 143c 44dd e2bb 1d6c 23bb f3af 1d3c
000002c0: d5a0 9735 1278 05bc 983e 1aba ac71 abbb
000002d0: eb46 433c 3a02 723b 52e2 aabb c441 60bc
000002e0: 6fa7 593c 10bf 833c bf99 92ba 3008 cdba
000002f0: f3a6 e43b 85db 573c 0f3a 683b 3861 9635
00000300: a91b f23c ed5c 0e35 ef0d 84bc c763 1a3d
00000310: 5ae6 14bd 22ac 853b ec3f f03b b3fa 85bd
00000320: 32ca b9bc 7edf c13a dbeb 053d 7302 a5bc
00000330: 4276 cc3d 883b dd3c d621 f73c 5777 78bd
00000340: 95a9 6a3d d1e0 453d 3413 36bd 52f3 1f3d
00000350: 73f9 c93c 3a6f 44bd a3f1 edbc 909b 753d
00000360: ee71 933d 09af 0ebd ea35 c8bc 02e2 82bc
00000370: 0326 51bc 1fd2 853d c601 d13c 7648 9e3d
00000380: 43aa 2ebd 23da 54bd ba54 523d e78d d6bc
00000390: 9a68 c53c 03a7 773d 20b8 b5bd 5a54 d3bc
000003a0: 074e 71bc 8eb0 e43c 106b 9c3c b03c 4b3d
000003b0: 28d3 91bd 0947 90bc bb46 943d fba3 893d
000003c0: 30c8 28b6 c748 be3d f309 55bd 1c1d 5fbd
000003d0: 5042 3b3c 5497 db3b c1f2 ed3b a881 f43a
000003e0: d62a 103c b826 7cbd 3d14 48bd da1d cbbc
000003f0: 027c 6ebc c8d4 763c 9d86 8f3c d8e6 a135

layers.0.gcn_0.bias f4 [64]
0.09335029 -0.02823661 0.04644802 0.05002588 0.08008437 0.07478148 0.056973394 0.05402405
0.068017505 0.057543207 0.15491632 0.053517878 0.122241445 0.05512431 0.1082992 0.043863215
0.09516566 0.08822565 0.04751982 0.042692278 0.08286608 0.03918603 0.059886266 0.05807447
0.10274688 0.04869843 0.04818131 0.043310672 0.08329878 0.04792161 0.041473266 0.100849755
0.06308902 0.057894602 0.05243101 0.047788527 0.0844105 0.12626016 0.076815836 0.061177585
0.08085173 0.06548611 0.08155484 0.07819183 0.03164399 0.045010593 0.10042549 0.11894381
-0.03222682 0.091261186 0.046774436 0.05709257 0.079775356 0.11218296 0.07916801 0.051939465
0.112940155 0.07398762 0.041796867 0.046390265 0.07588323 0.09609265 0.093743235 -0.01284906
00000000: 702e bf3d 7750 e7bc 4740 3e3d f0e7 4c3d
00000010: 4603 a43d 0827 993d ef5c 693d 5248 5d3d
00000020: c34c 8b3d 6db2 6b3d 62a2 1e3e 9035 5b3d
00000030: b959 fa3d 07ca 613d f9cb dd3d eaa9 333d
00000040: 37e6 c23d a6af b43d 25a4 423d 19de 2e3d
00000050: b1b5 a93d 8881 203d 4d4b 753d 7fdf 6d3d
00000060: f56c d23d 0178 473d c459 453d 8866 313d
00000070: 8d98 aa3d 7349 443d dfdf 293d 518a ce3d
00000080: d134 813d e422 6d3d e6c1 563d e7bd 433d
00000090: 6adf ac3d 584a 013e 9f51 9d3d 5995 7a3d
000000a0: 9895 a53d 951d 863d 3906 a73d 0a23 a03d
000000b0: 219d 013d 075d 383d e1ab cd3d d098 f33d
000000c0: 4500 04bd 25e7 ba3d 8d96 3f3d e6d9 693d
000000d0: 4361 a33d 2ec0 e53d d622 a23d 7abe 543d
000000e0: 2b4d e73d d286 973d 3133 2b3d b803 3e3d
000000f0: ab68 9b3d 39cc c43d 74fc bf3d dd84 52bc

layers.1.gcn_1.weight f4 [64, 7]
-0.7031391 -0.5101208 1.0597366 -0.6473497 0.976592 -0.7799302 -0.40639082 -2.1576132e-05
-5.8316355e-06 -2.2332326e-05 -1.6693316e-06 -2.4160881e-06 4.506395e-06 -7.916424e-06 0.7478962 0.6716932
-0.5901661 -0.6854618 -0.6392593 0.57788855 0.7659849 0.69609094 0.75107366 0.8304537
-0.8651534 -0.86432236 -0.7549247 -0.37759808 -0.74990743 0.82527757 -0.65696573 0.7872495
0.7052073 -0.19358459 -0.8027805 0.7002201 -0.85187376 -0.6370594 0.92516 -0.83026284
0.87403214 -0.7177484 -0.5927848 -0.9713698 -0.612418 0.63890254 -0.6566697 0.8157829
0.8212725 0.7442069 -0.9688432 -0.74511427 0.8008536 0.8041571 -0.3894922 -0.7593739
0.79054326 -1.1279078 -0.6331436 0.7180851 -0.6808493 0.80798316 0.70746154 -0.9131655
0.6520946 -0.60274905 -0.65419334 -0.10904012 0.72021973 0.873438 -0.91823137 0.6096417
0.61592764 0.5528369 -0.029851815 0.6670924 -0.7609639 -0.7381577 0.72788966 -0.8022932
-0.788913 0.72656924 0.7108014 -0.7080628 -0.80155826 0.6217273 0.8941943 0.36426538
-0.9387799 0.7857945 -0.79811084 0.3981848 0.6790992 0.6177031 -0.3261877 -0.95195925
-0.8023573 0.71523595 -0.7479158 -0.6527161 0.7919908 0.6388576 0.7934919 -0.7736567
-0.6190242 0.8246822 -0.7783209 -0.73523486 -0.76656145 0.84017235 -0.52565455 0.8844852
-0.82694507 -0.955392 0.67206657 0.56494516 -0.8503598 0.55019933 0.6796551 -0.80809426
0.850255 0.8068329 -0.8084428 0.06814904 -0.86203724 0.62878174 -0.61068416 -0.7489019
-0.6636865 0.6800514 0.7755281 -0.35977417 0.8302276 -0.20020013 1.0578567 -0.4183762
-0.7269426 -0.8533188 0.98933077 -0.6570685 0.077006295 -0.7006969 0.6905469 -0.7743938
0.84147114 -0.6890183 -0.7295296 0.7555921 0.7998131 -0.7506561 0.3851842 -0.800771
-0.7828913 0.6043065 0.8405288 0.76236683 -0.5445354 1.0264392 -0.94357616 -1.0257789
-0.9787076 0.7428321 0.87668777 0.898716 -0.6044953 -0.7380678 -0.7393421 -0.68554354
-0.59950274 -0.93808204 0.7369756 -0.64646935 0.7895593 0.8221728 -0.6848399 0.72645074
0.51098925 -0.71173406 -0.75733346 0.62550837 0.5913357 -0.73568153 -0.29540053 -0.9672604
-0.76634127 -0.6893648 1.0671982 1.0069189 -0.09620402 -0.84465426 1.1469514 -0.6027763
-0.8159728 -1.0340658 -0.08992419 1.2216904 -0.63812494 -0.88157505 -0.33453244 0.8146718
0.7186557 -0.024114724 -0.64858586 0.7525622 -0.813473 0.8348701 -0.80460507 -0.5655292
-0.6191996 0.80287236 0.7841051 0.63559407 -0.51098615 -0.67495215 -0.89079714 0.79094255
-0.666326 -0.7227016 -0.978045 0.7389114 0.8665869 -0.9554853 0.7798829 0.72709805
-0.60649675 -0.7740778 -0.7217037 0.6230636 0.7282703 -0.47850072 0.86153924 0.7562162
0.89323187 -0.6632236 0.4480688 0.511192 -0.73290896 -0.8506686 0.5382071 0.83781564
0.61775005 -0.73629546 -0.92097634 -0.59705406 0.5425016 -0.81816345 0.94664973 -0.66232586
0.73710436 -0.96409917 -0.6828408 0.7653174 -0.76261294 0.8913433 -0.2561914 0.7462329
00000000: ed00 34bf 4797 02bf 73a5 873f b6b8 25bf
00000010: ef01 7a3f 81a9 47bf 7512 d0be 64fe b4b7
00000020: 5ead c3b6 4e56 bbb7 cc0d e0b5 1424 22b6
00000030: a335 9736 c8d0 04b7 2076 3f3f 16f4 2b3f
00000040: 2015 17bf 6d7a 2fbf 7fa6 23bf 81f0 133f
00000050: 9617 443f 0433 323f 5d46 403f 9d98 543f
00000060: b17a 5dbf 3b44 5dbf bf42 41bf 8954 c1be
00000070: eff9 3fbf 6445 533f e82e 28bf 2f89 493f
00000080: 7788 343f 0a3b 46be 0683 4dbf a041 333f
00000090: 6614 5abf 5316 23bf 49d7 6c3f 1b8c 54bf
000000a0: 92c0 5f3f 5cbe 37bf bfc0 17bf b1ab 78bf
000000b0: 6dc7 1cbf 1e8f 233f 811b 28bf 26d7 503f
000000c0: ea3e 523f 5884 3e3f 1c06 78bf cfbf 3ebf
000000d0: be04 4d3f 3ddd 4d3f 866b c7be 5466 42bf
000000e0: 0b61 4a3f 485f 90bf b315 22bf 6dd4 373f
000000f0: 244c 2ebf fcd7 4e3f 331c 353f 37c5 69bf
00000100: acef 263f c34d 1abf 3779 27bf 6d50 dfbd
00000110: 5260 383f a299 5f3f 3611 6bbf 7a11 1c3f
00000120: 6fad 1d3f b886 0d3f cb8b f4bc 91c6 2a3f
00000130: 88ce 42bf e7f7 3cbf fa56 3a3f 1663 4dbf
00000140: 34f6 49bf 7100 3a3f 15f7 353f 9b43 35bf
00000150: ec32 4dbf 8529 1f3f ebe9 643f fe80 ba3e
00000160: e153 70bf d429 493f fe50 4cbf e1de cb3e
00000170: 72d9 2d3f ca21 1e3f 1302 a7be 9ab3 73bf
00000180: 4a67 4dbf b419 373f 6977 3fbf 6718 27bf
00000190: e9bf 4a3f 2c8c 233f 4922 4b3f 5e0e 46bf
000001a0: 5f78 1ebf 5f1e 533f 0a40 47bf 5a38 3cbf
000001b0: 5f3d 44bf 8915 573f 4c91 06bf 9f6d 623f
000001c0: acb2 53bf 9294 74bf 8e0c 2c3f 3fa0 103f
000001d0: 2eb1 59bf ddd9 0c3f e0fd 2d3f 44df 4ebf
000001e0: 50aa 593f 9a8c 4e3f 1bf6 4ebf b991 8b3d
000001f0: 79ae 5cbf d7f7 203f cc55 1cbf 09b8 3fbf
00000200: 5ce7 29bf d917 2e3f 0289 463f 5234 b8be
00000210: cc89 543f 4301 4dbe d967 873f 6835 d6be
00000220: e918 3abf 1a73 5abf c844 7d3f a435 28bf
00000230: 7ab5 9d3d df60 33bf aec7 303f ac3e 46bf
00000240: a76a 573f 8163 30bf 74c2 3abf 7c6e 413f
00000250: 8dc0 4c3f 002b 40bf dd36 c53e 54ff 4cbf
00000260: 906b 48bf d5b3 1a3f e52c 573f 792a 433f
00000270: ac66 0bbf 5c62 833f 358e 71bf b94c 83bf
00000280: 958c 7abf 3f2a 3e3f 9c6e 603f 4012 663f
00000290: 34c0 1abf 03f2 3cbf 8645 3dbf c87f 2fbf
000002a0: 0379 19bf 2526 70bf 6faa 3c3f 047f 25bf
000002b0: 8f20 4a3f eb79 523f ab51 2fbf adf8 393f
000002c0: 31d0 023f 3434 36bf 9be0 41bf 5121 203f
000002d0: c761 173f a055 3cbf bd3e 97be 619e 77bf
000002e0: f12e 44bf 367a 30bf f399 883f b8e2 803f
000002f0: 9d06 c5bd 433b 58bf 4ecf 923f 8c4f 1abf
00000300: 98e3 50bf 455c 84bf 2c2a b8bd 5a60 9c3f
00000310: 285c 23bf e7ae 61bf d647 abbe 558e 503f
00000320: d2f9 373f 3e8c c5bc b909 26bf eba7 403f
00000330: c43f 50bf 0cba 553f 99fa 4dbf 86c6 10bf
00000340: dd83 1ebf 0b89 4d3f 1dbb 483f 4bb6 223f
00000350: fdcf 02bf aac9 2cbf 480b 64bf 367b 4a3f
00000360: 5794 2abf f902 39bf 2861 7abf 4c29 3d3f
00000370: a4d8 5d3f af9a 74bf 68a6 473f 1923 3a3f
00000380: 5f43 1bbf f629 46bf 93c1 38bf 1981 1f3f
00000390: ec6f 3a3f 0cfe f4be d68d 5c3f 6397 413f
000003a0: d8aa 643f 06c9 29bf 4669 e53e 7bdd 023f
000003b0: ec9f 3bbf 6bc5 59bf f1c7 093f 167b 563f
000003c0: de24 1e3f dc7d 3cbf 1bc5 6bbf 89d8 18bf
000003d0: 63e1 0a3f 2973 51bf a357 723f 308e 29bf
000003e0: dfb2 3c3f 34cf 76bf a8ce 2ebf d7eb 433f
000003f0: 9a3a 43bf 132f 643f 852b 83be 1f09 3f3f

layers.1.gcn_1.bias f4 [7]
0.22824179 0.20195465 -0.018541964 -0.22606252 0.3817564 -0.16761732 -0.31332147
00000000: 37b8 693e 33cd 4e3e 51e5 97bc ef7c 67be
00000010: 9375 c33e e0a3 2bbe ac6b a0be
