cache/pretrained/pretrained_47.pt (torch_old, 950836 bytes, 4 tensors)

layers.0.gcn_0.weight f4 [3703, 64]
000000 ed 5d e0 3b b0 45 ef 3c 3a 62 24 3c ac 1a 8f ba
       0.0068471343 0.029208034 0.010033185 -0.0010917983
000010 ba e0 65 3c 66 80 84 3c 79 92 72 bd 35 4d 69 3d
       0.01403063 0.016174506 -0.05922172 0.056958396
000020 39 92 26 bd 60 e5 17 3d 9b 92 37 bd 8e 40 41 bd
       -0.040666793 0.037083983 -0.04481755 -0.047180705
000030 ca 29 2b 3d c8 0c 27 3d c5 fb c4 3c 88 3c 50 3d
       0.0417879 0.040783674 0.024045834 0.050838977
000040 89 b3 5e 3d ef 0d 8f 3c ae b7 a0 3d f0 ff a1 bb
       0.054370437 0.017462699 0.07847534 -0.00494384
000050 ab 3e 7a bd 55 4d e0 3c 7b aa 2d 3d 2f 85 09 3d
       -0.06109492 0.027380625 0.04239891 0.03357428
000060 42 f2 27 3d 23 71 bf 3c 51 a1 e4 bc 65 5e 03 3d
       0.04100252 0.023369377 -0.027908953 0.032072444
000070 26 59 bc bc 90 07 ab bc 23 44 a9 3c 63 a7 12 3c
       -0.022991728 -0.02087763 0.020662373 0.008951041
000080 83 d5 7c 39 b0 74 99 3c 65 b6 36 3c 89 24 3c bc
       0.00024112132 0.018732399 0.011151885 -0.01148332
000090 08 23 b1 3d 74 2a c3 3b 5a 9e 72 3d 53 0d 0b 3d
       0.0864926 0.0059559885 0.059233047 0.033948254
0000a0 5b 33 cd 3b 66 8a d3 3c 16 ad 81 3c bc ba 46 3d
       0.0062622256 0.02582283 0.015829604 0.048517928
0000b0 ef f0 7f 3c 75 89 af 3a 82 5b 18 bd 72 cc 51 3d
       0.015621408 0.0013392406 -0.037196644 0.051220365
0000c0 5e bc 4d 3c 95 7c 07 bd 4f bb 35 3c 51 b6 fd bc
       0.012557117 -0.033077795 0.011092021 -0.030970724
0000d0 ee dd 8d 3a 4d 27 07 3d ad 36 ba 3d 4c 75 78 3d
       0.0010823586 0.032996465 0.0909246 0.060658738
0000e0 d3 06 ca 3c e3 3c f6 3c 1f 1b eb ba f6 35 88 3d
       0.024661457 0.03005833 -0.001793716 0.06650917
0000f0 e3 90 87 bd c4 74 4a bc 6a da f8 3c 33 67 63 bc
       -0.06619432 -0.012356941 0.030377585 -0.013879585
000100 8f 3e 6e bc 2a 2c 48 bd fe 11 53 3d 17 14 8b bb
       -0.014541282 -0.048870243 0.05153083 -0.0042443383
000110 1f ec d0 bb 0a c9 24 bd 9b 96 92 3d 4a e8 36 3d
       -0.006375804 -0.04023079 0.07157632 0.044655122
000120 49 e4 95 3d f9 55 6c 3d e4 5e 87 3d ff 67 18 bd
       0.073189326 0.057699177 0.06609896 -0.037208553
000130 f9 2e 68 3d 08 b1 bd 3c 34 d6 5b bb e7 ca 0d 3d
       0.05668542 0.023155704 -0.0033544423 0.03461733
000140 b9 91 11 bd a0 98 35 bc 5a f1 d3 ba f8 b1 4c bd
       -0.035539363 -0.011083752 -0.0016169951 -0.04997441
000150 df 68 dc 3c ca fb fb 3b 55 9b 9f bd 3d fc de 3c
       0.026905475 0.0076899277 -0.07793299 0.027219886
000160 5b 73 0b bd 66 30 84 3d 56 6c 8e 3d 9d 44 81 bd
       -0.03404556 0.06454544 0.06954257 -0.06311915
000170 16 c2 53 3d 05 8a 92 3c e4 bb 85 bd a0 93 08 3d
       0.051698767 0.017888078 -0.06529978 0.03334391
000180 84 32 88 3d ad fc 04 bc 0d d8 12 3c 9a 31 1e bd
       0.0665026 -0.008116883 0.008962643 -0.038621522
000190 7f f4 74 3c d2 9a 8b bc 34 a5 a1 3c d9 48 10 3a
       0.014950871 -0.017041598 0.019732095 0.0005504019
0001a0 f8 9f 85 bd b4 df be 3c 9d ce bc 3d af 97 1f 3d
       -0.06524652 0.02330003 0.09219096 0.038963016
0001b0 ed b7 6d 3d 3e 64 81 3d 55 e5 2a 3d a6 81 e8 3c
       0.058036733 0.06317948 0.041722614 0.028382134
0001c0 c0 7d 7d 3d 3e 41 ad ba ca 2b 9c bc 78 f2 31 ba
       0.061887503 -0.0013218296 -0.019063849 -0.0006788145
0001d0 89 94 97 3d 19 8c 88 3d ed 1d e9 bb cc c8 af bc
       0.07401378 0.066673465 -0.007114163 -0.021458052
0001e0 b2 1b e6 3c ab fe 08 3d 2b ff c8 3d b3 f7 64 3c
       0.028089378 0.033445995 0.098142944 0.013975072
0001f0 40 bd 40 3c 95 6d 04 3d 74 25 95 3c b4 c5 08 3d
       0.011763871 0.032331068 0.018206336 0.03339167
000200 99 33 9c 3d 94 a9 2e bc 8c 76 8e bd 04 b9 7b 3d
       0.07627029 -0.010660548 -0.06956205 0.06145574
000210 cf 47 93 3d 58 00 8d 3c 62 c7 8f 3d 01 31 60 3d
       0.07191431 0.017212078 0.07020451 0.054734234
000220 b1 f8 98 3d 81 c4 13 3d 11 00 d8 3c 67 bc 8c bd
       0.07469309 0.036076073 0.02636722 -0.068718724
000230 eb cf 2c bd 7c 3b 79 bd db 85 b7 3c 43 12 83 bc
       -0.042190474 -0.060847744 0.022402694 -0.015999919
000240 25 5c c1 bc 1f 06 5b bd 02 7a 70 bc b9 5a 57 bc
       -0.023603508 -0.053472634 -0.014677526 -0.013144189
000250 bf da 95 3d 8e 1f 80 bc 71 06 aa bc c2 b3 37 bb
       0.07317113 -0.015640046 -0.020755025 -0.0028030728
000260 17 c4 1b bd 1c 58 ac 3a aa 7f 74 3c 6b c1 88 bd
       -0.038028803 0.0013148817 0.014923016 -0.066775165
000270 bb c6 e4 3c 6d 6f ff bc a5 38 9b 3d 53 fe 1c 3d
       0.027926793 -0.031181062 0.075791635 0.03832848
000280 65 50 a3 3c 8a 47 27 bc 67 0c c2 bc eb 18 35 bc
       0.019935796 -0.010209927 -0.023687555 -0.011053304
000290 24 80 71 bd 5d 74 0e bd 21 1b 73 bd a4 86 2f 3c
       -0.058960095 -0.03477894 -0.059352044 0.010713253
0002a0 7e cd 67 3c 18 02 1c 3d 70 32 19 3d 16 d5 8e 3d
       0.014148114 0.038087934 0.037401617 0.06974237
0002b0 eb 55 82 3c c1 1a 76 3d 1c b0 b2 bb 3c c3 84 3b
       0.01591011 0.06008411 -0.005453123 0.004051594
0002c0 15 71 9d 3d cd f1 57 3d ef eb 9f bb 27 19 5f 3c
       0.07687584 0.052720834 -0.0048804204 0.013616837
0002d0 6d 5c 37 3d 4d 0b 4f 3d 8f 1f b2 bc 21 f9 59 bd
       0.04476588 0.050547887 -0.021743564 -0.053216103
0002e0 b7 a7 f9 3c 6d cd 6c 3b 40 9e bc 3c 6c bd c5 3c
       0.03047548 0.0036133185 0.023024678 0.024138175
0002f0 ee 39 58 bd bc 74 7b bd 1d c7 e3 bb 6b 10 15 bc
       -0.05278962 -0.061390623 -0.0069512264 -0.009098153
000300 f8 2e f9 3c 95 9a 68 3d 41 99 90 3d ba a2 49 bd
       0.030417904 0.056788046 0.07060481 -0.049227454
000310 3b 90 d8 bc 0c ee c4 3b 77 56 58 bc 6b c3 5d bb
       -0.026435962 0.0060098227 -0.013204209 -0.0033838402
000320 76 be 3f 3d 16 36 b8 3c 51 c1 a6 bc 21 62 1f 3d
       0.046812497 0.022486728 -0.020355852 0.038911942
000330 01 de 35 3d 99 fd 59 3d 32 43 e3 3c 31 d7 21 3d
       0.044401173 0.053220365 0.027742002 0.039511863
000340 8b 32 62 3d 6f ed 8d 3b 99 be 61 3d bd f7 1a 3d
       0.055223983 0.004331283 0.05511341 0.037833918
000350 28 0a 4d bd 2b 73 45 3d e5 b7 2c 3d 72 97 27 38
       -0.050058514 0.048205536 0.042167563 3.9956947e-05
000360 52 a0 79 3d ec d9 99 39 a1 99 72 bd 76 7b 7b bc
       0.06094391 0.00029344799 -0.059228543 -0.01534926
000370 d1 49 be bc cb 27 a1 bc d8 e1 a8 3c da ed a5 bb
       -0.023228558 -0.019672295 0.020615503 -0.0050637545
000380 a8 10 14 bd 9f b4 eb 3c 87 8f 86 bc c7 b7 c9 bc
       -0.036148697 0.02877265 -0.016425861 -0.024623765
000390 fa 89 83 3d b0 fd a9 bc 2b ae 38 3d 72 3c dd 3c
       0.06422801 -0.02075085 0.045087975 0.027006362
0003a0 69 a5 86 bc 61 7d 0d bd 9b ae d9 3c 51 61 6d 3d
       -0.016436296 -0.0345434 0.026572516 0.057954136
0003b0 f0 1a f1 3c d0 4e 72 3d 01 5d e1 bc 25 25 cc 3c
       0.02943179 0.059157193 -0.027510168 0.024920056
0003c0 ea 93 ac 3b 4c 02 3f bd 27 23 29 3d 42 04 a5 bc
       0.005266656 -0.04663305 0.04129329 -0.020143632
0003d0 ee 50 b8 3c 0b f2 49 3d 13 8a 3e bd 54 fc ea 3c
       0.022499528 0.049303096 -0.046518397 0.028684773
0003e0 4c 27 f7 bc ee a7 4a 3d f1 f7 f2 3c 69 4f 20 3d
       -0.030170105 0.049476556 0.029659243 0.03913823
0003f0 48 02 46 bd da 83 57 3d cf c4 b9 3c 4b b3 0e 3d
       -0.04834202 0.052615978 0.022676853 0.034838956

layers.0.gcn_0.bias f4 [64]
000000 92 04 41 3d 27 ae 3c 3d 68 60 d0 3c a3 01 5a 3d
       0.0471235 0.046064522 0.025436595 0.053224217
000010 1a a9 d5 3c 6c 7f 03 3c 74 37 5b 3d 62 9a 56 3d
       0.02608161 0.008025985 0.05351968 0.052393325
000020 ba 87 53 3d 49 d3 4b 3d f8 9a 6b 3d ed 9c 31 3d
       0.05164311 0.049762044 0.057520837 0.043362547
000030 bf e5 4f 3d 6d 1e 43 3d 5e c3 3e 3d af 74 c5 3c
       0.050756212 0.04763644 0.046573035 0.02410349
000040 6c 42 9c 3c 67 fd c9 3c 89 07 b2 3c c1 09 1f 3d
       0.019074641 0.024656964 0.021732109 0.03882766
000050 95 8a bd 3c 7e 0a db 3c b3 cd 8f 3c 9d 1e c5 3c
       0.02313737 0.026738402 0.01755414 0.02406245
000060 53 99 81 3c 5a d7 91 3c ac a6 4a 3d f1 93 bf 3c
       0.015820181 0.017802883 0.049475357 0.023385974
000070 00 ee c0 3c f9 be db 3c 81 c1 59 3d f8 b3 72 3c
       0.023550987 0.026824461 0.053163055 0.014813416
000080 8c 32 45 3d 4a b4 24 3c 9d f2 b8 3c 08 c9 4e 3d
       0.04814391 0.01005275 0.022576625 0.050484687
000090 89 65 46 3d ae e2 bc 3c 34 52 a3 3c 63 a8 b1 3c
       0.048436675 0.023057308 0.019936658 0.021686738
0000a0 49 8b 22 3d 3c f5 e0 3c 72 1c 62 3d c8 c4 38 3d
       0.039683614 0.027460687 0.05520291 0.04510954
0000b0 2c a9 bb 3c e2 14 4e 3d 6f 58 a3 3c 21 6e b5 3c
       0.022907816 0.050312884 0.01993963 0.02214724
0000c0 e7 3e e4 3c ac ca 64 3d 46 40 2d 3d 01 95 c8 3c
       0.027862025 0.055857345 0.042297624 0.024485113
0000d0 f4 15 d0 3c d2 68 4a 3d b6 48 48 3d 29 8a c1 3c
       0.025401093 0.04941637 0.048897468 0.02362545
0000e0 f5 33 95 3c 4e c2 b6 3c 86 50 b9 3c 5a 2f d8 3c
       0.018213252 0.022309449 0.022621404 0.026389766
0000f0 3a cd 4f 3d 6f 0f bf 3c d0 07 40 3d 70 42 a3 3c
       0.05073283 0.023322789 0.04688245 0.01992914

layers.1.gcn_1.weight f4 [64, 6]
000000 bf c4 58 3c f3 15 06 3d b3 eb 1c be 43 60 00 3e
       0.013230502 0.032735776 -0.15324287 0.12536721
000010 af 89 f7 bd 35 0c 9c be c2 b0 30 be 39 c7 5e 3e
       -0.12086808 -0.30478063 -0.17254928 0.21755685
000020 67 0b 96 3e 75 d0 16 3e e2 ad 1f 3e a0 30 82 be
       0.29305574 0.14727958 0.15593675 -0.25427723
000030 5b 86 3d be 1d 33 fa 3d ce 7d 38 be b7 0b ba 3d
       -0.18508284 0.1221678 -0.1801674 0.09084266
000040 5c 8b 44 be 29 04 1c 3e c1 42 5d 3e 5e 6a a4 be
       -0.19193786 0.15235962 0.21607496 -0.32112402
000050 71 f6 55 bd c9 e9 ab 3e 6d cc 86 3e 55 93 0b 3e
       -0.052236978 0.335768 0.2632784 0.13630421
000060 49 6b 96 3e 1a ee 85 be ce c6 53 be 75 52 e6 3d
       0.29378727 -0.2615822 -0.20681307 0.11246196
000070 41 0f 91 3d b2 ce 97 be 02 a9 26 3e 7f ad b1 3c
       0.070829876 -0.29649884 0.16275409 0.021689175
000080 27 55 90 3e 5c 2b 17 be e5 3c b1 3d 44 e5 32 3d
       0.28189966 -0.14762634 0.08654193 0.043675676
000090 4a 11 88 3e 6e 02 25 be 3e 66 6c 3c 05 bc 15 3d
       0.2657569 -0.16114208 0.014428673 0.036556263
0000a0 66 5c 55 be df 5b 69 be 2d 51 32 3e 1f 4f 88 bd
       -0.20836028 -0.22788952 0.17413779 -0.06655716
0000b0 12 3a 74 bc 99 88 70 be a3 4b 12 3e f6 96 e6 3d
       -0.014906423 -0.23489608 0.14286666 0.11259262
0000c0 4c ca 9b 3e e1 1b 7a 3e bf 7f 97 bd 8a 8a ec 3d
       0.30427778 0.24424697 -0.073974125 0.11549862
0000d0 ec 1b af be 61 ae 25 3e 63 8b 14 3e b4 f4 82 3e
       -0.3420099 0.16179802 0.14506297 0.2557732
0000e0 ee 51 a3 be 28 22 65 be c3 2c 5b be b5 54 24 be
       -0.31898445 -0.22376311 -0.21403794 -0.16047938
0000f0 1c aa 16 3e 71 1d 96 be dd 1f 56 3e b8 39 04 be
       0.14713329 -0.29319337 0.20910592 -0.12912643
000100 79 04 06 be 49 ca 0f bd fa f6 f7 bd 08 db 33 3e
       -0.13087644 -0.035105024 -0.12107654 0.17564023
000110 fb c9 a2 3e e9 c3 37 3e 1c 1e b0 bd db 63 54 be
       0.31794724 0.17945828 -0.08599493 -0.20741217
000120 fa 12 93 be 06 c4 8b 3e de 66 4e 3e 05 38 0b be
       -0.28725415 0.27297992 0.20156428 -0.13595589
000130 c3 8c c3 ba b1 9f b1 3e 00 37 d5 bd 1c f6 ab 3e
       -0.001491927 0.34692147 -0.10410881 0.33586204
000140 a5 33 04 3e 3f 0e e9 bd 13 13 6b 3e c3 a8 2e 3e
       0.12910326 -0.1137967 0.22956495 0.17056565
000150 93 ce b7 3d 8a 8e 90 be fb f7 1a be 7a 47 5d be
       0.08974948 -0.2823375 -0.1513366 -0.21609297
000160 f0 b2 8b 3e 61 61 88 be 8f b8 f0 bc eb 32 04 3d
       0.27284956 -0.26636794 -0.02938488 0.03227512
000170 b1 72 82 be 60 84 6e 3e ec 0a 80 3e b3 0d e3 3c
       -0.25478128 0.23292685 0.25008333 0.027716493
000180 86 98 cd 3c 40 7f 5b 3e 2a 86 04 bd 73 85 a0 3e
       0.025097143 0.21435261 -0.03235451 0.31351814
000190 a9 9f 88 3e f7 f5 8d be 13 10 af be 56 33 3e be
       0.2668431 -0.2772672 -0.3419195 -0.1857427
0001a0 5c 1d 5c be a0 ae 4c 3e af 39 83 be 51 7b 3f 3e
       -0.21495575 0.19988489 -0.25629947 0.18699385
0001b0 a5 4e 21 bd a7 b2 fe 3d e5 ba cb bd 0e 58 88 be
       -0.039381642 0.12436419 -0.09947757 -0.2662968
0001c0 30 ce 92 3e ac cf 0b be 9e 44 31 be c2 ea 4e 3e
       0.28672934 -0.1365344 -0.17311332 0.2020674
0001d0 f2 9c 90 3e 32 8b 6f 3d d1 0a 62 bd df a9 99 be
       0.2824474 0.058482356 -0.055186097 -0.30012414
0001e0 94 aa 9c 3e 82 fd 90 be 46 c7 78 3e 42 61 60 be
       0.3059889 -0.2831841 0.24294767 -0.21912101
0001f0 89 8d 08 be e7 bd fd bd d8 65 5c be 4a 5f 1e 3d
       -0.13335241 -0.123897366 -0.21523225 0.038665093
000200 b4 42 94 be b0 fc a6 bd dd 84 a7 3d a1 2b 94 3e
       -0.2895714 -0.08153665 0.081796385 0.28939536
000210 47 74 70 bd 52 ea 6a 3e ad be 69 3e e4 a7 2a 3e
       -0.05870464 0.22940949 0.22826643 0.16665608
000220 5d 3b a5 3e 2a 09 e1 3d 23 fc ac be d9 e6 2c be
       0.32271853 0.10988076 -0.33786115 -0.16884936
000230 5a 08 43 be 63 55 82 3e 28 e8 5d 3e 0b 0b 83 3e
       -0.19046155 0.2545577 0.21670592 0.25594363
000240 c3 94 87 be 69 55 14 3e c0 23 e1 bc d8 2b a1 bd
       -0.26480684 0.14485706 -0.027482867 -0.07869691
000250 7e cb 93 3e ad 28 f8 bc 59 a2 16 3e 0a 83 40 be
       0.2886619 -0.030292833 0.14710368 -0.18799987
000260 33 f3 5b be f8 2b d5 3d 8d 4d 81 3e 5f 7d 33 bd
       -0.21479492 0.10408777 0.2525448 -0.043820735
000270 3d 28 e3 3b 68 33 0f bd dd ad 4a 3e 45 ac 9d be
       0.006932287 -0.034961134 0.19792886 -0.30795494
000280 ef 72 ad be bb 8e 43 3e 00 18 99 be 20 52 63 be
       -0.3387675 0.19097416 -0.29901123 -0.22199297
000290 08 36 a1 3e 5c 9f 11 be 03 a1 25 3e 65 b3 a4 bd
       0.31486535 -0.14220947 0.16174702 -0.08042029
0002a0 38 36 08 3e 8c 40 00 be cb 50 5e 3e de 0a 15 be
       0.13301933 -0.12524623 0.21710508 -0.14554927
0002b0 8b 42 5f be fc bf 29 be 3b b9 57 bd 93 26 96 be
       -0.21802728 -0.16577142 -0.052666884 -0.29326305
0002c0 bc 28 d3 3d 8b 03 76 3d 7a bb 02 be 56 e7 64 3e
       0.10310504 0.060061973 -0.12766829 0.22353873
0002d0 ce e7 60 3d 33 e9 c2 3c 47 30 14 3e 8f 65 95 be
       0.054908566 0.023792839 0.14471541 -0.29179046
0002e0 c9 b7 85 3d 5a f1 99 be ee d8 b9 3d 82 5f 90 3e
       0.06529195 -0.3006695 0.09074579 0.28197867
0002f0 3e c0 aa 3d f6 72 8b 3e 9c 49 3a be e8 91 86 3d
       0.083374485 0.27236146 -0.18192142 0.06570798
000300 6a 57 88 3e ba 7d 5b be 0b 91 3c 3e 08 c2 9f be
       0.26629192 -0.2143468 0.18414705 -0.31202722
000310 57 d3 a8 3d 25 37 3a 3e b7 93 94 be ad 3e 60 3e
       0.08243435 0.18185098 -0.29018947 0.21898909
000320 4d d4 16 3e f0 b3 39 3d fb 80 64 be af e1 5e be
       0.14729424 0.045337617 -0.22314827 -0.21765779
000330 cd fa db bd 83 05 c7 bd a6 67 48 be e0 57 88 3e
       -0.10741196 -0.09717848 -0.19570789 0.26629543
000340 98 b5 69 bb 37 19 74 3e 4f 39 fd 3c fe ad 5e be
       -0.0035661217 0.23837744 0.030911116 -0.2174606
000350 46 e9 88 3e 36 98 93 3e df 1c 2e 3e d4 d6 4a 3e
       0.26740474 0.28827065 0.17003201 0.19808513
000360 06 16 70 be fb 86 e9 bd 14 19 e9 bd 21 6a 45 be
       -0.23445901 -0.114026986 -0.113817364 -0.19278766
000370 3b 6d 3a 3e 97 89 c6 bd f5 80 05 be 2b 45 b9 3b
       0.1820573 -0.09694212 -0.13037474 0.0056539974
000380 04 ac 4f 3d e9 66 2d 3e 85 15 99 3d 51 37 2a 3e
       0.050701156 0.16933788 0.07474808 0.16622664
000390 57 e5 73 be b3 8e 43 3e f4 27 1c be 38 de 19 3e
       -0.23817955 0.19097404 -0.15249616 0.15026176
0003a0 d3 f3 60 3d 23 d3 0e be 8d a6 80 3c ce 85 8a 3e
       0.05492003 -0.1394773 0.015704418 0.2705521
0003b0 3d dc 65 be 6a a3 c6 bd 40 c8 25 3e f9 00 93 be
       -0.22447295 -0.096991375 0.1618967 -0.2871168
0003c0 b7 f0 17 bd 02 38 5c be 26 42 47 3d 4d b0 04 3d
       -0.037094798 -0.2150574 0.04864707 0.032394696
0003d0 81 e7 1a 3d bb c3 3a be 97 8f 20 3e 60 3c ed bd
       0.037818436 -0.18238728 0.15679775 -0.11583781
0003e0 3a a3 ba 3b f5 3a 60 be 71 ea 5e bd 20 e8 56 3e
       0.0056957277 -0.2189749 -0.0544228 0.20986986
0003f0 b8 d9 89 3e fd c6 4a 3d ac c5 a7 bd 82 bb ac be
       0.2692392 0.049506176 -0.08192 -0.33736807

layers.1.gcn_1.bias f4 [6]
000000 dd 3e 13 bd 84 21 de 3b 2b 72 d7 bc fd 71 d2 3c
       -0.035948623 0.0067788977 -0.026299557 0.02568912
000010 3e c5 57 bd 01 2e 53 3d
       -0.05267834 0.051557545
