cache/pretrained/pretrained_12.pt (torch_old, 950836 bytes, 4 tensors)

layers.0.gcn_0.weight f4 [3703, 64]
000000 dc 76 12 bd 20 d2 9e 3b 3d 33 ff 3b fe 8f ef 3a
       -0.035757884 0.004846826 0.0077880905 0.0018277166
000010 64 75 cb bc 70 f6 ec bb d5 bb 3c bd 0d db 04 3d
       -0.02483625 -0.007231526 -0.046077568 0.032435466
000020 56 e6 de bc bd e6 fa 3c bf 17 3b bd 4b ed d7 bc
       -0.027209442 0.030627603 -0.045676943 -0.026358267
000030 63 7c 16 3d 8e 73 49 3d 64 b8 f1 3c 63 6c 6e 3d
       0.03673972 0.049182467 0.02950687 0.058208834
000040 fb 48 af 3b 83 d0 20 bd 5f 16 ab 3d 78 96 3f 3d
       0.005349276 -0.039261352 0.08353876 0.046774358
000050 51 ac 48 bd b7 f1 18 3d ba dc 5a 3d 1d f0 12 3d
       -0.04899246 0.037339892 0.053433158 0.03587352
000060 a5 7b 3b 3d b2 ed d6 3c 7b 57 f1 bc 60 36 45 bc
       0.045772213 0.026236389 -0.02946066 -0.01203689
000070 15 f7 9b bd c2 90 f8 bc c6 26 11 3d 83 bf 17 3b
       -0.076154865 -0.030342463 0.035437368 0.0023154921
000080 a1 a5 12 bd 5a 59 15 bc 84 12 4b bc 37 5e 11 bd
       -0.035802487 -0.009115541 -0.012394551 -0.03549024
000090 3a b4 bb 3d 23 c0 90 3c 6f 18 83 3d d8 1d 25 3d
       0.09165235 0.017669743 0.06401145 0.040311664
0000a0 b7 1c 04 bc 81 8e 37 bd d2 ea 11 3c d1 e8 7b 3d
       -0.008063487 -0.044813637 0.008906083 0.061501328
0000b0 6a 33 a2 3c 8b f7 bd bc da 17 1b bd 43 53 f3 3b
       0.019799907 -0.023189327 -0.037864543 0.007425697
0000c0 14 33 34 3c 26 f9 fa bc f9 ec dd 3c 53 ab e4 bc
       0.010998506 -0.030636381 0.027090536 -0.027913725
0000d0 c9 b0 b6 bc c3 9f 0a 3d 7d cc b7 3d 42 93 25 3b
       -0.022301095 0.033843767 0.0897455 0.0025264774
0000e0 ab f7 b3 3c 0a f5 19 3d e3 86 65 bc 25 50 8e 3d
       0.021968683 0.037587203 -0.01400921 0.0694888
0000f0 d9 a3 ab bd 03 b2 3d bc 37 8e 11 3d 9a 6a c9 bc
       -0.08380861 -0.011578086 0.035536017 -0.024586964
000100 f0 8a d1 bc 01 8c 6b bd 41 4c 74 3d 2c a6 a7 3c
       -0.025578946 -0.057506565 0.059643034 0.02046498
000110 f2 2a 53 3c 88 17 23 bd ba 93 4c 3d f5 54 54 3d
       0.012888657 -0.039817363 0.04994557 0.051838834
000120 e6 ba 9c 3d 6f e7 7d 3d 31 0e 61 3d 31 dd 2b bd
       0.076528355 0.06198829 0.054945175 -0.04195899
000130 19 bc 98 3d a7 86 04 3d 53 bd c2 bc 5e d5 33 3d
       0.07457752 0.032354977 -0.023771917 0.043904655
000140 a9 0c 3c bd 5e 29 8f 3b 65 d7 38 3c 1b 7e 47 bd
       -0.04591051 0.004368945 0.011281823 -0.048704248
000150 77 52 18 3d 87 62 22 3d 9e 26 90 bd 10 06 68 3d
       0.03718802 0.039644744 -0.07038616 0.056646407
000160 14 1b c6 bc 64 2d a2 3d 2c 30 a0 3d ae ba 31 bd
       -0.024182834 0.07918814 0.07821688 -0.043390922
000170 ac ef eb ba 43 8b 19 3d 07 e1 78 bd 75 8d 1d 3d
       -0.0018000505 0.037486326 -0.060761478 0.038464982
000180 93 60 a0 3d 52 45 b0 bc 4f 50 30 3d be 81 16 bc
       0.0783092 -0.02151743 0.04304534 -0.009186206
000190 61 fb ca 3c 85 6b 4d bb 9a 26 82 3c 4c 74 ac 3a
       0.02477807 -0.0031344604 0.015887547 0.0013157218
0001a0 d0 02 6e bd 55 65 ef 3c 7a 2f c7 3d f1 f9 70 3d
       -0.05810815 0.029223124 0.09725852 0.058832113
0001b0 95 3f 6f 3d 8d 5d 8b 3d 4e 6c 44 3d 4e 21 e3 3c
       0.058410246 0.06804953 0.04795485 0.027725842
0001c0 7f 57 c4 3d be a4 d6 bc 7f ae da bc e7 6d dc bb
       0.09587001 -0.026201602 -0.026694534 -0.0067269686
0001d0 ff e7 ab 3d 3c c0 a3 3d 69 07 83 3a 0d 00 9f bc
       0.08393859 0.0799565 0.0009996715 -0.019409204
0001e0 a1 df 09 3c 19 f9 d4 3c b6 24 d0 3d 5c d2 00 3d
       0.008415134 0.025997685 0.10163252 0.031450614
0001f0 16 82 b9 3c b5 35 11 3d 4c 44 df 3c 07 55 25 3d
       0.022645038 0.03545161 0.027254246 0.04036429
000200 68 c2 ae 3d 66 02 c6 bc 16 91 94 bd 2a b4 94 3d
       0.08533174 -0.024171066 -0.072542354 0.07260926
000210 09 c4 8f 3d c8 0c a5 bb c4 07 a2 3d a0 e4 5b 3d
       0.070198126 -0.005036924 0.079116374 0.05368483
000220 80 c2 60 3d 63 e5 f1 3c 22 b7 01 3d 96 96 b7 bd
       0.05487299 0.029528325 0.03166879 -0.08964269
000230 84 5f 59 bd 1a 8e 72 bd 9c f0 07 3d 1f 2a a0 bc
       -0.053069606 -0.05921755 0.033188447 -0.019551335
000240 fa 8b e6 bc 69 25 38 bd 91 18 bc bc df 1e 04 bd
       -0.028142918 -0.044957552 -0.022960933 -0.032256003
000250 dd 11 a0 3d 30 8d 88 bc 7a 86 f4 bc 7f 55 a5 bc
       0.07815907 -0.016668886 -0.02984928 -0.02018237
000260 04 b2 19 bd 53 13 6f bc df 05 87 3c b0 06 8c bd
       -0.037523285 -0.01459201 0.016482292 -0.06837213
000270 cb 77 2b 3d 81 4e 54 bd 0a 6c ae 3d db 8d 29 3d
       0.04186229 -0.05183268 0.085167006 0.04139505
000280 ae ae f6 3c 7f 1f 54 bc 7b a2 bf bc bb 94 18 bc
       0.03011259 -0.012946962 -0.023392906 -0.009312804
000290 a0 88 4e bd 63 6d e9 bc 6d 94 41 bd e3 c4 6d 3c
       -0.050423265 -0.028494542 -0.04726069 0.0145122735
0002a0 8f eb dd 3c bf ad 3c 3d ca c1 35 3d 92 a5 a0 3d
       0.027089862 0.046064135 0.044374265 0.0784408
0002b0 68 88 1f 3a fe 05 86 3d db 6f cc bb 4f 0b bb 3a
       0.0006085695 0.06544112 -0.00623892 0.0014270338
0002c0 82 ad ab 3d a2 f6 80 3d 02 b2 ae bc 60 c7 2a 3d
       0.08382703 0.062970415 -0.021325115 0.041694045
0002d0 e7 ac 47 3d bb 84 62 3d f8 6c c7 bc 85 0e 4a bd
       0.048748877 0.055302363 -0.024343953 -0.049330253
0002e0 e8 a2 15 3d 14 69 7f bc 1c 08 f3 3c 84 c1 0a 3d
       0.036532313 -0.015589017 0.029666953 0.033875957
0002f0 4c 1b 84 bd 70 bf 79 bd 41 91 19 3c 71 76 14 bd
       -0.06450519 -0.060973585 0.00937301 -0.036245767
000300 47 44 e8 3c f5 66 ce 3c 24 a0 e1 3c 78 01 70 3c
       0.02835287 0.025195578 0.027542181 0.014648788
000310 79 00 52 bc 41 48 1f bc cd 2d 9e bc 3a 2e cb 3b
       -0.0128174955 -0.0097218165 -0.019308949 0.006200579
000320 22 7b 06 3b 4e c1 3d 3c 1d c6 8f bc 78 3a e5 3c
       0.002052017 0.011581732 -0.017550522 0.027981982
000330 20 1b 20 bc 6b 49 5b 3d 2c 66 4d 3d 5b 39 68 3d
       -0.009772092 0.053536814 0.050146267 0.056695323
000340 10 5c 74 3d 2e e8 d3 bc 06 cc 5d 3d e3 04 f8 3c
       0.05965811 -0.025867548 0.05414965 0.030275768
000350 0f bd 58 bd 01 22 f5 3c a4 29 14 3d 92 4f f8 bb
       -0.052914675 0.02992344 0.036172524 -0.007577845
000360 28 ac 78 3d cb 3b 09 3c ad 93 51 bd 57 4d 86 3d
       0.060711056 0.008376072 -0.051166225 0.0655772
000370 31 30 12 bd d0 fc 36 bc 34 00 0a 3d 63 f2 d9 bc
       -0.03569049 -0.011168674 0.0336916 -0.026604837
000380 e1 ef 20 bc 4d 0e 71 bc 87 a3 18 bd aa 64 3e bc
       -0.009822817 -0.014712882 -0.037265327 -0.01162068
000390 35 cb b8 3d dd de c4 bc 5a 5c 35 3d d2 81 c9 3c
       0.09023134 -0.02403205 0.044277526 0.024598036
0003a0 47 e3 90 bc e9 bd 1a bd 4b 0a 59 3c 76 ea 82 3d
       -0.0176865 -0.03777877 0.013247083 0.06392376
0003b0 f2 c5 38 3c eb f7 0e 3b f1 ce e5 bc e8 c4 8b 3c
       0.011277663 0.002181525 -0.028052779 0.017061666
0003c0 e9 5f 13 bd 91 4e a0 bc c1 fc 9e 3c ae 23 8c bc
       -0.03598014 -0.019568713 0.019407632 -0.017106857
0003d0 d2 37 00 3d 79 91 82 3d 1f 20 34 bd d2 a8 72 3c
       0.031303234 0.06375403 -0.043975946 0.014810758
0003e0 dd 50 58 bc 9e a1 e2 3c 1c ca 83 bc 1d 33 56 3d
       -0.013202873 0.027664956 -0.016087584 0.05229484
0003f0 3d dd 6c bd 02 90 0a 3d f2 82 7a 3c 75 ce 5c bb
       -0.057828177 0.033828743 0.015290009 -0.0033692394

layers.0.gcn_0.bias f4 [64]
000000 ba 57 64 3d c2 63 42 3d a3 47 d5 3c fd 7d 73 3d
       0.055747725 0.047458418 0.026035136 0.059446324
000010 f4 32 54 3d 14 b2 ea 3b 87 f1 86 3d ec 70 84 3d
       0.051806405 0.007162342 0.065890364 0.06466851
000020 86 1f 6c 3d 3d 40 5f 3d 1d c6 80 3d 48 9c 2d 3d
       0.05764725 0.05450462 0.06287787 0.04238537
000030 2b 1d 64 3d 47 8b 0b 3d 70 19 0a 3d d5 c2 f5 3c
       0.05569188 0.034068372 0.033715665 0.03000013
000040 36 c5 ac 3c e1 e8 e4 3c dc e5 bf 3c 40 5a 9e 3c
       0.021090131 0.027943077 0.023425035 0.019330144
000050 2f 73 f7 3c 13 7c 0d 3d fe af 98 3c 90 85 61 3d
       0.030206291 0.034542155 0.018638607 0.055059016
000060 8f 42 81 3c f0 a9 ce 3c d0 b4 67 3d aa 1d da 3c
       0.015778808 0.025227517 0.05656892 0.026625473
000070 fa d5 d6 3c b5 8b 14 3d 57 9f 38 3d 86 a5 e1 3c
       0.026225079 0.036266048 0.045073833 0.027544748
000080 46 05 8c 3d 5b 49 61 3c 66 ac e5 3c eb f3 ef 3c
       0.06836943 0.013750399 0.028036308 0.029291114
000090 89 5a 54 3d 55 7e e0 3c 08 65 ac 3c c5 22 e0 3c
       0.051844154 0.02740399 0.02104427 0.02736033
0000a0 2c 13 37 3d c3 1c 7e 3d 8d d5 7b 3d 11 6f 60 3d
       0.044696018 0.062039148 0.061482955 0.05479342
0000b0 61 8b f0 3c ce 5c 69 3d 7d 92 ec 3c 00 a9 98 3c
       0.029363336 0.05697327 0.028878445 0.018635273
0000c0 a9 1e 6f 3d 72 6d 17 3d eb 10 ca 3c 02 29 db 3c
       0.05837885 0.03696961 0.02466627 0.026752952
0000d0 a6 98 58 3d d8 74 77 3d 75 ff 6e 3d 96 77 e8 3c
       0.052879952 0.060414165 0.05834909 0.028377336
0000e0 85 7f be 3c d1 a8 e9 3c 02 61 ff 3c 26 b8 de 3c
       0.023254165 0.02852288 0.031174187 0.027187418
0000f0 eb 1d 5d 3d 37 6d ff 3c d0 6d 5c 3d d6 cc c9 3c
       0.05398361 0.031180007 0.053815663 0.024633806

layers.1.gcn_1.weight f4 [64, 6]
000000 58 ae d5 3c a3 39 d5 3c 06 f0 21 be ba 69 1d 3e
       0.02608411 0.02602846 -0.15814218 0.15372363
000010 bc 43 05 be 4f 5a a0 be 4b 86 37 be c1 cd 4d 3e
       -0.1301412 -0.313189 -0.17922322 0.2009802
000020 a3 22 9a 3e 23 6b 3a 3e 32 09 3d 3e 5a 1b 87 be
       0.3010455 0.18204932 0.18460539 -0.26388055
000030 46 3e 45 be a3 a3 05 3e d7 36 40 be 47 14 ca 3d
       -0.19262037 0.13050704 -0.1877092 0.09867149
000040 a6 92 4e be f6 8e 21 3e 87 66 6b 3e 57 2b a9 be
       -0.2017313 0.15777192 0.2298833 -0.33040878
000050 bc 89 78 bd 85 e2 ae 3e ce 47 82 3e 75 82 0a 3e
       -0.06067823 0.34157196 0.25445408 0.13526328
000060 b5 41 9e 3e 23 33 8c be d4 c8 5e be 1e 5d f7 3d
       0.30909505 -0.27382764 -0.21756297 0.120783076
000070 14 af 9f 3d f0 c4 9c be 85 79 34 3e ab 99 5e 3c
       0.077970654 -0.30619 0.17624481 0.013586442
000080 ff d1 8f 3e c3 4f 1e be b2 8a ba 3d 17 1a 10 3d
       0.28089902 -0.15460114 0.09108485 0.03518113
000090 4f 92 8e 3e 88 4f 2f be 50 36 81 bc 53 d7 38 3d
       0.27846 -0.17120183 -0.015772969 0.045127224
0000a0 3c d6 5e be 18 48 74 be 5a 5a 2d 3e c2 bd 9b bd
       -0.21761411 -0.23855627 0.16928998 -0.07604553
0000b0 fa 31 aa 3c c8 50 79 be 5b f8 30 3e b4 51 fa 3d
       0.020775784 -0.24347222 0.1728224 0.12222615
0000c0 3f 38 9f 3e e3 95 80 3e 7c 20 a6 bd 8e 26 fa 3d
       0.310976 0.25114354 -0.08111665 0.12214385
0000d0 63 14 b4 be 54 92 1f 3e 53 ba 20 3e c0 ec 7a 3e
       -0.35171804 0.15583163 0.15696077 0.24504375
0000e0 d4 0a a9 be 8c 7a 6e be 6c 10 66 be b0 49 1c be
       -0.33016074 -0.23288935 -0.22467202 -0.15262485
0000f0 ef 50 22 3e 1f 82 8e be b0 22 47 3e 2b 47 0d be
       0.15851186 -0.2783365 0.19446826 -0.1379668
000100 ee 0c 0f be e0 61 ca bd 4e f2 09 be 3c ec 3a 3e
       -0.13969776 -0.098819494 -0.13471338 0.18254179
000110 18 65 a6 3e 2c 2a 49 3e 3d 65 bf bd 3a 82 5c be
       0.32499003 0.19644994 -0.093454815 -0.21534052
000120 fa 75 96 be 07 bb 83 3e 9f a5 6b 3e 60 51 14 be
       -0.29386884 0.25728628 0.23012398 -0.14484167
000130 21 c1 7b bb 20 c5 b5 3e 3e 29 df bd 57 38 b1 3e
       -0.0038414674 0.35501957 -0.10896538 0.34613296
000140 05 2f e1 3d 1f 7f f8 bd 97 aa 8d 3e e8 7e 3d 3e
       0.109952964 -0.121336214 0.27669212 0.18505442
000150 a0 58 af 3d 9f e9 95 be 49 4e 26 be 47 49 67 be
       0.08561826 -0.292798 -0.16240801 -0.22586547
000160 3b 08 91 3e 3c f0 8b be e1 b8 0c bd fe 5f 9f 3d
       0.28326592 -0.27331722 -0.034356 0.07781981
000170 5d 85 85 be a7 6a 78 3e 3b f5 76 3e ca e8 8d 3c
       -0.2607831 0.24259435 0.24116985 0.017322917
000180 1c 74 95 3c 58 db 5a 3e fd cf f3 bc 60 e8 a3 3e
       0.018243842 0.21372736 -0.029762262 0.32013226
000190 0f e7 61 3e 55 85 87 be af 86 a6 be 16 37 4f be
       0.22060798 -0.26468912 -0.3252463 -0.20235857
0001a0 6d 0e 62 be e5 c0 56 3e 21 c4 86 be 63 25 49 3e
       -0.22075815 0.20972021 -0.2632151 0.19643168
0001b0 84 3f 78 bd b4 a3 f8 3d b4 bf d0 bd 81 45 8d be
       -0.06060745 0.12140599 -0.101928145 -0.2759209
0001c0 22 57 8c 3e 1e f3 16 be 24 7f 32 be af da 45 3e
       0.27410227 -0.1474118 -0.17431313 0.19321702
0001d0 c7 79 94 3e 69 19 92 3d ff 27 58 bd 50 d5 9e be
       0.2899916 0.07133753 -0.05277252 -0.3102212
0001e0 e4 50 9e 3e a6 72 94 be a2 4c 80 3e a1 34 52 be
       0.3092109 -0.2899372 0.25058466 -0.20527889
0001f0 80 8f 17 be bc 2f 09 be 38 3c 5d be a6 1b 08 3c
       -0.14800835 -0.13397115 -0.21605003 0.008307373
000200 d0 87 95 be 46 58 be bd f7 cb 9d 3d fe af 98 3e
       -0.2920518 -0.092941806 0.07704919 0.2982177
000210 3d dd 31 bd ac 36 74 3e 05 ac 67 3e 66 10 fc 3d
       -0.04342388 0.2384898 0.22624214 0.12307815
000220 45 a1 a7 3e 2d e9 c6 3d 0b 47 b0 be b5 7e 33 be
       0.32740226 0.097124435 -0.344292 -0.17528804
000230 04 fd 64 be 8b f8 86 3e 31 fe 70 3e 7f d1 86 3e
       -0.22362143 0.26361498 0.23534466 0.26331708
000240 43 bd 7d be aa 02 1c 3e 0f d1 36 bd af 95 b2 bd
       -0.24779229 0.15235391 -0.044632968 -0.08719956
000250 c4 a6 95 3e e7 3d c4 bc f7 ac 24 3e 66 2a 48 be
       0.29228795 -0.023955299 0.16081606 -0.19547424
000260 9c 15 65 be ec bb e4 3d 32 42 80 3e d5 e1 68 bd
       -0.22371525 0.11168656 0.25050503 -0.056855995
000270 b7 56 0a 3d f9 90 8d bc 9c 06 46 3e da 63 a1 be
       0.033774104 -0.017281042 0.19338459 -0.31521493
000280 63 b9 b3 be a3 2c 4c 3e 90 92 9b be ad bd 6c be
       -0.35102376 0.19938903 -0.30385256 -0.2311923
000290 e7 77 a4 3e f4 32 1b be 78 6b 27 3e e4 05 af bd
       0.32122728 -0.15156156 0.1634959 -0.085460454
0002a0 0e 4d 11 3e 72 c0 0c be df f5 64 3e 5f 5d 20 be
       0.1418955 -0.13745287 0.22359417 -0.15660618
0002b0 4d 06 68 be d0 94 38 be 87 6d 79 bd da 82 9b be
       -0.22658654 -0.18025517 -0.06089547 -0.3037327
0002c0 53 20 e2 3d 6b e4 8d 3d b3 39 0e be 31 c5 6b 3e
       0.110413216 0.06928333 -0.13889198 0.23024441
0002d0 a0 2c 86 3d b4 df 0f 3d 68 19 1b 3e 7f 57 9a be
       0.0655148 0.03512545 0.1514641 -0.3014488
0002e0 c3 41 9b 3d e2 99 93 be 8c 99 b8 3d 79 8b 92 3e
       0.075809024 -0.2882834 0.09013662 0.28622034
0002f0 92 4a 9b 3d 70 2f 91 3e 3c 5b 62 be 6a ca 8d 3d
       0.075825825 0.28356504 -0.22105116 0.06923373
000300 23 f9 8a 3e 18 c9 64 be 96 2f 4f 3e 3c fe a4 be
       0.271432 -0.22342336 0.20232996 -0.32225215
000310 09 a0 59 3d 3f 62 42 3e e2 69 98 be 5e 7f 5e 3e
       0.053131137 0.1898279 -0.29768282 0.21728274
000320 4e c8 22 3e 83 47 f4 3c 1f be 6d be 2c 2b 62 be
       0.15896723 0.029819256 -0.23217057 -0.22086781
000330 56 98 dc bd fc fa da bd 3d 1d 4a be ef 1f 8c 3e
       -0.10771243 -0.10692403 -0.19737716 0.27368113
000340 d9 a1 28 bd d6 15 7c 3e 34 d3 43 3d 50 62 68 be
       -0.041169975 0.24617705 0.04780884 -0.22693753
000350 55 f7 86 3e 0f e2 97 3e 07 e3 0e 3e 06 b9 50 3e
       0.26360574 0.29664657 0.13953792 0.20383081
000360 71 00 78 be e5 37 e7 bd 5c b2 0a be d2 7d 50 be
       -0.24218918 -0.11289958 -0.13544601 -0.20360497
000370 a9 21 42 3e 45 bd ec bd 8f f7 0e be 5b aa 0a bc
       0.18958153 -0.11559538 -0.13961624 -0.0084634675
000380 fa a3 c9 3d 19 7c 37 3e 9d 98 d6 3b 37 2d 2d 3e
       0.09845729 0.17918433 0.0065489546 0.1691178
000390 3e 6b 78 be 87 eb 49 3e 26 55 22 be b2 99 1d 3e
       -0.2425966 0.19718753 -0.15852794 0.15390661
0003a0 4f 61 4e 3d 93 ca 14 be 04 c7 a9 3c d6 1d 81 3e
       0.05038577 -0.14530401 0.02072478 0.25218076
0003b0 56 8c 6c be 8b dd d1 bd f2 b9 2f 3e 2e f7 97 be
       -0.23100409 -0.10247334 0.17160776 -0.2968077
0003c0 92 a4 a7 bc 78 68 65 be 6c 53 57 3d ec 7e 76 3d
       -0.020464215 -0.22403133 0.05256979 0.060179636
0003d0 89 88 56 3d 98 a0 45 be 24 34 2e 3e 22 4c 02 be
       0.052376304 -0.19299543 0.17012078 -0.12724355
0003e0 67 4a e7 3c 2d ab 54 be 92 ec 95 bd 9a c7 63 3e
       0.02823372 -0.20768423 -0.07320513 0.2224411
0003f0 48 f6 8e 3e 6d a3 7d 3d 6d ac b2 bd b9 57 b1 be
       0.27922273 0.061923433 -0.08724294 -0.3463724

layers.1.gcn_1.bias f4 [6]
000000 9b 8f 40 bd ed 09 bd 3c 24 c6 0e bd 62 04 b8 3c
       -0.047011953 0.023076022 -0.03485693 0.022463027
000010 82 46 da 3c 1f ba 73 3d
       0.026644949 0.05950367
