cache/pretrained/pretrained_37.pt (torch_old, 740152 bytes, 4 tensors)

layers.0.gcn_0.weight f4 [2879, 64]
00000000: 1ae5 67bc 3343 0a3a 8fba 1d3c ae0d bdba
00000010: cc39 adbc d6fb b13b 0975 783b 03bf b93a
00000020: 8151 b43b 4333 c73b 1b0c 313c 617d c03b
00000030: d365 a039 8ecf b8bc cbc9 f5bb 2e12 36bc
00000040: a6d9 ca3a 723b 62bb 76a7 97bb a2f1 1b3b
00000050: 3043 703a ac77 9dbb cef6 03ba acc2 8fbb
00000060: 291d f83b 7454 063b 2279 27ba b203 96bc
00000070: 0fb4 71bb 96a0 b3bb 3402 ab3b d6b8 073c
00000080: df00 4539 e46c d0bb 499a 0039 6fa7 f8bc
00000090: 1d5e d0ba 9beb 4e3c aa60 d1bb 91a6 373c
000000a0: da3c 06bc 6f82 103c c15c 4bbb 9b3e 613a
000000b0: 27dd adba 0ffa 7b3a a849 b43b 5db7 893b
000000c0: b8e1 9ab9 aee4 013c e9d8 8fbc 3d57 cabc
000000d0: 6645 d23b f5b0 55bc 5ece 913c 995d 623b
000000e0: fe71 a6bb f547 61bc fc29 d73b be2b b63b
000000f0: 795f f23b f7eb 96bb 23e3 adbb 7392 ddbb
00000100: 895a d3bb aae0 69b9 5258 053a 58f8 2f3c
00000110: e54c c0bc 1dea a53c 0cf9 853c fc62 34bb
00000120: 235c 253b f071 a6bc 8c6d 8a3b ded9 a73a
00000130: edef 4a3c 705f 2c3a 248b 90ba b4d3 b6bb
00000140: 10ea 633b 96b3 e4bb d895 103b 347e c2ba
00000150: 2aed f53b 446d 13bc 2d42 e8bb 7966 343c
00000160: 43a5 2bbb af05 de3b 32dd 67ba d927 dabc
00000170: f60e b43a 252b 113b 6bf4 8b3b 1408 f43b
00000180: f639 b23b 8cf5 8bbc 7742 e93a 62d7 fe39
00000190: 6e22 cbbb 3350 fd3c 822a 15bc edfc 1ebb
000001a0: 9fd4 82bb 35d0 b93c 0ec2 303b 1113 a9bb
000001b0: 6afa 2dbc 5c6b 5fbc 5aee 1e3c 7a6f 8c3c
000001c0: eb3d e13b bae2 8d3c 66b6 4ebb cd23 cebc
000001d0: 532a 37ba 7be1 3dbc 5cdc 8d3b 1681 caba
000001e0: 9f49 ad3b 8de7 bbbb c92b 753c 4000 00bc
000001f0: 6b91 18bc 59e3 fdbb 4b81 2ebc ffcb e7bb
00000200: 61c8 8c38 ae11 0b39 ec9d b1bb eb1e c4bb
00000210: 0069 953b 930b 57bc 7c43 abbb 8619 323c
00000220: c958 96bb b5e1 50bb bf1d 433b fc6c b83a
00000230: ef59 3dbc 644b 48bc 8b4f 593c 86bd d23b
00000240: 2eca 90bb bc05 24bb bb22 333b 68b6 beba
00000250: 7e24 4e3c ebfe 93bb 4eb3 333b 36eb dfbb
00000260: 3443 283c 4818 633c 133c 18ba a72a 9dbb
00000270: e210 e33b 00b9 533b d357 94bb 7622 c4bb
00000280: 8c03 dc3b 8ee3 f439 46a4 24bc e81b 41bc
00000290: 10b6 9dbb 00b4 1dbc 9818 9d3c bf75 6b3b
000002a0: 2f1f 013c e30c beb8 ef75 853c b5ac 98bc
000002b0: 3c33 9c3b 6be1 303b 6d25 e6bb 6394 193c
000002c0: 48ce 8fbb 600a 253b e320 a93b f2ba 9dba
000002d0: 1836 263c 2f8e 203a 1eee 2d3b 8dfc 8cbb
000002e0: f594 243c a7c2 643c b898 cab9 64ee 923c
000002f0: 4baa b1bb 1a6c 8d3b bcc3 a93a e784 7e3b
00000300: 049e 2f3d 04d6 8e3c 3da1 73bc 9fb0 063d
00000310: 7f0a 5bbd 57d1 df3b 9aa8 2e3d 2f61 babc
00000320: 071d 23bc 8d82 90bc b1f3 353c 3810 4ebb
00000330: d522 1d3d a384 b83c 29af 663d 6724 4fbc
00000340: 8ab8 343d e152 333d a42d 8fbc 0719 cfbc
00000350: 88af 803d bb44 bdbc 6a9b 2ebd 187c 433d
00000360: f606 973d 2ef4 2cbc abd8 6f3b 3ba0 e53c
00000370: 353d 283b 3475 6b3d d8a3 3abc 2102 8d3d
00000380: 80fa 44bc 8c47 50bd e4f4 563d 6a5e a6bc
00000390: 151f d8bc 22d8 283d d8b8 00bb a198 84bc
000003a0: 39de debc 8462 1e3d becb 0f3d c808 3d3d
000003b0: 3f51 a53b bb1d cdbc 93dc 393d ec49 2d3d
000003c0: e055 463d fbef 833d 9feb c6bc 5fbf 3bbd
000003d0: 9161 233d 5bcc debb 6c52 6ebc d3b2 aebc
000003e0: e553 353d dd9c 66bc 814f 84ba bdd5 e73b
000003f0: 10fc 43bc 4ea7 503d 996c 243d ee2d 9abb
-0.014153743 0.00052742957 0.009626999 -0.0014423633 -0.021145724 0.0054316325 0.0037911555 0.0014171306
0.00550288 0.006079109 0.010806109 0.0058743213 0.00030593443 -0.022559907 -0.0075008622 -0.011112733
0.0015476241 -0.0034520295 -0.004628117 0.0023795147 0.0009165285 -0.0048055258 -0.000503403 -0.0043872204
0.0075718355 0.0020497115 -0.00063885946 -0.018312309 -0.0036881005 -0.00548179 0.0052187685 0.008283814
0.00018787709 -0.006360637 0.00012264507 -0.030353276 -0.0015897189 0.012629415 -0.006389697 0.011209146
-0.008193219 0.00882016 -0.0031030627 0.0008592398 -0.0013264761 0.0009612152 0.0055019446 0.004202767
-0.00029541343 0.007928057 -0.017559486 -0.024699802 0.0064169643 -0.013042678 0.017798599 0.0034540652
-0.005079507 -0.013750066 0.006566284 0.0055594137 0.007396635 -0.004605766 -0.005306618 -0.006761843
-0.0064500016 -0.00022304305 0.0005086708 0.010740362 -0.023474166 0.020253235 0.016354106 -0.002752482
0.002523192 -0.020318002 0.004224485 0.0012806018 0.012386304 0.00065755006 -0.0011027795 -0.005579436
0.0034776963 -0.006979416 0.002206197 -0.0014838637 0.007505079 -0.008998219 -0.007087967 0.0110107595
-0.0026191033 0.00677558 -0.00088449114 -0.026630329 0.0013737369 0.002215096 0.0042710803 0.007447252
0.0054390384 -0.01708486 0.0017796297 0.00048607128 -0.0061991727 0.030922031 -0.009104373 -0.0024259642
-0.0039926316 0.022682289 0.0026971134 -0.0051597436 -0.010618785 -0.013636436 0.009700382 0.017143
0.0068738363 0.017320026 -0.0031541823 -0.025163556 -0.0006987203 -0.011589403 0.0043292474 -0.0015449848
0.0052883173 -0.00573439 0.0149640525 -0.00781256 -0.009312014 -0.007748049 -0.010650943 -0.007073879
6.713044e-05 0.00013262659 -0.005420437 -0.005985131 0.004559636 -0.013125318 -0.0052265506 0.010870343
-0.0045882207 -0.0031872813 0.0029772369 0.0014070566 -0.011557086 -0.012225006 0.013263593 0.0064312844
-0.004418633 -0.0025027832 0.0027333933 -0.0014550211 0.012581943 -0.0045164726 0.0027420106 -0.0068334593
0.010269929 0.01386077 -0.00058072916 -0.0047963443 0.006929503 0.0032306314 -0.004527071 -0.0059855534
0.00671429 0.00046708848 -0.010048931 -0.0117864385 -0.0048129633 -0.009625435 0.019176766 0.0035928336
0.00788097 -9.062306e-05 0.016291587 -0.01863704 0.00476685 0.0026989828 -0.0070235045 0.009373757
-0.0043886043 0.0025183186 0.005161391 -0.0012033863 0.010144733 0.00061247026 0.0026539634 -0.0043025673
0.01004528 0.013962424 -0.00038642227 0.01793594 -0.005421912 0.004315865 0.001295201 0.003883654
0.042875305 0.017436035 -0.014869985 0.032883283 -0.053476807 0.006830375 0.04264126 -0.022751419
-0.009955651 -0.017640376 0.011105464 -0.0031442773 0.038363297 0.022524184 0.05631939 -0.012642956
0.044121303 0.04378021 -0.017477818 -0.025280489 0.0628348 -0.023104062 -0.042628683 0.047725767
0.073743746 -0.010556264 0.003659765 0.028030505 0.0025671248 0.05748482 -0.011391602 0.06885172
-0.0120226145 -0.050849482 0.05247964 -0.020308692 -0.026382009 0.041221745 -0.0019641425 -0.01618606
-0.027205573 0.03866817 0.035106413 0.046150953 0.0050450857 -0.02503859 0.04537637 0.042306826
0.04842174 0.06442257 -0.024282275 -0.045836803 0.03988797 -0.0067992634 -0.014546018 -0.021325504
0.04426946 -0.014075485 -0.0010094495 0.00707504 -0.011961952 0.050940804 0.04014263 -0.0047051823

layers.0.gcn_0.bias f4 [64]
00000000: a926 f53d f868 a73c cf72 e33d 639c b23d
00000010: 2cad 3d3e 4813 293d 4203 cc3d 59fd b13d
00000020: 39b8 5a3d 95d8 dc3d 820b 233e c373 d13d
00000030: 8f6f f73d adb6 fe3d 7c54 e33d 0b33 2b3d
00000040: a667 fa3d d8ec 0a3e ee48 ac3d 1e1c f83d
00000050: 4b14 b73d 67c3 883d 0c6b c63d 591e 163e
00000060: 4157 943d 53c1 da3d 8963 c7bc 9e1e fc3d
00000070: c9b3 943d 5596 743d b910 a73d 1bf7 e63d
00000080: 9291 bf3d 96f7 dc3d adf5 063e d0a7 bf3d
00000090: 1a5e 1b3e 83bb f13d 0d03 a53d 5953 0b3e
000000a0: bbcd 0c3e 2be8 933d eb8e bd3d 175f bd3d
000000b0: 5bcb 493d 177b 0d3e 7ec7 fd3d 7f7e b83d
000000c0: da05 d53d cdb9 883d 5fcc 623d 4014 073e
000000d0: ef7a af3d 7f42 373e 45cc 823d 7033 da3d
000000e0: 71aa b03d d568 923d 5f19 5a3d da05 c13d
000000f0: 0b67 063e 0f56 a33d bae8 133e bdb7 903b
0.119702645 0.020435795 0.111058824 0.08721235 0.18523091 0.041278154 0.09961559 0.086909
0.053398345 0.10783497 0.15922359 0.10227158 0.12081825 0.124371864 0.111000985 0.041796725
0.122268006 0.13566911 0.08412348 0.12114738 0.089394175 0.06677895 0.09688386 0.14660014
0.07243205 0.10681405 -0.024339454 0.12310527 0.07260854 0.05971368 0.081574865 0.112776004
0.09353937 0.10789411 0.13179655 0.093581796 0.15172616 0.11803343 0.080572225 0.13606013
0.13750355 0.07222017 0.09255775 0.092466526 0.0492662 0.13816486 0.12391566 0.09008502
0.10401507 0.06676064 0.055370685 0.13191319 0.085683696 0.1789646 0.063866176 0.10654342
0.08626259 0.071489014 0.053246852 0.09424944 0.13125245 0.07975399 0.14444247 0.0044164346

layers.1.gcn_1.weight f4 [64, 7]
00000000: c016 5abe b5c4 813d 78e0 ae3e 3d27 bcbe
00000010: 4c3b cc3e 5d06 c1be 91f1 9abd 27d7 acbc
00000020: fdf7 f13c 3c10 8a3d 52e2 5539 3073 9bbc
00000030: f069 86bc 7bca 37bc e4ab b93e 1cc1 a63e
00000040: 9d8c 89be 3364 3fbe 5a4f 65be 86dc 8d3e
00000050: 2a27 6a3e 5053 973e bb66 543e 83dd 993e
00000060: 4c30 e4be 6306 bcbe 53d8 9cbe 3666 dabc
00000070: cac3 81be 0720 bb3e 6e82 abbe c81a e33e
00000080: a4db c53e 306c acbe 89dc c3be 8bbe b83e
00000090: e49c b4be 2775 8ebe 4815 9e3e aa92 9fbe
000000a0: 33ed a73e 1de4 a5be 1c63 b7be efa5 fcbe
000000b0: 28f9 233e 811e 943e 4d5a 93be 00dc 7b3e
000000c0: 2283 ab3e 005c c23e 2465 ccbe 7bb2 9cbe
000000d0: b076 a83e a679 a93e 773d 3dbe 52bb c4be
000000e0: 994e 8b3e 5229 fcbe fe5d 7cbe 9b6c 8c3e
000000f0: 9fb4 78be eceb 9a3e 374b 843e 837e ddbe
00000100: b3dc 8b3e 63f8 8ebe 5450 a9be 1030 173e
00000110: 1364 ab3e 3a67 a53e 5560 f0be 0cfc 583e
00000120: e1a8 403e c1d7 ae3d 2c25 7b3e 6b59 843e
00000130: 5564 d4be 809a 48be 9237 193e 5221 c2be
00000140: 941a e1be a24c 833e f453 9f3e 6d9a 26be
00000150: 952b 2cbd e968 6f3e fb3c cf3e 9282 663d
00000160: 2740 e1be 656b 403e 9d23 bdbe 5dcb 94be
00000170: c26f 8b3e 1937 713e 3ca8 f33d 202e e7be
00000180: 899d c6be e8b6 ad3e 5692 a5be 7d2f 94be
00000190: 1c73 b43e d6e2 433e c2d2 ce3e fae3 b1be
000001a0: 58c4 95be 873d cd3e e528 9bbe fe4f 72be
000001b0: f7f3 9dbe 8a73 ba3e fc4d 68be 2cfb af3e
000001c0: 202d e9be 0585 f7be aa94 8a3e ce00 723e
000001d0: 8cca bebe 835c 573e a823 793e 6522 a4be
000001e0: 8eb9 d83e f094 c23e 005b bbbe 0a7a a7be
000001f0: c58d 9cbe eaae 733e a5bd 9dbe 8ec8 9cbe
00000200: 8212 84be 892b c23e c250 be3e 512d 3fbe
00000210: 4ccf b23e 29d0 52be 26f7 d63e 46b6 94be
00000220: e72d 40be 213f 933c b724 dc3e c3bb 3fbe
00000230: 40cc 8b3c dcf1 7abe 4c8b b93e 8fcc b8be
00000240: 7974 a73e 981f a6be cadf bbbe 6b2a b63e
00000250: edc5 ab3e e507 d3be b38c 843d 6df6 93be
00000260: 0517 c0be aa11 363e 1556 1d3e 1b14 853e
00000270: 152d 9bbe bf61 8e3e bb7e c3be 0e03 cabe
00000280: b559 e93c 703f 623e 4bd7 cd3e 12dd e03e
00000290: 7a5e 1ebe b69d 88be 714b adbe d1d1 a0be
000002a0: 55e5 56be 7d12 9cbe c8e2 413e d24f a8be
000002b0: f20c bd3e f4a5 db3e c8b4 96be 18ec a33e
000002c0: 60db 3b3e e055 aabe 4036 a2be 3267 943e
000002d0: 54a9 813e 1753 b9be 24f7 54ba 421c 7dbc
000002e0: e67f 6b3a 3248 583a 338a 4bba 4662 9338
000002f0: 597a 1ab9 8b8b a4be ef9d da3e 48ef a73e
00000300: e434 adbe ffd2 a2be 10c6 8bbe c824 aa3e
00000310: b5bf 7bbe f226 9abe 3e22 44be 016c ce3e
00000320: 6d10 863e 6e5e 32be b7d8 76be 2783 c53e
00000330: f22e 75be 8721 9f3e 2e86 c1be 32d8 5fbe
00000340: 3dc2 86be 35e0 353e 083b aa3e 5500 a03e
00000350: 22e5 84be 87f2 9dbe 8260 c8be 793f b33e
00000360: 8820 8fbe 8bb5 9dbe d52e eebe 2b67 533e
00000370: e00c b43e 71c2 cebe 028a a73e 9867 833e
00000380: 596b 82be a1e1 b9be c2e0 a7be b5ac 9b3e
00000390: f42f b03e fabd 73be ab7a c93e a475 c73e
000003a0: 467c b83e d617 b3be 0dab 663e cd75 513e
000003b0: 9d43 c2be abac dabe 1e05 b93d 1ca8 c93e
000003c0: c160 ba3e 1053 9cbe c3a7 bebe 0688 5fbe
000003d0: 81e2 82be 05f8 d8be 2a86 a93e c01a a8be
000003e0: b698 bc3e 84e7 b4be 4997 a2be 4211 c43e
000003f0: 5db0 05be ddc1 f43e 3d87 fbbd 321d c23e
-0.21297741 0.06336347 0.3415563 -0.36748686 0.3988899 -0.37700167 -0.075656064 -0.021098686
0.029537195 0.06741378 0.00020397574 -0.018975824 -0.016407937 -0.011217709 0.36263955 0.32569206
-0.26865092 -0.18690567 -0.22393551 0.2770731 0.22866502 0.2955575 0.20742314 0.30051813
-0.44568098 -0.36723623 -0.30633792 -0.026660066 -0.25344688 0.36547872 -0.33497947 0.4435637
0.38644135 -0.3367629 -0.38254192 0.36082873 -0.35275948 -0.27823755 0.3087561 -0.31166583
0.32798156 -0.324006 -0.35817802 -0.49345347 0.16013014 0.28929523 -0.28779832 0.24595642
0.33498484 0.37960815 -0.39920914 -0.3060492 0.3290305 0.33100623 -0.18480478 -0.38424164
0.27208403 -0.49250275 -0.2464523 0.2742661 -0.24287651 0.3025812 0.25838634 -0.43260583
0.27316818 -0.2792388 -0.33069098 0.14764428 0.33474788 0.32305318 -0.46948496 0.21189898
0.18814422 0.085372455 0.24525899 0.2584947 -0.41482797 -0.19590187 0.14962605 -0.37916046
-0.4396559 0.25644404 0.3111874 -0.16269846 -0.04203375 0.23379864 0.40476212 0.056276865
-0.43994257 0.18790968 -0.36941233 -0.29061404 0.27233702 0.23556174 0.118973225 -0.45152378
-0.38792065 0.3392861 -0.32338208 -0.2894248 0.3524407 0.191295 0.4039517 -0.34744245
-0.2925136 0.40086004 -0.30304638 -0.23663327 -0.30850193 0.36416274 -0.22685999 0.34371316
-0.4554224 -0.48343673 0.27066547 0.2363312 -0.37263906 0.21031384 0.24330008 -0.3205749
0.42329067 0.38004255 -0.36592865 -0.32710296 -0.30576912 0.23797193 -0.3080875 -0.3062176
-0.2579537 0.3792384 0.37170988 -0.1866963 0.3492378 -0.2058722 0.41985434 -0.29045314
-0.1876751 0.017974438 0.4299676 -0.18723969 0.017065167 -0.24506325 0.36239088 -0.36093566
0.3270605 -0.3244598 -0.36694175 0.35579237 0.33549443 -0.4121696 0.06472149 -0.28898945
-0.37517563 0.17780176 0.15364869 0.25991902 -0.30307832 0.2780895 -0.38182625 -0.39455456
0.028485158 0.22094512 0.40203318 0.43918663 -0.15465727 -0.26682824 -0.3384662 -0.31410077
-0.2098592 -0.30482855 0.18934166 -0.32873398 0.3692394 0.4290005 -0.294348 0.32016063
0.18345404 -0.33268642 -0.31682014 0.28984982 0.253245 -0.36196205 -0.0008123985 -0.015448632
0.0008983597 0.0008250504 -0.0007764429 7.027811e-05 -0.00014732163 -0.32137713 0.4269862 0.32799745
-0.33829415 -0.31801602 -0.27299547 0.33231187 -0.24584849 -0.30107838 -0.19153687 0.40316775
0.26184407 -0.17418835 -0.24106108 0.38576624 -0.2394369 0.31080267 -0.37797683 -0.21859816
-0.26320067 0.1776131 0.33248162 0.31250253 -0.25956064 -0.30849096 -0.3913613 0.35009363
-0.27954507 -0.3080257 -0.46520105 0.20644824 0.35166073 -0.40382722 0.3272248 0.25664973
-0.25472525 -0.36304954 -0.32788664 0.30405203 0.34411585 -0.23802939 0.393514 0.3895694
0.36032313 -0.34979123 0.22526188 0.20455094 -0.3794221 -0.4270986 0.09034179 0.3938607
0.36401942 -0.30532122 -0.37237367 -0.21829233 -0.25563434 -0.42376724 0.33110172 -0.3283291
0.3683526 -0.35332882 -0.31756046 0.38294417 -0.13055559 0.47804156 -0.12281654 0.379129

layers.1.gcn_1.bias f4 [7]
00000000: 36e3 253d 4e96 933d 4528 0a3e d91c 12be
00000010: 106b cbbd 5957 793c e20a c0bd
0.04049989 0.07206403 0.13491924 -0.14268817 -0.0993253 0.015218579 -0.09377076
