cache/pretrained/pretrained_64.pt (torch_old, 950836 bytes, 4 tensors)

layers.0.gcn_0.weight f4 [3703, 64]
-0.021020405 0.06327665 -0.07227462 0.01855243 0.038278855 -0.015566282 -0.03565387 0.079416536
0.045460243 -0.017294586 -0.0263491 0.028097145 0.002048494 -0.018809646 -0.015583374 -0.02908934
0.058932047 0.0730888 0.021646557 0.03375853 0.006344781 0.038817644 -0.011902853 -0.0009874385
0.039594036 0.049966443 0.08799553 -0.0349436 -0.016297227 -0.009963529 -0.00010663398 -0.0026092778
0.017178101 0.0037415263 0.011404965 -0.072576016 -0.04219785 0.029540956 -0.0033882193 -0.022124227
0.009809754 0.025137212 0.0551421 -0.04289186 0.020282004 -0.018675743 0.021261217 0.012657769
0.027138602 0.014281265 0.030231688 0.054996032 -0.018989233 0.05334279 0.072936736 -0.07104078
-0.04103428 -0.044129234 0.036347758 -0.052174784 -0.0023517802 0.07341784 -0.04380442 -0.022298098
-0.0177562 0.04765511 0.053240336 0.050114684 0.029949853 0.07921912 -0.031490024 -0.002157833
-0.022074347 -0.0113945 0.04252043 0.060654733 0.056120615 -0.03161034 0.063172124 0.012940289
-0.07842681 0.0125940135 0.028856264 0.018213779 -0.020537525 0.05310746 -0.038720146 0.04438208
0.06618339 -0.014924717 0.011305584 -0.0065146717 0.014311569 0.077461265 0.019102456 0.029705398
-0.0013669224 -0.047224138 -0.0090049505 -0.04251795 -0.021154352 0.04177837 0.04745086 -0.02791641
-0.08583624 0.010645689 -0.05144293 0.005280045 -0.013884798 0.027634945 0.04384034 0.08894452
0.035136793 0.07822408 0.046066646 -0.055737574 0.027764421 0.029620817 -0.026275259 0.06865984
-0.036717277 -0.007162255 0.029739244 0.06658738 0.00704702 -0.024236254 -0.055054307 -0.0739194
0.030357938 0.018306816 -0.03639322 0.006557575 0.02135447 -0.022088159 -0.001163438 -0.0030279707
0.05447948 -0.029547296 -0.009400472 -0.012961923 0.02186993 -0.008568281 -0.008575764 -0.042736907
0.01968303 0.038302995 0.058568545 0.0040675234 -0.042797543 -0.05069178 0.0015933441 -0.008454611
0.05339594 0.047143303 0.0017474182 -0.066716224 0.010841208 -0.045460578 -0.02374295 -0.04444721
-0.040485118 0.04692383 0.022297133 -0.06464984 -0.057528093 -0.029210228 0.041059893 -0.032076787
0.022010883 -0.032445915 0.09275761 -0.01571834 0.052864637 -0.015012844 0.020102037 0.03460241
-0.03779972 -0.037742335 0.07921362 -0.02235391 -0.027271807 0.05361203 -0.0022066345 0.005814036
-0.011054574 -0.020867504 0.012309795 -0.046119034 -0.06519505 0.06852636 0.03840173 -0.0019480513
-0.038627867 0.049265537 0.026576985 0.023766527 -0.03136007 0.018130414 0.021145672 -4.7944217e-05
-0.0114500765 -0.012132314 0.020672478 -0.016723003 -0.035061996 0.0064343326 0.009682635 0.06647879
-0.013809956 -0.030590419 -0.016977834 0.013493527 0.014218613 0.046338495 -0.018712275 0.049386606
0.016538043 -0.02220373 -0.034689832 0.033503637 0.01890031 0.065614656 0.06231171 0.032160282
-0.0025594987 -0.009536593 0.001565763 -0.0033636116 -0.027953967 0.0158023 0.030411417 0.05592672
-0.023271807 0.012049725 0.003042652 0.019267622 -0.0095375655 0.009853175 0.019025516 0.024088116
-0.016252508 -0.00048203536 0.028654091 -0.034681775 0.033477258 -0.010150876 -0.013894783 0.015376022
-0.007512776 0.012648977 0.029483065 0.022798872 -0.0154794445 -0.0023074485 0.019905362 0.0078142
00000000: fc32 acbc 3097 813d b704 94bd 44fb 973c
00000010: 4aca 1c3d b809 7fbc cb09 12bd 23a5 a23d
00000020: 8534 3a3d 60ad 8dbc 11da d7bc fc2b e63c
00000030: 0740 063b b016 9abc 6851 7fbc c44c eebc
00000040: bb62 713d 95af 953d 1f54 b13c 6246 0a3d
00000050: e1e7 cf3b 40ff 1e3d 2f04 43bc f06c 81ba
00000060: 5b2d 223d 9da9 4c3d 0037 b43d 0521 0fbd
00000070: c381 85bc 123e 23bc afa0 dfb8 6b00 2bbb
00000080: 17b9 8c3c 6534 753b e4db 3a3c bca2 94bd
00000090: a7d7 2cbd e0ff f13c e30c 5ebb de3d b5bc
000000a0: 17b9 203c 8eec cd3c afdc 613d 60af 2fbd
000000b0: 7226 a63c dffd 98bc 012c ae3c 8862 4f3c
000000c0: c651 de3c f8fb 693c 72a8 f73c 8543 613d
000000d0: 4f8f 9bbc f87d 5a3d db5f 953d d47d 91bd
000000e0: 9013 28bd dbc0 34bd 63e1 143d 3ab5 55bd
000000f0: 5320 1abb 185c 963d 436c 33bd 80aa b6bc
00000100: 7375 91bc 0132 433d 8a12 5a3d 0e45 4d3d
00000110: 6559 f53c a23d a23d affb 00bd 6e6a 0dbb
00000120: 43d5 b4bc ffaf 3abc e729 2e3d 1971 783d
00000130: bbde 653d d879 01bd 6360 813d 8203 543c
00000140: 3c9e a0bd 1f57 4e3c f963 ec3c 1035 953c
00000150: 503e a8bc 3587 593d 0499 1ebd fcc9 353d
00000160: 288b 873d cd86 74bc 0e3b 393c 0779 d5bb
00000170: 127b 6a3c 03a4 9e3d c17c 9c3c bc58 f33c
00000180: 4e2a b3ba 196e 41bd 8089 13bc 4d27 2ebd
00000190: e44b adbc cc1f 2b3d d55b 423d f4b0 e4bc
000001a0: e9ca afbd 426b 2e3c d2b5 52bd 3a04 ad3b
000001b0: 107d 63bc ae62 e23c ee91 333d 8b28 b63d
000001c0: 99eb 0f3d f233 a03d 61b0 3c3d 154d 64bd
000001d0: 3672 e33c 5ba7 f23c 363f d7bc 889d 8c3d
000001e0: db64 16bd 59b1 eabb b79f f33c f75e 883d
000001f0: b0ea e63b 1c8b c6bc a080 61bd 0e63 97bd
00000200: 36b1 f83c 2df8 953c 0f11 15bd ede0 d63b
00000210: 92ef ae3c 3af2 b4bc 807e 98ba eb70 46bb
00000220: e025 5f3d 2c0d f2bc 7004 1abc 3f5e 54bc
00000230: 9128 b33c fa61 0cbc 5c81 0cbc e50c 2fbd
00000240: 4e3e a13c 9ae3 1c3d 92e5 6f3d dc48 853b
00000250: 7a4c 2fbd 2fa2 4fbd c2d7 d03a 3585 0abc
00000260: b4b5 5a3d 5619 413d a009 e53a 84a2 88bd
00000270: 529f 313c df34 3abd 9380 c2bc 470e 36bd
00000280: b9d3 25bd 3433 403d 7aa8 b63c 2367 84bd
00000290: 94a2 6bbd 4a4a efbc 6b2e 283d f362 03bd
000002a0: 2b50 b43c 02e6 04bd b4f7 bd3d c0c3 80bc
000002b0: 9788 583d 6ef8 75bc 07ad a43c 42bb 0d3d
000002c0: e1d3 1abd b597 1abd c03a a23d 8c1f b7bc
000002d0: 2069 dfbc 4a98 5b3d 2f9d 10bb ab83 be3b
000002e0: 3e1e 35bc 54f2 aabc 06af 493c 50e7 3cbd
000002f0: fb84 85bd 8c57 8c3d 224b 1d3d c155 ffba
00000300: 4138 1ebd a9ca 493d fab7 d93c 05b2 c23c
00000310: 6b73 00bd 3c86 943c b039 ad3c b617 49b8
00000320: 1a99 3bbc 9dc6 46bc 5459 a93c aefe 88bc
00000330: 2b9d 0fbd 18d7 d23b eaa3 1e3c 0826 883d
00000340: 2743 62bc c298 fabc 1915 8bbc f413 5d3c
00000350: 2ff5 683c 6fcd 3d3d 7c4a 99bc 9c49 4a3d
00000360: ca7a 873c 99e4 b5bc ed16 0ebd 1c3b 093d
00000370: d3d4 9a3c fa60 863d 903a 7f3d 80ba 033d
00000380: 43bd 27bb 5f3f 1cbc 4a3a cd3a 0a70 5cbb
00000390: b8ff e4bc d373 813c 5d21 f93c 6b13 653d
000003a0: 84a4 bebc 366c 453c 3b67 473b 22d7 9d3c
000003b0: 7343 1cbc 366f 213c 66db 9b3c 7154 c53c
000003c0: fb23 85bc b1b9 fcb9 fcbb ea3c 7a0e 0ebd
000003d0: 731f 093d dc4f 26bc f2a6 63bc b6eb 7b3c
000003e0: bc2d f6bb a83d 4f3c 7886 f13c b3c4 ba3c
000003f0: 7f9d 7dbc 9038 17bb 9210 a33c 2107 003c

layers.0.gcn_0.bias f4 [64]
0.028278558 0.016891722 0.061758023 0.021597391 0.056441437 0.060057513 0.06405135 0.02845308
0.03485341 0.059819125 0.022398425 0.04416659 0.027803684 0.054393657 0.05475236 0.059960265
0.04561353 0.05056228 0.05993727 0.023020407 0.054045826 0.025463931 0.05536124 0.06078963
0.029922703 0.040222477 0.06536197 0.055774864 0.036075957 0.06399901 0.027330814 0.05820224
0.012110731 0.034810256 0.05161631 0.030336076 0.05520477 0.03740094 0.02922972 0.06054771
0.06350429 0.028010981 0.046417087 0.062136766 -0.0022353022 0.022025894 0.031218372 0.03209356
0.025254877 0.01589208 0.04899421 0.0025222525 0.03751325 0.02818646 0.021454437 0.030420119
0.05838611 -0.012361464 0.031169001 0.0315615 0.03201561 0.026510425 0.06017265 0.062495396
00000000: 6fa8 e73c 8260 8a3c fbf5 7c3d 03ed b03c
00000010: 232f 673d defe 753d 5b2d 833d 6f16 e93c
00000020: 73c2 0e3d e604 753d e77c b73c 07e8 343d
00000030: 8dc4 e33c e2cb 5e3d 0344 603d e598 753d
00000040: 41d5 3a3d 651a 4f3d c880 753d 4b95 bc3c
00000050: 285f 5d3d bc99 d03c 78c2 623d 8cfe 783d
00000060: 7520 f53c 53c0 243d 7fdc 853d 2f74 643d
00000070: 62c4 133d ea11 833d dfe4 df3c 7965 6e3d
00000080: 166c 463c 3395 0e3d a06b 533d 5d83 f83c
00000090: 661e 623d ba31 193d 2a73 ef3c e000 783d
000000a0: 8a0e 823d 4977 e53c d81f 3e3d 1f83 7e3d
000000b0: 267e 12bb a66f b43c acbd ff3c 8974 033d
000000c0: 51e3 ce3c 1b30 823c 27ae 483d 604c 253b
000000d0: 7ea7 193d 4ae7 e63c 37c1 af3c 9d33 f93c
000000e0: 4626 6f3d bd87 4abc 2256 ff3c a246 013d
000000f0: cd22 033d 642c d93c 9977 763d 2cfb 7f3d

layers.1.gcn_1.weight f4 [64, 6]
0.267003 -0.326067 0.15957764 0.175508 -0.13159496 -0.18629529 0.17103583 0.01968548
-0.2618651 0.17523068 -0.0027157844 0.23313859 -0.32718304 0.010685473 0.10391751 0.3049841
0.23876256 0.20790069 0.20330068 0.0047931466 -0.30211526 -0.23296756 -0.29389322 0.14546825
0.22976412 -0.020499704 -0.020184502 -0.21800794 -0.26035833 -0.0019187425 -0.2808265 0.14577682
-0.2660061 -0.35118032 -0.23123051 0.112936415 -0.17567657 0.15576902 0.21465763 0.25131068
0.21225369 -0.114349164 0.2148044 -0.3078988 -0.2661223 -0.18110566 -0.19191033 0.16711223
0.2211773 0.09059844 0.09207346 -0.18424302 -0.11405565 -0.16591199 -0.32619303 0.28181323
0.18149008 -0.20019019 -0.28180858 0.07485715 -0.15472567 -0.22523762 0.0774213 -0.15405792
0.079816274 0.04890972 0.2152989 -0.35249043 -0.28654686 0.3133845 -0.09311876 0.26648736
0.27423406 0.015683834 -0.28117222 -0.014637154 -0.31636214 -0.16203256 0.0126320785 -0.22348116
-0.1856323 0.2645356 0.26861894 0.2777337 -0.32218033 0.08508624 -0.32541525 0.26142898
-0.14686932 -0.2664804 -0.09361388 -0.008028626 -0.2692605 0.14041048 0.28883788 -0.19098985
0.20049313 -0.11560741 0.18111031 0.10295023 -0.19551943 0.2647327 0.05024625 0.27802697
0.11223819 -0.2977292 -0.28232458 -0.053859495 0.27471408 0.12247471 0.21304515 0.1106327
-0.23217277 -0.18595847 0.13405378 0.31464362 -0.32047474 0.16224581 -0.14001134 0.011517214
-0.16219126 -0.27603942 -0.0493385 -0.31099063 -0.11232559 0.28915158 -0.31592503 0.12353233
-0.32343996 0.19967234 0.1740853 -0.2668437 0.10168382 -0.18820663 0.17438534 -0.010061092
-0.09533858 -0.11915472 -0.1385035 0.34379274 -0.28138942 0.17596449 0.24592882 0.23638727
0.28285298 0.26277235 0.20176637 -0.2706027 0.018574668 0.13874279 0.19724508 0.035808254
0.04313418 -0.14198239 0.0792917 -0.29245278 0.25692043 0.0641698 0.078815036 0.31475824
0.31389424 -0.33239633 -0.09575263 0.19655669 0.2936927 0.045391005 -0.037089452 0.27918714
0.09060198 -0.2544298 -0.18503946 -0.30426812 0.17425898 -0.15981446 -0.031404708 -0.16609578
-0.022099532 0.3049845 0.34329286 -0.019808479 -0.16545683 0.025719982 -0.3035605 0.13028204
-0.026582979 0.11710747 -0.29512239 -0.22970065 -0.28665322 -0.33548242 -0.04750548 0.02023167
-0.0853288 -0.02908693 0.30492532 0.070296735 0.16565207 -0.19295645 0.14041099 -0.22015539
0.23104915 0.06302205 -0.33653945 -0.05729676 0.2484346 -0.21591178 -0.19813663 -0.0691654
0.2152372 -0.15639707 -0.32292578 0.07856059 0.16244763 0.19336455 -0.26583973 -0.026943123
-0.12934148 -0.10928738 0.3026693 0.3214201 -0.3273135 -0.2821694 -0.35385123 0.10528908
0.013511512 -0.20112441 -0.09097119 -0.07854563 0.256886 -0.16951765 -0.062270254 -0.09707514
0.28925097 0.15193236 -0.15249465 -0.14811374 0.098831736 0.11969035 0.3513516 -0.10090952
0.2343227 -0.17766905 0.28676176 -0.12597723 -0.29093835 -0.19161801 0.2831606 0.2013997
-0.19431919 0.1679333 0.08740178 -0.32820332 0.23931171 -0.16760288 0.059285596 0.12204609
00000000: 9eb4 883e 41f2 a6be 5268 233e 5fb8 333e
00000010: d4c0 06be 31c4 3ebe 0424 2f3e 7243 a13c
00000020: 2f13 86be ac6f 333e 4dfb 31bb e2bb 6e3e
00000030: 8984 a7be 1f12 2f3c b4d2 d43d e026 9c3e
00000040: 2c7e 743e ebe3 543e 0e2e 503e d40f 9d3b
00000050: daae 9abe 0c8f 6ebe 2c79 96be a1f5 143e
00000060: 4947 6b3e ffee a7bc f859 a5bc 793d 5fbe
00000070: b04d 85be 517e fbba 7ec8 8fbe 8546 153e
00000080: f431 88be e8cd b3be b1c7 6cbe 354b e73d
00000090: 8fe4 33be ea81 1f3e 36cf 5b3e cbab 803e
000000a0: 0859 593e e52f eabd aff5 5b3e e9a4 9dbe
000000b0: 2f41 88be c373 39be 2484 44be 781f 2b3e
000000c0: 4d7c 623e ad8b b93d 0391 bc3d 34aa 3cbe
000000d0: 0296 e9bd d5e4 29be c602 a7be d349 903e
000000e0: 89d8 393e a8fe 4cbe 3749 90be b54e 993d
000000f0: 6870 1ebe b1a4 66be 0f8f 9e3d 5cc1 1dbe
00000100: b776 a33d 8f55 483d 5177 5c3e a079 b4be
00000110: 45b6 92be ef73 a03e 0cb5 bebd 0871 883e
00000120: 6868 8c3e 627b 803c cef5 8fbe acd0 6fbc
00000130: 38fa a1be ddeb 25be c7f6 4e3c 3fd8 64be
00000140: 6516 3ebe 3671 873e 6c88 893e 1d33 8e3e
00000150: d2f4 a4be b241 ae3d d49c a6be 05da 853e
00000160: e964 16be 1e70 88be a2b8 bfbd 808a 03bc
00000170: 83dc 89be c4c7 0f3e 8fe2 933e d892 43be
00000180: 124e 4d3e 94c3 ecbd fb74 393e 92d7 d23d
00000190: 3f36 48be 0b8b 873e 03cf 4d3d 8d59 8e3e
000001a0: 23dd e53d f66f 98be d98c 90be c69b 5cbd
000001b0: 53a7 8c3e 05d4 fa3d 8228 5a3e 6693 e23d
000001c0: b3be 6dbe e66b 3ebe 6545 093e f818 a13e
000001d0: 4415 a4be c423 263e 225f 0fbe b2b2 3c3c
000001e0: 7715 26be 0a55 8dbe 2b17 4abd 2a3a 9fbe
000001f0: f50a e6bd ad0b 943e edc0 a1be 85fe fc3d
00000200: ec99 a5be e876 4c3e 6b43 323e bd9f 88be
00000210: 9b3f d03d 3db9 40be 1292 323e 47d7 24bc
00000220: e040 c3bd 6407 f4bd ddd3 0dbe 9a05 b03e
00000230: 4612 90be 0930 343e c4d4 7b3e 810f 723e
00000240: 1bd2 903e 198a 863e d89b 4e3e 708c 8abe
00000250: e729 983c 9712 0e3e 9dfa 493e adab 123d
00000260: 77ad 303d d563 11be b063 a23d 5fbc 95be
00000270: 138b 833e 756b 833d c769 a13d fe27 a13e
00000280: bfb6 a03e da2f aabe f419 c4bd 2846 493e
00000290: e45e 963e ebeb 393d 1ceb 17bd 9ef1 8e3e
000002a0: 888d b93d 9f44 82be fc7a 3dbe 08c9 9bbe
000002b0: f270 323e 67a6 23be 39a2 00bd 0315 2abe
000002c0: 140a b5bc ee26 9c3e 15c4 af3e 6445 a2bc
000002d0: 846d 29be b6b2 d23c 486c 9bbe a868 053e
000002e0: 8cc4 d9bc 0bd6 ef3d 481a 97be a636 6bbe
000002f0: 36c4 92be 5ac4 abbe 1b95 42bd e3bc a53c
00000300: dec0 aebd b747 eebc 2c1f 9c3e bcf7 8f3d
00000310: b2a0 293e 6096 45be e6c7 0f3e 6a70 61be
00000320: 2698 6c3e b411 813d e64e acbe 02b0 6abd
00000330: a465 7e3e fa17 5dbe 54e4 4abe 97a6 8dbd
00000340: 2467 5c3e 8e26 20be 8756 a5be 60e4 a03d
00000350: ac58 263e 5b01 463e 251c 88be d3b7 dcbc
00000360: 1872 04be 10d2 dfbd 78f7 9a3e 2d91 a43e
00000370: a395 a7be 8278 90be fd2b b5be cda1 d73d
00000380: 645f 5d3c 8ff3 4dbe 1a4f babd 88dc a0bd
00000390: 9086 833e 0996 2dbe 180f 7fbd 55cf c6bd
000003a0: b418 943e 2894 1b3e 8f27 1cbe 21ab 17be
000003b0: 4b68 ca3d 3720 f53d 5be4 b33e a7a9 cebd
000003c0: 4af2 6f3e e0ee 35be 70d2 923e 2d00 01be
000003d0: dff5 94be 8337 44be 6dfa 903e b93b 4e3e
000003e0: 9cfb 46be b5f6 2b3e b4ff b23d 440a a8be
000003f0: 210e 753e 17a0 2bbe 74d5 723d 4df3 f93d

layers.1.gcn_1.bias f4 [6]
-0.009165941 0.033941187 0.035431653 -0.055469114 0.06304819 -0.02246153
00000000: be2c 16bc ea05 0b3d c820 113d 9533 63bd
00000010: 691f 813d 3e01 b8bc
