cache/pretrained/pretrained_11.pt (torch_old, 950836 bytes, 4 tensors)

layers.0.gcn_0.weight f4 [3703, 64]
00000000: a1c3 233d c584 4dbc c210 3b3d e266 b1bb
00000010: 6c83 9cbb 53b6 8bbc 99f3 f0bb 9ae1 4c3d
00000020: 93b3 babd 0ce8 603d 1b7e 9abc de00 8fbc
00000030: 1046 76bd 54e9 413d 82db 963d fc75 853d
00000040: 57cf c23c 9b1e 4fbb 6d80 31bd dd94 b13c
00000050: 57f2 5c3d 48fc d73c b61b c6ba 5008 813c
00000060: bdbf 203c 3fba f13c 00e6 5e3d 8a6d 5d3d
00000070: 3baa ddbb b241 47bc d375 063d e260 833c
00000080: 75e7 38bc bd0f f03c 5dcf b9bb 7759 813d
00000090: 8e2b f5bb fc44 ac3b 8e50 6b3d e563 d93b
000000a0: e737 20bd c9c1 8fbb 4fc2 353a 0002 a53d
000000b0: 4ec4 1d3d 736f af3d 2a2c 263d 6f8e 98bc
000000c0: 21e5 a23c 12cf 22bd 8bea 6a3c 11bc 9d3b
000000d0: c54b 523d 67c6 3e3d 8688 7a3d 24cd a1bc
000000e0: 30e3 b13b 0129 88bd c38a cbbb d6ba 843d
000000f0: 0ec3 0d3d d455 00bd 8c4b 083d 6798 123d
00000100: 6e6b 483c 8d07 293d c26c 6dbd b2ac d63c
00000110: fef1 903d 5ea7 853b 7043 913b 2fe9 303d
00000120: 2cb9 2dbd 3d0f d6bc 4f5f 983d a83e 293d
00000130: 1225 b03d 96d5 f03b 596c 523d 9898 833d
00000140: 99d5 d73c de3d 86bd a426 2abd 4749 da3c
00000150: 15cb f7bc aa16 a9bd 3da1 97bd 87e5 1cbd
00000160: ec9d ccbc 7dde 403d 6ca7 1c3d 0230 6e3d
00000170: 8abb 243d 1a79 4abd 2cf5 1c3d e775 503d
00000180: 3612 9f3c 2065 5b3d a769 5b3d 6710 d13c
00000190: 5271 94bb 905f 1dbd 01ac 9c3c cc37 6dbd
000001a0: 5d51 e6bc 49ef a5bd 57a5 1c3d 3f30 913d
000001b0: be77 8b3d eaec da3b f4c9 283d dfdf 823d
000001c0: 8092 cbbd 5e5e 743d 2cdd 6b3d a6f9 ca3c
000001d0: 5ee1 95bd 08f0 703d c99f ca3d 2b7b 8d3d
000001e0: 40f9 943d 1c13 b43c 42dd a73d 30a2 a7bc
000001f0: 1507 2a3d 4375 8dbc 22b9 8e3d abb4 20bb
00000200: d7c8 283c 647f 5f3d 74b6 9fbd ae03 923c
00000210: 48c4 8fbc 925f bebc 089c 823c ef97 353d
00000220: ca37 d7bc fb74 6dbd d9fd 0ebc 027d 063d
00000230: 1108 c43c 3548 5ebc 9baf 3e3d aa34 1b3d
00000240: 7ac0 fa3c 7627 bdbc e370 06bd 2be6 e7bc
00000250: 3996 0fbd 1314 99bc 2562 70bd 7638 c9bc
00000260: 311a 86bc 5776 9b3d 325e 413d 99f0 9f3c
00000270: 69af 2f3d e4f0 8bbd e970 2d3d 8336 643d
00000280: 33fb 023d d1d9 e63c 4eaf 523d d604 e6bc
00000290: 0e6e 493d a8f5 2bbd 12d8 d4bc 6f7a d4bc
000002a0: 0f64 a73d 695d c8bc 69e1 fe3c aa09 6e3d
000002b0: 7770 8a3d 1f7d 6c3c 36da 9d3b 21fc 883c
000002c0: 9c3c 33bd 9fcd b03c 285b d73c ad4b f3bc
000002d0: 6350 93bd 3397 873c 3dda 463d b53e b43c
000002e0: 5e72 353d 063f 683d 6df6 783d 55d6 8cbb
000002f0: f246 023d 923b 78bc b107 453b d850 17bd
00000300: e045 b33a 2b15 a13d be86 09ba 0250 5b3d
00000310: 237f 11bc 1976 f4bc 276e 283d 21a6 8b3c
00000320: 98f4 27bd f68e 993c 7f4e 76bd 0ff4 293c
00000330: 8208 b33d c585 133d 6927 9e3c abf8 a33d
00000340: e468 9e3d 9b50 9bbd 1578 acbc ad24 333b
00000350: 09e1 b3bd 2d40 ffbc 023a b4bb 2e7d c23b
00000360: d421 bb3a 310e 143b 3911 013c 5480 563d
00000370: f4bd be3c 097d 94bc cf46 c03c bd49 a63d
00000380: 4845 8d3d 743d 133d ed3e 1d3d fe9c a43c
00000390: bb7f 6a3c 4def 183a ae75 a7bd d5f6 55bc
000003a0: 88b2 303d 5ece 2e3d 91e4 403c 004d 313d
000003b0: 3049 cb3c 11ce 003c 700a 273d e848 213d
000003c0: 50a6 87bc 4e44 753d 1306 8d3d 31b1 8d3d
000003d0: e43c b6bc 4831 0a3d 5217 573d c520 613d
000003e0: 3646 2d3d 0035 943c e863 f93c d49e 39bc
000003f0: b141 ac3a 472f fdbc 3e6c cdbc bd6e a93c
0.03998149 -0.012543862 0.04567028 -0.005413876 -0.004776409 -0.017054712 -0.007353258 0.050019838
-0.09116282 0.054908797 -0.01885896 -0.017456468 -0.06012541 0.04734166 0.073660865 0.06516644
0.023780508 -0.0031603936 -0.043335367 0.021677429 0.05394205 0.026365414 -0.001511446 0.015751034
0.009811339 0.029507754 0.054418564 0.054059543 -0.006764678 -0.012161659 0.03282721 0.016037408
-0.011285652 0.02930438 -0.0056704716 0.06315892 -0.0074819988 0.005257247 0.05744987 0.006634223
-0.039115813 -0.0043871147 0.0006933556 0.08057022 0.03851729 0.08566179 0.040569462 -0.018622605
0.019884648 -0.03974826 0.014338146 0.004813679 0.05134179 0.04657593 0.061165355 -0.019751139
0.005428694 -0.06648446 -0.00621161 0.064809486 0.034609847 -0.031331852 0.033275172 0.035789873
0.0122326445 0.041266967 -0.057965048 0.026205394 0.07077406 0.0040787896 0.004433088 0.04319113
-0.04241292 -0.026130313 0.07440054 0.04131952 0.086008206 0.00734968 0.05137286 0.06425589
0.026346968 -0.06554769 -0.041540757 0.02664627 -0.030248204 -0.08256276 -0.07403801 -0.03830483
-0.024977647 0.04708718 0.038245603 0.058151253 0.040217914 -0.049431898 0.03831975 0.05089369
0.019417863 0.053563237 0.053567555 0.025520517 -0.0045301104 -0.038421214 0.019124987 -0.05791454
-0.028114969 -0.08102281 0.038243618 0.0708928 0.068099484 0.0066810744 0.041208223 0.06390356
-0.09940052 0.059660308 0.057583973 0.024777245 -0.07318376 0.05882266 0.09893758 0.06908258
0.07274103 0.021981768 0.081964985 -0.02046308 0.04151066 -0.017267829 0.06968905 -0.002452175
0.01030179 0.05456485 -0.07798472 0.01782402 -0.017549649 -0.02323893 0.015943542 0.04433435
-0.02627172 -0.05797289 -0.008727514 0.03283406 0.023929628 -0.01356702 0.04655419 0.03789202
0.030609358 -0.023090106 -0.0328225 -0.028307995 -0.035055373 -0.01868633 -0.058687348 -0.024563055
-0.01636991 0.07590931 0.047208972 0.019523906 0.042891894 -0.068330556 0.042344008 0.05571605
0.031977843 0.028180035 0.051436715 -0.028078478 0.049177222 -0.041982323 -0.025981937 -0.025937287
0.081733815 -0.024458604 0.031113343 0.058114685 0.06759732 0.014434128 0.0048172725 0.016721787
-0.043758973 0.021582423 0.026288584 -0.029699171 -0.07193067 0.01655159 0.048547972 0.022002557
0.044298522 0.05670073 0.060781885 -0.0042980113 0.03180594 -0.015150921 0.00300644 -0.036942333
0.0013677441 0.078653656 -0.00052462134 0.0535431 -0.008880409 -0.02984147 0.041120674 0.01704699
-0.041004747 0.018744927 -0.060133453 0.0103731295 0.08741857 0.036016244 0.019305902 0.08006414
0.0773485 -0.07583734 -0.021053353 0.0027335093 -0.087831564 -0.031158531 -0.005500079 0.0059353327
0.0014277049 0.0022591467 0.007877641 0.052368477 0.023283936 -0.018126028 0.023471264 0.08119533
0.0689798 0.03594728 0.03839009 0.020094391 0.01431268 0.00058339984 -0.081767425 -0.013059338
0.04313901 0.042677276 0.0117732445 0.043286324 0.024815172 0.00786163 0.04078144 0.03937617
-0.016558796 0.059879594 0.06885924 0.06918562 -0.022245832 0.033738405 0.052512474 0.054962892
0.042303286 0.018091679 0.030443147 -0.0113293715 0.0013142136 -0.030906333 -0.025076028 0.020682687

layers.0.gcn_0.bias f4 [64]
00000000: bd50 663d c2f7 5f3d 8202 563d 9b27 e83c
00000010: 5de1 c33c f8ed 653d 3aef 1c3a 3785 583d
00000020: 1be3 543d bdc2 683d 631d cc3b aff2 eb3b
00000030: 9a46 a23c 5880 ef3c 8601 f43c 7a42 773d
00000040: f42e 023d cd5b 073d a137 073d 18e8 f33c
00000050: 942b 853d 1faf 693d 2904 583d 674d 7c3c
00000060: 1b51 8d3c 9b75 7a3d 0d67 813d bd38 6d3d
00000070: 24a3 653c ef2a 563d 3fa8 d63c 6fce bf3c
00000080: 1e3b ea3c 5ded 6c3d c586 ec3c 5ae0 623c
00000090: 8f0d 083b 5abb 153d b6f1 653d af9a 0d3d
000000a0: 26f5 723d 0c78 573d bb26 6f3d 91be 033d
000000b0: 692c 5e3d 563e d93c a49c 3f3d 8b26 0a3d
000000c0: ce31 543d 5a65 b83c 15d0 f23c 22d1 473d
000000d0: 8d36 073d 4321 743d 9a1a f13c 5414 e33c
000000e0: 3d2d 063d 6b3c 373d 5a27 263d aa8c 073d
000000f0: feca 073d c821 f53c f56d 553d bff1 4f3d
0.05622934 0.05467964 0.052248485 0.028339198 0.023911173 0.056135148 0.0005986575 0.05286142
0.051974397 0.056826342 0.006229089 0.007200561 0.019809056 0.029236004 0.029785883 0.06036613
0.03178306 0.033046532 0.033012036 0.029773757 0.065024525 0.057051774 0.052738342 0.0153993135
0.017250588 0.061147314 0.063184835 0.057915438 0.014015947 0.05228704 0.026203273 0.023413865
0.028592642 0.057843555 0.028872857 0.013847435 0.0020760035 0.036555625 0.056138717 0.034571346
0.059315823 0.05260472 0.058386546 0.03216416 0.05424157 0.026518982 0.046780244 0.033728164
0.05180531 0.022509266 0.029640237 0.04878343 0.033011008 0.059602033 0.02943163 0.027719654
0.032757986 0.044735353 0.040564872 0.033093132 0.033152573 0.029923335 0.052106816 0.050767656

layers.1.gcn_1.weight f4 [64, 6]
00000000: 2dde 473e 3692 373e 960c 8d3e be5e a5be
00000010: 7475 8dbe 6703 b63c 5d96 aebd c385 d7bd
00000020: 4222 2d3e ad82 4a3e 47da 4e3e 383f 103e
00000030: edfd 66be 13c0 523e e5d8 57be 46dd a73e
00000040: 82db 813e a3ad 65be 1548 acbd 344b 4abe
00000050: a05d 0a3e 9260 773e c325 c0bd 78c8 16bd
00000060: 311a 6dbe 2d13 043e 3efc a0be defb 8f3d
00000070: 36d5 163e fafd 763d e33e 75bd 4746 cb3d
00000080: 18d6 3ebe 4be5 16be 85a9 213e 7bd1 7bbd
00000090: e0a6 00be 83fe c8bd 7f7a 683e 2d79 153e
000000a0: 82ef a2bd a349 933e e316 db3d 25e1 433e
000000b0: 8889 443e 36a2 39be 5aad 183e f75a aa3e
000000c0: 15fb 81be d854 ab3e ef5c a33e b355 bb3d
000000d0: 97a4 96bd 9d43 33be b49a a13e 9022 83be
000000e0: dd45 6f3e 559f 7d3e 87df 703e 749e 86bd
000000f0: 59dd 203e 2741 21bd ba43 4abe 7953 67be
00000100: 9c56 3f3e c78b 47be 3265 8abd 06e9 e8bd
00000110: d9fd 2fbe 5dcf 9bbe 458a 423e c1ad 363e
00000120: a8fb 88be 5f0e a5bd 8f8a 5f3d fdb9 24be
00000130: 47ae 833e e329 893e 8625 a0bc c38f 20be
00000140: 68ec 27be a29c a63e 3b79 423e 0853 a7be
00000150: 7f5e 52be 86fd 2bbe c28f d0bd 3d63 2ebe
00000160: b94c 91be 6ea7 913e 2003 1e3e 49f3 863e
00000170: c7fa 64be 4829 f13d 7a47 5dbe b791 b43e
00000180: 0688 73be 1a6d 34be 3500 72be f946 933e
00000190: 8096 08bc ed29 983d 03eb 303e 69c8 873e
000001a0: bdf6 623e 0411 23be 1b13 60be 3eab 32be
000001b0: a4f2 043c 6a1d 22be 5431 48bd c3ed 66bd
000001c0: cc20 b23c b81e 8ebe 8909 c43d efcf 903e
000001d0: fcd2 aabe 67c1 843e e969 03bd a4f3 adbd
000001e0: 1e4e 2a3e 86ef 9f3e bcfa 713e acea 4ebe
000001f0: 09b2 76bc 4cae 84be 620e 0d3d ff13 a6be
00000200: 92b9 b43e 3af5 acbe 2883 683e 5eca a7bd
00000210: 28e1 c23d de13 95be 4aec 93be 9734 123e
00000220: 5b8c f73d 0d8c 6fbe bc7d 073e 3a51 9cb9
00000230: 564f 7ebe edcc 123e d7b7 2d3e b132 90be
00000240: e604 e23d 5c15 02be 405f 8d3e c00c 643e
00000250: c545 3dbe 949c afbe fdc9 6e3e 5085 7abd
00000260: dbf8 a8be fa8f 14be bd3b 87be 64f1 c73d
00000270: 672b fe3d 6fe5 efbd 8046 92bd afb1 8d3e
00000280: ef4d e2bd e072 c23d 2fca 223e 3739 d5bd
00000290: ce75 93be 289e 71bd 61a6 0fbd 63b8 383e
000002a0: 9061 81be 966f 7b3e 877d 2fbd df4d 82bd
000002b0: f407 05bd 4e51 2a3e 2fab 02be a09e b2be
000002c0: 1509 8d3d 2a4d eebd d204 b03e 3cc7 8dbe
000002d0: cf28 e3bd 9377 2cbe 6050 463e 59a1 48be
000002e0: 59cd e9bd 48a3 e23d 8dba 3abe 73d4 f03c
000002f0: 152d 6d3d 8fe1 84be cb89 87be 8b32 0d3e
00000300: 4883 98be 626b 52bd 4104 463e 5a75 2cbe
00000310: 5cc9 0b3e 3b9a 613e 8e1c 94be 9c9e fdbd
00000320: b5c6 a43e b1a1 1dbe 84ff 63be 5028 a63d
00000330: 8d27 e4bd 8133 08be 9c52 093e b31b 4abd
00000340: 1d23 a13e aeab 253e 0606 4e3c bd8c 88be
00000350: f58b 993c c48c 8d3e 6aa8 8b3e 6314 48be
00000360: b343 93be ea2b 60be 8573 58bd 7d1c 82be
00000370: 86a4 a6be 14e8 3fbd ccdf 7b3e fece b73d
00000380: 31d0 5b3d efcf b1be 121f 953d dff7 39be
00000390: 9de0 8c3e d590 90bd ca5d 27be e53f c23d
000003a0: d1b6 b8bc 29f0 cbbd c601 853e b861 fdbd
000003b0: e9fd a93c 7083 763e 9edd 973e 6e21 e8bd
000003c0: 3c05 babd f75c a9be c2d3 cb3d 22a7 93be
000003d0: 010d 503e 8710 4bbc 9c02 80be c080 91be
000003e0: c90f 633e df65 053e 680d 593d b396 95be
000003f0: c2b3 843e 7c46 823e a544 88bc 4aaa bb3d
0.19518347 0.17926869 0.27548665 -0.32298845 -0.27628672 0.02221842 -0.08524773 -0.1052356
0.169076 0.19776411 0.20200454 0.14086616 -0.22557802 0.20581083 -0.21078832 0.32786006
0.25362784 -0.22429518 -0.08412186 -0.1975525 0.13512278 0.24157932 -0.093822025 -0.036812276
-0.23154522 0.1289794 -0.31442446 0.07030462 0.14729771 0.060300805 -0.059874427 0.09925514
-0.18636358 -0.14735906 0.15787323 -0.061479073 -0.12563658 -0.09814169 0.22702979 0.14597006
-0.07955839 0.28767118 0.10697725 0.19128855 0.19193089 -0.18128285 0.14909878 0.33272526
-0.25386873 0.33463168 0.3190684 0.09147205 -0.07355612 -0.17506261 0.31563342 -0.25612307
0.23366494 0.24767812 0.23522769 -0.06573191 0.15709437 -0.039368775 -0.19752398 -0.22590436
0.18685383 -0.19486915 -0.06757583 -0.11372571 -0.17186679 -0.30431643 0.18998058 0.1783972
-0.26754498 -0.08059382 0.0545755 -0.16086574 0.257189 0.2678977 -0.019549143 -0.1567984
-0.16398776 0.32541376 0.18991558 -0.32680535 -0.2054386 -0.1679593 -0.101836696 -0.17030044
-0.28378847 0.2844805 0.1543088 0.26357487 -0.22361289 0.11775452 -0.21609297 0.35267422
-0.23782358 -0.17619744 -0.23632891 0.28765085 -0.008336663 0.07429872 0.1727715 0.26520088
0.22164436 -0.1592446 -0.21882288 -0.17448136 0.008114491 -0.15831533 -0.048875168 -0.05637909
0.021744154 -0.27757812 0.09572131 0.2828364 -0.33364093 0.25928804 -0.032083426 -0.084937364
0.16631362 0.3123743 0.23630804 -0.20206708 -0.015057095 -0.25914228 0.034437545 -0.3243713
0.3529783 -0.33780843 0.22706282 -0.08192895 0.095156014 -0.2911672 -0.28891212 0.14277874
0.120873176 -0.23393269 0.13231558 -0.00029815157 -0.24834952 0.14335985 0.1696466 -0.28163674
0.110360906 -0.1270346 0.27611732 0.22270489 -0.18483646 -0.34299147 0.2331924 -0.061162293
-0.33002362 -0.14508048 -0.26412764 0.097628385 0.12410622 -0.11713683 -0.07142353 0.27674624
-0.11050021 0.09494567 0.1589744 -0.104113035 -0.28800815 -0.05898872 -0.03507078 0.18039088
-0.25269747 0.24554285 -0.04284432 -0.06362509 -0.032478288 0.16632578 -0.12760614 -0.34886646
0.06886498 -0.116358116 0.34378678 -0.27691066 -0.11091768 -0.16842489 0.19366598 -0.19592799
-0.1141612 0.110663 -0.18235226 0.029398179 0.05790432 -0.25953338 -0.26472315 0.13788812
-0.2978766 -0.05137194 0.1933756 -0.16841641 0.13651031 0.2203149 -0.28928035 -0.12383768
0.3218285 -0.15393712 -0.2226544 0.08113158 -0.11140356 -0.13300897 0.13410419 -0.049342822
0.31472102 0.16178772 0.012574678 -0.26669875 0.018743495 0.27646458 0.27276927 -0.19539027
-0.28762588 -0.21891752 -0.052844543 -0.2541236 -0.32547396 -0.046852186 0.2459709 0.089750275
0.053665344 -0.34728953 0.07281317 -0.18160962 0.27515116 -0.070588745 -0.16344371 0.09484843
-0.022548111 -0.09957916 0.25977916 -0.12372154 0.020750957 0.24073577 0.29661268 -0.11334501
-0.0908303 -0.3307874 0.09952499 -0.2883845 0.2031746 -0.012394077 -0.2500199 -0.2841854
0.2217399 0.13027142 0.0529913 -0.29216537 0.25918394 0.254444 -0.016634295 0.091633394

layers.1.gcn_1.bias f4 [6]
00000000: 3e4c 7e3d 773b 12bd ddd4 023c 9b43 86bd
00000010: d20e 753d 265f 25b9
0.06208443 -0.03570124 0.007985321 -0.065558635 0.059828587 -0.00015771072
