cache/pretrained/pretrained_35.pt (torch_old, 950836 bytes, 4 tensors)

layers.0.gcn_0.weight f4 [3703, 64]
0	0x39c43f7d	0.00037431336
1	0x3cc6f0b7	0.024284704
2	0x3d0c7792	0.03429372
3	0xbc76c975	-0.01506268
4	0x3c82fe79	0.015990483
5	0x3bedb9f3	0.007254833
6	0xbd58b2a7	-0.05290475
7	0x3d2345d5	0.03986152
8	0xbd13d5e0	-0.03609264
9	0x3d1e5d2f	0.038663086
10	0xbd33f90f	-0.043938693
11	0xbd2ce602	-0.04221154
12	0x3d486af3	0.04893012
13	0x3d1fb1a5	0.038987774
14	0x3ce384f7	0.027773364
15	0x3d561475	0.052265603
16	0x3d5564bc	0.05209802
17	0x3cae1208	0.021248832
18	0x3da4ec86	0.08052926
19	0xbb0b0e80	-0.002121836
20	0xbd5f1ca3	-0.05447067
21	0x3cfe42c2	0.031037692
22	0x3d3022d9	0.043001983
23	0x3d164592	0.03668744
24	0x3d328445	0.043583173
25	0x3cc1491e	0.023594435
26	0xbcc780ea	-0.024353463
27	0x3c9e5808	0.019329086
28	0xbd1ad173	-0.037797403
29	0xbc9ba61a	-0.019000102
30	0x3c813088	0.015770212
31	0x3c6bce2a	0.014392415
32	0xbc7c1944	-0.015386883
33	0x3c8349bb	0.016026368
34	0x3c6d3e0d	0.014480126
35	0xbcc24fe3	-0.023719734
36	0x3db43c94	0.08800617
37	0x3c313f05	0.010818248
38	0x3d7ad760	0.061240554
39	0x3d07739e	0.033069246
40	0x3b021f58	0.0019855108
41	0x3ca8f891	0.020626338
42	0x3cab1144	0.020882256
43	0x3d4f82f3	0.050661992
44	0x3cbb1d12	0.02284101
45	0x3ba328a3	0.0049792095
46	0xbd037ffc	-0.032104477
47	0x3cf46dc6	0.0298375
48	0x3c47643e	0.012169896
49	0xbd1dcd61	-0.038525943
50	0x3c12933e	0.008946238
51	0xbd0d4584	-0.034490123
52	0x3beb868d	0.0071876706
53	0x3d16ddea	0.036832727
54	0x3dbe8fad	0.09304748
55	0x3d860577	0.06544011
56	0x3c7c9983	0.015417459
57	0x3cf2093b	0.029545417
58	0x3a902980	0.0010998696
59	0x3d878f66	0.06619148
60	0xbd8f44a2	-0.069955125
61	0x3cae1a82	0.021252874
62	0x3d16090c	0.03662972
63	0xbc0f7d2d	-0.008757872
64	0xbbfb2de9	-0.007665385
65	0xbd6598c7	-0.056053903
66	0x3d53a7e8	0.0516738
67	0xbae22f12	-0.001725646
68	0xbb80f2bc	-0.003935186
69	0xbd09811a	-0.033570386
70	0x3d8b68f6	0.06807129
71	0x3d3779ed	0.04479401
72	0x3d950f0a	0.07278259
73	0x3d6a1e4f	0.05715781
74	0x3d7b3af3	0.061335515
75	0xbd29fc50	-0.04150039
76	0x3d630dba	0.055433013
77	0x3c9aff69	0.018920617
78	0xba2b7497	-0.00065405056
79	0x3d1512e5	0.036394972
80	0xbd1bb4bc	-0.03801416
81	0xbc020f16	-0.007938167
82	0x3c39d947	0.011343307
83	0xbd51b48b	-0.05119757
84	0x3d052577	0.032506432
85	0x3bbce3be	0.0057644537
86	0xbd9fcc46	-0.07802634
87	0x3d04e43a	0.032444216
88	0xbd1120de	-0.035431735
89	0x3d9657d1	0.073409684
90	0x3d8c2434	0.06842843
91	0xbd7d7e63	-0.06188811
92	0x3cf4f45d	0.029901678
93	0x3cc780bc	0.024353378
94	0xbd90732a	-0.07053216
95	0x3d07cd56	0.033154808
96	0x3d8f6fed	0.0700377
97	0xbc9e2a1d	-0.01930719
98	0x3c4bae79	0.012431734
99	0xbd0bad09	-0.034100566
100	0x3d15d001	0.03657532
101	0xbc98603d	-0.018600577
102	0x3cae443f	0.021272777
103	0x3c3600a3	0.01110855
104	0xbd67cd33	-0.056592178
105	0x3cb339bb	0.021878114
106	0x3dbd8276	0.09253399
107	0x3d386e81	0.04502726
108	0x3d58b4da	0.05290685
109	0x3d801793	0.062544964
110	0x3d24626b	0.04013292
111	0x3cafb733	0.02144966
112	0x3dac7ad8	0.08421868
113	0x3abb57ec	0.001429317
114	0xbc8b2c56	-0.016988914
115	0xbafb8b54	-0.0019191303
116	0x3d9e74d9	0.07737131
117	0x3d8dbc59	0.0692069
118	0xbb9c6528	-0.004772801
119	0xbc91236c	-0.017717086
120	0x3ce15685	0.027507076
121	0x3cff4d0f	0.031164674
122	0x3dc84989	0.09779651
123	0x3cae5eef	0.021285502
124	0x3c408657	0.011750779
125	0x3d0492e1	0.032366637
126	0x3c8f34ec	0.01748129
127	0x3cff1864	0.03113956
128	0x3d9aaf02	0.07552911
129	0xbc75c685	-0.015000944
130	0xbd92159e	-0.071330294
131	0x3d7dc630	0.061956584
132	0x3d922607	0.071361594
133	0x3ce9c9fb	0.028538695
134	0x3d92796a	0.07152064
135	0x3d9ccf29	0.076567
136	0x3d98a05c	0.07452461
137	0x3d12286c	0.03568308
138	0x3cd92731	0.026507946
139	0xbdab11d8	-0.08353013
140	0xbd32e709	-0.043677364
141	0xbd80d562	-0.062906995
142	0x3cce6fde	0.025199827
143	0xbc80ee56	-0.015738647
144	0xbcdec5a6	-0.027193855
145	0xbd567bab	-0.052364033
146	0xbca9d4d6	-0.02073137
147	0xbc698869	-0.014253714
148	0x3d94eb60	0.07271457
149	0xbc64f55e	-0.013974516
150	0xbcb6303e	-0.0222398
151	0xbb890824	-0.0041818786
152	0xbd14f1b8	-0.036363333
153	0x3ae9ea21	0.0017846265
154	0x3c5098cb	0.012731741
155	0xbd8406a5	-0.0644658
156	0x3cfae7a5	0.030628035
157	0xbd0cc341	-0.034365896
158	0x3d9e9d17	0.07744806
159	0x3d0d68c7	0.03452375
160	0x3cafede8	0.021475747
161	0xbc301a60	-0.010748476
162	0xbcad2a1f	-0.021138249
163	0xbc3583ec	-0.011078816
164	0xbd8b26dc	-0.06794521
165	0xbcfb48a0	-0.030674279
166	0xbd4f50b5	-0.050614078
167	0x3c33852f	0.010957046
168	0x3c9bf31d	0.019036824
169	0x3d20ae97	0.039229
170	0x3d1b1a1a	0.03786669
171	0x3d8eb92c	0.069689125
172	0x3c497db6	0.012298038
173	0x3d7985a0	0.06091845
174	0xbbd480c9	-0.006485079
175	0x3b50e3c4	0.003187404
176	0x3d9cb833	0.07652321
177	0x3d617052	0.055038758
178	0xbc8583df	-0.016298233
179	0x3ca925d0	0.020647913
180	0x3d3ba1f5	0.04580875
181	0x3d51e6ea	0.051245607
182	0xbca7cd4b	-0.020483634
183	0xbd565916	-0.052331053
184	0x3cf47fed	0.029846156
185	0x3b3d994b	0.002893048
186	0x3cb85db7	0.022505624
187	0x3cd2939b	0.02570515
188	0xbd64f232	-0.055895038
189	0xbd56114c	-0.05226259
190	0xbc239f86	-0.009986764
191	0xbb87ca22	-0.004143969
192	0x3d001ba3	0.031276356
193	0x3d6baf73	0.05754037
194	0x3d926910	0.07148945
195	0xbd5c3894	-0.053764895
196	0xbcd2b613	-0.025721585
197	0x3ac70f74	0.00151871
198	0xbc3770da	-0.0111963395
199	0xbc7c6583	-0.015405062
200	0x3d520bcc	0.05128078
201	0x3cc499c4	0.023999102
202	0xbcabfe29	-0.020995216
203	0x3d1b7728	0.037955433
204	0x3d87e573	0.06635561
205	0x3d6772a1	0.056505803
206	0x3cc5a217	0.024125142
207	0x3d36db65	0.044642825
208	0x3d65bdc9	0.056089196
209	0x3b187adf	0.0023266596
210	0x3d6d16f9	0.057883237
211	0x3d246f47	0.040145185
212	0xbd79ba08	-0.06096843
213	0x3d60e376	0.054904424
214	0x3d7e3ed0	0.06207162
215	0x3a3eb8b5	0.00072754483
216	0x3d70a285	0.05874874
217	0x3b1926fb	0.0023369181
218	0xbd6f870b	-0.058478396
219	0xbb816ee0	-0.003949985
220	0xbd173c3f	-0.03692269
221	0xbc9a96c3	-0.018870717
222	0x3cd4b608	0.025965706
223	0xbbcffbed	-0.0063471706
224	0xbd173077	-0.036911454
225	0x3cfc9789	0.030833976
226	0xbc86b55b	-0.016443899
227	0xbcd4e93e	-0.025990125
228	0x3d90c3aa	0.0706857
229	0xbcacbe79	-0.021086918
230	0x3d3a8ab7	0.045542445
231	0x3cd0bce9	0.025480704
232	0xbc876399	-0.016526984
233	0xbd1110fb	-0.035416584
234	0x3ccc0329	0.02490385
235	0x3d7ab1f0	0.06120485
236	0x3cf934ff	0.030420778
237	0x3d81cc97	0.063378505
238	0xbccc98d0	-0.02497521
239	0x3cbd09ea	0.023076016
240	0xbc4beba2	-0.012446316
241	0xbd39555a	-0.045247413
242	0x3d34f2c1	0.04417682
243	0xbcc40e7c	-0.023932688
244	0x3cb42b94	0.021993436
245	0x3d538a3c	0.051645502
246	0xbd324e76	-0.043531857
247	0x3ceb79ec	0.02874466
248	0xbd05ecbf	-0.03269648
249	0x3d33ef28	0.04392925
250	0x3cabcbb7	0.020971162
251	0x3d2538d7	0.04033741
252	0xbd481402	-0.048847206
253	0x3d7063ca	0.058688916
254	0x3cb38235	0.021912673
255	0x3d1078d2	0.035271473

layers.0.gcn_0.bias f4 [64]
0	0x3d4dca45	0.050241727
1	0x3d2fc1de	0.042909496
2	0x3cc4adab	0.024008593
3	0x3d4469b6	0.047952376
4	0x3ccc900c	0.02497103
5	0x3bc3e055	0.00597767
6	0x3d3a6654	0.045507744
7	0x3d4f8fd7	0.050674286
8	0x3d4fdab0	0.050745666
9	0x3d493a79	0.04912803
10	0x3d6c76a2	0.057730325
11	0x3d281e37	0.04104444
12	0x3d478ab8	0.048716277
13	0x3d399b40	0.045314074
14	0x3d35f088	0.04441884
15	0x3cc481e9	0.023987727
16	0x3c9aa8d2	0.018879328
17	0x3cc7442b	0.024324497
18	0x3c965f18	0.018355891
19	0x3d1b1e63	0.037870776
20	0x3cbc217e	0.02296519
21	0x3ce446ab	0.027865728
22	0x3c670c66	0.014102077
23	0x3cc8b654	0.024501003
24	0x3c2e5a9e	0.010641722
25	0x3c9a0705	0.018802175
26	0x3cd73e22	0.026274744
27	0x3cb33026	0.021873545
28	0x3cc03a32	0.02346525
29	0x3ce0fa28	0.027463034
30	0x3d6854c1	0.056721453
31	0x3c754fe6	0.014972663
32	0x3d50a5e9	0.050939474
33	0xba4d263d	-0.00078258273
34	0x3cb13c51	0.021635206
35	0x3d42146b	0.047382753
36	0x3d361f85	0.044463653
37	0x3cae1570	0.021250457
38	0x3c9f2e54	0.01943127
39	0x3d2869bd	0.041116465
40	0x3d1c889e	0.038216226
41	0x3cd61e81	0.026137592
42	0x3cf9e043	0.030502444
43	0x3d3e5d37	0.046475615
44	0x3c9e0cd2	0.019293223
45	0x3d4dc56c	0.050237104
46	0x3ca462dc	0.020066671
47	0x3c928532	0.017885778
48	0x3d3ea841	0.04654718
49	0x3d3458a9	0.044029865
50	0x3cb9790e	0.022640731
51	0x3cbc5e94	0.022994317
52	0x3cc5121f	0.024056492
53	0x3d449c07	0.04800036
54	0x3d464497	0.048405256
55	0x3cc0f3ac	0.023553692
56	0x3c81a5ec	0.015826188
57	0x3cbffec5	0.023436913
58	0x3cab6f19	0.020926999
59	0x3cc5e359	0.02415626
60	0x3d4c6e9a	0.049910165
61	0x3cb91581	0.022593262
62	0x3d3b1523	0.045674454
63	0x3c9d1551	0.019175204

layers.1.gcn_1.weight f4 [64, 6]
0	0x3c7dc00a	0.01548768
1	0x3d0cba71	0.034357492
2	0xbe1c8d07	-0.15288173
3	0x3e0084b9	0.1255063
4	0xbdf7bd62	-0.12096669
5	0xbe9bec4b	-0.30453715
6	0xbe3127b9	-0.17300309
7	0x3e686210	0.22693658
8	0x3e9628c5	0.2932798
9	0x3e1a1b11	0.15049388
10	0x3e0aed58	0.13567102
11	0xbe830857	-0.255923
12	0xbe3c47fd	-0.18386836
13	0x3df92246	0.1216474
14	0xbe380a9f	-0.17972802
15	0x3dbb5368	0.09146768
16	0xbe449a0a	-0.19199386
17	0x3e1cf5d4	0.15328151
18	0x3e5b6dca	0.214286
19	0xbea47bf0	-0.32125807
20	0xbd5451eb	-0.051835936
21	0x3eabadfa	0.3353117
22	0x3e879fd2	0.2648912
23	0x3e0b32d5	0.1359361
24	0x3e8ee910	0.27912188
25	0xbe84c8f6	-0.2593457
26	0xbe53ccca	-0.2068359
27	0x3de6cdd2	0.11269726
28	0x3d923135	0.07138292
29	0xbe980ebf	-0.2969875
30	0x3e247036	0.1605843
31	0x3cb97b3f	0.022641776
32	0x3e8f2cbd	0.2796382
33	0xbe17b962	-0.14816812
34	0x3db3f00e	0.08786021
35	0x3d34b03e	0.04411339
36	0x3e87dfa6	0.26537818
37	0xbe253edf	-0.16137265
38	0x3c5629ae	0.013071461
39	0x3d13313e	0.035935633
40	0xbe547b51	-0.20750166
41	0xbe68f27c	-0.2274875
42	0x3e2b1f3c	0.16711134
43	0xbd880865	-0.06642226
44	0xbc94f0db	-0.018181255
45	0xbe70c222	-0.23511556
46	0x3e13df55	0.14440663
47	0x3de79a0c	0.11308679
48	0x3e921265	0.2852966
49	0x3e79de69	0.24401249
50	0xbd96a824	-0.07356289
51	0x3df1d058	0.118073165
52	0xbeaf3064	-0.34216607
53	0x3e1e3f1d	0.15453763
54	0x3e14c60f	0.14528678
55	0x3e833bd0	0.2563157
56	0xbea37e2b	-0.31932196
57	0xbe64f25f	-0.22358082
58	0xbe5a8228	-0.21338713
59	0xbe2038d4	-0.15646678
60	0x3e166c99	0.14689864
61	0xbe95d7bb	-0.29266152
62	0x3e563218	0.20917547
63	0xbe0432fd	-0.12910075
64	0xbe052f76	-0.13006386
65	0xbd266c95	-0.040630896
66	0xbdfe67c4	-0.124221355
67	0x3e354461	0.17701866
68	0x3ea2a11a	0.31763536
69	0x3e3b8f93	0.18316488
70	0xbdae6a66	-0.08516388
71	0xbe54438d	-0.20728894
72	0xbe930670	-0.2871585
73	0x3e8c15a8	0.27360272
74	0x3e4bb18b	0.19891946
75	0xbe0b3fa2	-0.13598493
76	0xba1235c5	-0.00055774703
77	0x3eb17cbc	0.34665477
78	0xbdd7fce3	-0.10546281
79	0x3eac93b8	0.3370645
80	0x3e016eaf	0.12639879
81	0xbde849b9	-0.113421865
82	0x3e6e51a5	0.23273332
83	0x3e353a5f	0.17698048
84	0x3dc5f416	0.09665696
85	0xbe90b7e6	-0.28265303
86	0xbe1c9f86	-0.15295228
87	0xbe5dc5be	-0.21657464
88	0x3e8c5ad6	0.27413052
89	0xbe8993af	-0.26870486
90	0xbcf19300	-0.02948904
91	0x3d0ebddb	0.03484903
92	0xbe828379	-0.2549093
93	0x3e71d7b0	0.23617435
94	0x3e7e9e6a	0.24865118
95	0x3cdd5a74	0.02702067
96	0x3cc6ee13	0.024283445
97	0x3e5cb8b0	0.21554828
98	0xbcffe38f	-0.031236438
99	0x3ea070ce	0.31336063
100	0x3e873f71	0.2641559
101	0xbe8dcf3b	-0.27697167
102	0xbeaeb096	-0.341191
103	0xbe400592	-0.18752125
104	0xbe5b3211	-0.21405818
105	0x3e517a2a	0.20456758
106	0xbe8302d3	-0.25588092
107	0x3e3f1816	0.18661532
108	0xbd37a136	-0.044831477
109	0x3e02d040	0.12774754
110	0xbdce699c	-0.10078737
111	0xbe884904	-0.26618207
112	0x3e933d5b	0.28757748
113	0xbe0bf5e6	-0.13668022
114	0xbe315fc0	-0.17321682
115	0x3e4e242d	0.20130987
116	0x3e90cb31	0.28280023
117	0x3d7116be	0.05885958
118	0xbd61355c	-0.054982528
119	0xbe9a4b1a	-0.30135423
120	0x3e9dfda0	0.30857563
121	0xbe919156	-0.28431195
122	0x3e792c06	0.243332
123	0xbe60a705	-0.21938713
124	0xbe09de8c	-0.13463801
125	0xbdfe91eb	-0.124301754
126	0xbe5a8f78	-0.21343791
127	0x3cf6aedb	0.030112674
128	0xbe94d453	-0.2906824
129	0xbda8fd6c	-0.082514614
130	0x3d9c4b77	0.07631581
131	0x3e940cd8	0.2891605
132	0xbd71d6ed	-0.05904286
133	0x3e6b938d	0.23005505
134	0x3e69a884	0.2281819
135	0x3e1dd9de	0.15415141
136	0x3ea5312b	0.32264075
137	0x3dde8e38	0.1086697
138	0xbeacee78	-0.33775687
139	0xbe2cac72	-0.16862658
140	0xbe4408b3	-0.19143943
141	0x3e827c9b	0.2548569
142	0x3e5d843c	0.21632475
143	0x3e83d938	0.25751662
144	0xbe87f69d	-0.26555339
145	0x3e035820	0.12826586
146	0xbcc1eded	-0.023673022
147	0xbd9df79a	-0.07713242
148	0x3e911df5	0.28343168
149	0xbcdc6d5b	-0.026907614
150	0x3e16bc9f	0.1472039
151	0xbe3ff993	-0.18747549
152	0xbe5c8102	-0.21533588
153	0x3dd4c39c	0.10388872
154	0x3e7e023d	0.24805541
155	0xbd3cac77	-0.046062913
156	0x3ce3104c	0.027717732
157	0xbd185a4c	-0.03719549
158	0x3e4ae99c	0.19815677
159	0xbe9d6e47	-0.30748197
160	0xbead6a68	-0.33870244
161	0x3e4336b7	0.19063841
162	0xbe98fe64	-0.29881585
163	0xbe61db4e	-0.22056314
164	0x3ea159a1	0.31513694
165	0xbe11e580	-0.14247704
166	0x3e2084d7	0.15675674
167	0xbda33542	-0.079691425
168	0x3e07dc8a	0.13267723
169	0xbdfd0df6	-0.123561785
170	0x3e66cfb9	0.22540177
171	0xbe156076	-0.14587578
172	0xbe5ed1a7	-0.21759664
173	0xbe2fea61	-0.17179252
174	0xbd5bfa72	-0.05370564
175	0xbe964b51	-0.29354337
176	0x3dd6d828	0.10490447
177	0x3d899cf5	0.0671939
178	0xbe02c839	-0.12771691
179	0x3e64f289	0.22358145
180	0x3d606eb8	0.05479309
181	0x3cd37dc4	0.025816806
182	0x3e14fc51	0.14549376
183	0xbe95a435	-0.29226843
184	0x3d8a95e5	0.06766871
185	0xbe9a2a89	-0.30110577
186	0x3dc6b73d	0.09702919
187	0x3e8eee22	0.27916056
188	0x3d732593	0.059362005
189	0x3e8ac1fe	0.2710113
190	0xbe3830e0	-0.17987394
191	0x3d8de327	0.069280915
192	0x3e8f6ca3	0.2801257
193	0xbe5b07c0	-0.21389675
194	0x3e41ae76	0.18914208
195	0xbe9faea8	-0.3118794
196	0x3da73de8	0.081661046
197	0x3e3a3f23	0.18188147
198	0xbe8dc690	-0.27690554
199	0x3e52eaff	0.20597456
200	0x3e190861	0.14944603
201	0x3d3c34c3	0.045948755
202	0xbe63d65b	-0.22249739
203	0xbe5690f8	-0.20953739
204	0xbdda88a4	-0.106705934
205	0xbdc86760	-0.09785342
206	0xbe456bd6	-0.19279417
207	0x3e879c08	0.2648623
208	0xbb845393	-0.004038283
209	0x3e7404f1	0.2383001
210	0x3cf6f3ec	0.030145608
211	0xbe5f25c0	-0.21791744
212	0x3e892377	0.2678487
213	0x3e93e6e2	0.28887087
214	0x3e2f9d8a	0.1714994
215	0x3e494259	0.19654216
216	0xbe7096e0	-0.23495054
217	0xbdf0d9e2	-0.11760308
218	0xbddd6e82	-0.10812093
219	0xbe455973	-0.19272403
220	0x3e3b0c9a	0.18266526
221	0xbdd77559	-0.10520429
222	0xbe03e19b	-0.1287903
223	0x3baffd51	0.005370774
224	0x3d44aead	0.048018146
225	0x3e2d790c	0.16940707
226	0x3d9cc2b2	0.07654323
227	0x3e29c6f4	0.16579801
228	0xbe72bf0d	-0.23705693
229	0x3e42c758	0.19021356
230	0xbe19e0ad	-0.15027113
231	0x3e17b396	0.148146
232	0x3d4c69d8	0.049905628
233	0xbe0e0377	-0.13868509
234	0x3c91312c	0.017723642
235	0x3e89ff90	0.2695279
236	0xbe67c69d	-0.22634359
237	0xbd9911a7	-0.0747407
238	0x3e25900a	0.16168228
239	0xbe930862	-0.28717333
240	0xbd1d4ae4	-0.0384015
241	0xbe5c6aa0	-0.21525049
242	0x3d4ea241	0.050447706
243	0x3d594d68	0.053052336
244	0x3d209b5b	0.03921066
245	0xbe3c9fa0	-0.18420267
246	0x3e23c620	0.15993547
247	0xbdec1128	-0.1152671
248	0x3be3bdcd	0.0069501163
249	0xbe4ab1e8	-0.19794428
250	0xbd6d92ae	-0.058001213
251	0x3e5753cb	0.21028058
252	0x3e8a077c	0.26958835
253	0x3d16b7ac	0.036796257
254	0xbda286e4	-0.079358846
255	0xbeac6118	-0.33667827

layers.1.gcn_1.bias f4 [6]
0	0xbd0f0096	-0.03491267
1	0x3c0f2afe	0.0087382775
2	0xbcd48564	-0.025942512
3	0x3cdb2f82	0.026756052
4	0xbd599baf	-0.053126987
5	0x3d4f0439	0.050541136
