cache/pretrained/pretrained_41.pt (torch_old, 740152 bytes, 4 tensors)

layers.0.gcn_0.weight f4 [2879, 64]
0	0x3bfe0036	0.00775149
1	0xbd0f632f	-0.0350067
2	0x3b8c7ecf	0.0042875777
3	0xbce01d39	-0.027357684
4	0xbc1959a0	-0.009359747
5	0xbb0b85c2	-0.0021289443
6	0x3b9d27ce	0.004796005
7	0x3d0219f9	0.03176305
8	0xbc2b0fc3	-0.01044077
9	0xbd1e9429	-0.038715515
10	0xbc16dc31	-0.009207771
11	0xbd1b31c5	-0.03788926
12	0xbd28bc3c	-0.04119514
13	0xbbfb65fc	-0.0076720696
14	0x3b3836c4	0.0028108815
15	0x3cf48166	0.029846858
16	0xbac01795	-0.0014655465
17	0xbcc28a80	-0.023747683
18	0xbb5116a9	-0.0031904376
19	0xbd154958	-0.0364469
20	0xbbd0fc7c	-0.0063777547
21	0x3b38ae12	0.0028179926
22	0x3ab59ae2	0.0013855363
23	0xb9578c51	-0.0002055627
24	0x391631a2	0.00014323604
25	0xbbf71e0c	-0.0075414237
26	0xbb26730a	-0.0025398158
27	0x3b040f9a	0.00201509
28	0xbd53884a	-0.051643647
29	0xbd072b8e	-0.03300052
30	0x3bf29b87	0.007403794
31	0x3d2e28d9	0.042519424
32	0x3c77636c	0.015099388
33	0xbc3a6cd4	-0.011378486
34	0xbbd43d21	-0.0064770137
35	0xbc724356	-0.014786562
36	0xbb0f3358	-0.0021850672
37	0x3b6c14ca	0.0036023133
38	0x3ce16167	0.027512265
39	0x3d0578c8	0.03258589
40	0xb9cddcb7	-0.00039265092
41	0x3c04f61e	0.00811532
42	0x3b7b2b77	0.0038325468
43	0xba94c08a	-0.0011348885
44	0x3a6fc586	0.000914656
45	0xbc71a084	-0.014747743
46	0xba91d074	-0.0011124746
47	0xbb2f9c01	-0.0026795866
48	0xbc3f506f	-0.011676892
49	0xbd004a77	-0.031321015
50	0x3a27b518	0.00063975295
51	0x3bdddcfa	0.006770727
52	0x3c86d724	0.016460009
53	0x3d5cccab	0.053906124
54	0x3c404fa1	0.011737735
55	0x3bf18c25	0.007371443
56	0xbc664839	-0.014055305
57	0x3af44f35	0.0018639328
58	0x3ac5006c	0.0015030033
59	0xbc02aea6	-0.00797621
60	0xbc39d5d3	-0.011342484
61	0xbcdb3f1f	-0.026763497
62	0xb8b9c7f9	-8.858735e-05
63	0xbbacf959	-0.005278748
64	0xbd245287	-0.040117767
65	0xbc161741	-0.009160818
66	0x3d51c8b6	0.051216803
67	0xbc87fbf3	-0.016599631
68	0x3cd28116	0.025696319
69	0x3cf860be	0.030319568
70	0xbca74c28	-0.020422056
71	0x3cb7e7f5	0.022449473
72	0x3c52d62b	0.012868444
73	0x3bcba851	0.0062151332
74	0x3c40c157	0.011764846
75	0x3cb6ff9a	0.022338677
76	0x3c7806ff	0.015138387
77	0xbd17b53b	-0.03703807
78	0xbac6edba	-0.0015177049
79	0x3cfa3285	0.030541668
80	0xbc7b059e	-0.015321163
81	0x3d26f35e	0.040759437
82	0xba8782f8	-0.0010338714
83	0x3ce4f29b	0.027947715
84	0x3c8d01b1	0.01721272
85	0xbbcd1ae7	-0.0062593105
86	0x3b0208cc	0.001984167
87	0xbc0820a4	-0.008308563
88	0x3cffea61	0.03123969
89	0x3c7fe6c0	0.01561898
90	0x3d012871	0.03153271
91	0x3d1be382	0.038058765
92	0xbcef2c94	-0.029196061
93	0xbb3de633	-0.002897632
94	0x3c933168	0.017967895
95	0x3b6761d8	0.0035306122
96	0x3caa8402	0.0208149
97	0x3a01511a	0.00049330445
98	0x3cb716c0	0.022349715
99	0x3c301363	0.01074681
100	0xbccfa630	-0.025347799
101	0x3cb535e6	0.022120427
102	0xbca83e60	-0.020537555
103	0x3a91012d	0.0011062972
104	0xbc4b466f	-0.012406929
105	0xbc15da7a	-0.009146327
106	0x3d063a50	0.032770455
107	0x3d2a2d9f	0.041547414
108	0xbcbab3fe	-0.022790905
109	0xbc8a7922	-0.016903464
110	0x3bb4c60b	0.0055167726
111	0x3c979919	0.01850562
112	0x3b90aee6	0.004415381
113	0xbcc85fe1	-0.024459781
114	0x3c7816b1	0.015142129
115	0x3d1fcd11	0.039013926
116	0x3a4d012b	0.00078203034
117	0xbab66eed	-0.0013918557
118	0xbc97c17e	-0.018524881
119	0xbcc621ab	-0.024185976
120	0x3c0d9ee0	0.008643836
121	0x3cb3acf2	0.021933053
122	0x3c8c9893	0.017162597
123	0xbce64584	-0.02810932
124	0xbb2476de	-0.0025095264
125	0xbc9d0eaa	-0.019172031
126	0xbb680d02	-0.0035408144
127	0xbd1b59ae	-0.037927322
128	0x3af8eb5d	0.0018991042
129	0xba1d3752	-0.0005997318
130	0xbb8d1856	-0.0043058796
131	0x3a068cf1	0.0005132696
132	0x3a8c81ef	0.0010719876
133	0xbb8215b4	-0.0039698724
134	0xb86245e6	-5.3947697e-05
135	0xba316aaa	-0.00067679083
136	0x3acdf248	0.0015712464
137	0xb9c66336	-0.0003783942
138	0x39697bec	0.00022266776
139	0xbad373da	-0.0016132549
140	0x3ac19e0f	0.0014771837
141	0x3b243a3f	0.0025059131
142	0xba9e08cc	-0.0012057065
143	0xbaf6ebb7	-0.0018838559
144	0xbb8e034f	-0.0043338905
145	0xb91bd0f3	-0.00014859792
146	0xb9091399	-0.00013072639
147	0xb9c22b6d	-0.00037034918
148	0x3a746ded	0.00093242415
149	0x3ac1cca1	0.0014785716
150	0xbb14982d	-0.0022673712
151	0xbad7d5e9	-0.0016466948
152	0xbb564a47	-0.0032698081
153	0xb91c544f	-0.00014908727
154	0x3afa3cc7	0.0019091599
155	0x3a98f652	0.0011670089
156	0xbb40689d	-0.002935923
157	0x3a875a69	0.0010326627
158	0x3ae40b54	0.0017398396
159	0x3ad48f63	0.0016217049
160	0xb90fe7ff	-0.00013723968
161	0x3aaf6ef5	0.0013384508
162	0x3a5d2dc6	0.0008437302
163	0x39b811f0	0.0003510858
164	0x3970214e	0.0002290059
165	0xbaaddb96	-0.0013264294
166	0xba5648e4	-0.00081743137
167	0x39dc6b2d	0.00042041522
168	0xbad0a2cb	-0.0015917657
169	0x3a1185c9	0.00055512466
170	0x3960673f	0.00021400767
171	0xb9a944e7	-0.00032285528
172	0xbaed19fc	-0.0018089409
173	0x396ad541	0.00022395422
174	0x3aa27c45	0.0012396654
175	0xba8f45e5	-0.0010930864
176	0x3afbfd80	0.0019225329
177	0xba411687	-0.00073657226
178	0x3a29beaa	0.00064752495
179	0xbad52530	-0.0016261693
180	0xbb064036	-0.002048505
181	0x3adec3ac	0.0016995571
182	0xb9bd31fe	-0.00036086136
183	0xbb22d9c3	-0.0024849034
184	0x39cb1ddf	0.00038741433
185	0xba69248b	-0.000889369
186	0xb9a4d0df	-0.0003143614
187	0x3ad3d167	0.0016160429
188	0xba2f984c	-0.0006698414
189	0x3ae139f0	0.0017183404
190	0xb94dc1c0	-0.00019622501
191	0x3b15b0d0	0.0022840984
192	0xbb835f8e	-0.0040091937
193	0xbc0f56ed	-0.008748752
194	0xbcd2b135	-0.025719265
195	0x3c623803	0.0138073
196	0xbd29a12c	-0.04141347
197	0xbc8b1168	-0.016976073
198	0x3bbe02c2	0.0057986686
199	0x3bac69e2	0.0052616457
200	0xbc510c34	-0.012759257
201	0x3acba758	0.0015537543
202	0x3b1b143f	0.002366319
203	0x3c4718f5	0.012151946
204	0x3c738ddd	0.014865366
205	0x3c35cb10	0.011095777
206	0xbc98e2ef	-0.018662898
207	0xbc935a44	-0.017987378
208	0x3bee6c94	0.007276127
209	0x3c3e24e8	0.011605479
210	0x3bdd3a1e	0.006751313
211	0xbc05a62a	-0.008157292
212	0xbbbc33ba	-0.005743471
213	0xba9f98a3	-0.0012176227
214	0x3ccdcc68	0.025121883
215	0xbb8bd38d	-0.004267162
216	0x3c906ab4	0.017629005
217	0x3b78124b	0.00378527
218	0xbc225944	-0.009908978
219	0xbc64438a	-0.013932118
220	0x3c4dc4b8	0.012559108
221	0x3c67fffd	0.014160153
222	0xb9e67cc7	-0.00043961985
223	0xbc60c398	-0.013718508
224	0xbba4c979	-0.0050289
225	0x3c51103d	0.012760219
226	0xbc96cf9c	-0.018409543
227	0xb9934608	-0.00028090202
228	0xbb34cbb5	-0.002758724
229	0xbc05231d	-0.008126047
230	0x3bf009fa	0.007325408
231	0x3c86e131	0.016464802
232	0xbc0d5dec	-0.00862835
233	0x3cab415d	0.020905191
234	0xbc19d281	-0.009388567
235	0x3b6256a9	0.0034536517
236	0xbc851ed8	-0.016250059
237	0xbc31a06f	-0.010841473
238	0x3cea1291	0.028573306
239	0x3caa2af2	0.020772431
240	0x3bbedce7	0.0058246735
241	0x3ce21357	0.027597113
242	0xbc2075f8	-0.009793751
243	0xbc4bae93	-0.012431758
244	0xbc39700c	-0.011318218
245	0x3c0b1d1b	0.008490826
246	0x3c8523aa	0.016252358
247	0x3ca485fa	0.020083416
248	0x3caf0044	0.021362431
249	0x3d1d0a1f	0.03833973
250	0x3c77a1f2	0.015114294
251	0x3af84ee2	0.0018944407
252	0x3c982753	0.018573439
253	0x3af73043	0.0018858988
254	0x3bc8a7be	0.006123512
255	0x3c9f5628	0.019450262

layers.0.gcn_0.bias f4 [64]
0	0x3d8bc352	0.06824364
1	0x3d9dc889	0.07704265
2	0x3e3c22b0	0.18372607
3	0x3dabe344	0.08392957
4	0x3dc1c1fb	0.09460827
5	0x3e05bb28	0.13059676
6	0x3e174315	0.14771684
7	0x3e08108e	0.13287565
8	0x3df09826	0.1174777
9	0x3dcc9c53	0.09990754
10	0x3df4e4a3	0.119576715
11	0x3d5760b2	0.05258245
12	0x3d739c66	0.059475325
13	0x3d8ffc32	0.07030524
14	0x3e0e16ba	0.13875857
15	0x3deebc96	0.11657064
16	0x3d677187	0.056504752
17	0x3dc14eae	0.09438835
18	0x3dc393d9	0.09549684
19	0x3dad12a6	0.084508225
20	0x3d9e9b8a	0.077445105
21	0x3ddf6e8a	0.109097555
22	0x3e095367	0.13410722
23	0x3dea70d9	0.11447305
24	0x3e1dacb8	0.15397918
25	0x3db9019d	0.09033511
26	0x3e0dfb85	0.13865478
27	0x3db6fe61	0.08935238
28	0x3dafa232	0.08575858
29	0x3d94bcc4	0.07262567
30	0x3ddea7f2	0.10871877
31	0x3e195202	0.1497269
32	0x3e1ca795	0.15298302
33	0x3dd6bb62	0.10484959
34	0x3d99d4ef	0.07511317
35	0x3d6d6ccb	0.05796508
36	0x3dd5d917	0.10441797
37	0x3dfd0554	0.12354532
38	0x3e01dba4	0.12681442
39	0x3e0a75a7	0.13521443
40	0x3d84a517	0.06476801
41	0x3e0a9117	0.1353191
42	0x3e0f593e	0.13998887
43	0x3e0c2fd8	0.13690126
44	0x3df46347	0.11932998
45	0x3dcc7674	0.09983531
46	0x3da3a702	0.079908386
47	0x3ddface2	0.10921647
48	0x3d9d5648	0.076824725
49	0x3da661a3	0.081240915
50	0x3e12c033	0.1433113
51	0x3e22c87b	0.1589679
52	0x3e09ff75	0.13476355
53	0x3e1639e8	0.14670527
54	0x3db370ca	0.08761747
55	0x3e07a923	0.13248114
56	0x3d939aa5	0.072072305
57	0x3d99514d	0.0748621
58	0x3e032698	0.12807691
59	0x3da4107f	0.08010959
60	0x3d95d057	0.07315128
61	0x3d9a195c	0.07524368
62	0x3dbbafa2	0.09164359
63	0x3dc0e4c5	0.09418634

layers.1.gcn_1.weight f4 [64, 7]
0	0x3e918c51	0.28427365
1	0xbe90b11e	-0.2826013
2	0x3e8580b9	0.2607477
3	0xbe972971	-0.29523805
4	0xbebd310b	-0.3695148
5	0x3e986378	0.2976339
6	0xbdc4b6e2	-0.09605195
7	0x3ec220a3	0.37915525
8	0x3ea12434	0.31472933
9	0x3e8c6054	0.27417243
10	0xbea2f133	-0.31824645
11	0xbe42b144	-0.19012934
12	0xbe8deef5	-0.27721372
13	0xbe9bebce	-0.30453342
14	0xbe839463	-0.25699148
15	0x3eae1ddb	0.34007153
16	0x3e807590	0.25089693
17	0x3ea16ab6	0.31526726
18	0xbdcf072c	-0.1010879
19	0xbeba7bd4	-0.36422598
20	0xbea53f43	-0.32274827
21	0x3edea73f	0.43486974
22	0xbe812a74	-0.25227702
23	0xbe9df427	-0.30850336
24	0xbe45a3de	-0.19300792
25	0x3eafa7db	0.3430775
26	0x3ea14902	0.31501013
27	0xbea5332e	-0.3226561
28	0xbe60d2a0	-0.21955347
29	0x3eb6c6b6	0.3569848
30	0x3ec40c80	0.38290787
31	0xbe58d385	-0.21174438
32	0x3eb8b43d	0.3607501
33	0xbe9ef0a0	-0.31042957
34	0xbe9eb054	-0.30993903
35	0x3ec42779	0.38311365
36	0xbe8be41a	-0.27322465
37	0x3e8d56ce	0.2760529
38	0x3ec9957f	0.3937187
39	0xbe875fa0	-0.26440144
40	0xbe72ddcf	-0.23717426
41	0xbe7c746e	-0.2465379
42	0xbeb4312d	-0.35193768
43	0x3e8607a2	0.26177698
44	0xbeab5c6c	-0.3346895
45	0x3e8bb107	0.272835
46	0x3e302d6f	0.17204832
47	0x3e934098	0.2876022
48	0xbebae1ea	-0.36500484
49	0xbe7cbc6e	-0.24681255
50	0x3e8e255a	0.27762872
51	0xbe98eb13	-0.29866847
52	0x3ee112b2	0.43959576
53	0xbe89cc93	-0.2691389
54	0xbe936682	-0.28789145
55	0x3eb80e85	0.35948578
56	0xbea76b29	-0.32698944
57	0x3e9a1c51	0.3009973
58	0x3e6f808b	0.23388879
59	0xbec733d9	-0.38906744
60	0x3e78c68b	0.24294488
61	0x3e94f68c	0.2909435
62	0xbebf7e66	-0.37401122
63	0x3ecbac43	0.39779863
64	0x3ebdf801	0.37103274
65	0x3ea6eaa0	0.3260088
66	0xbe8aab3d	-0.2708377
67	0xbe8a17b6	-0.26971215
68	0xbe936249	-0.28785923
69	0xbe8c1745	-0.27361503
70	0x3ea74b2d	0.32674542
71	0xbebb77b7	-0.36614773
72	0xbec98b4c	-0.39364088
73	0x3eaa1b89	0.33224133
74	0x3e44391b	0.19162409
75	0xbeb53bff	-0.35397336
76	0x3e792eeb	0.24334304
77	0x3ea3efc9	0.3201888
78	0xbe7fc51a	-0.24977532
79	0x3e855432	0.26040798
80	0xbe283032	-0.16424635
81	0xbe8cb156	-0.27479047
82	0xbe95222b	-0.2912763
83	0x3ebd6704	0.36992657
84	0x3eb39d02	0.35080725
85	0xbe8c5067	-0.27405092
86	0x3e86d19c	0.26331794
87	0xbe60059e	-0.21877143
88	0xbe8e0a4c	-0.2774223
89	0xbe86adee	-0.26304573
90	0x3ec87e96	0.39159077
91	0x3e97fe95	0.29686418
92	0xbead0607	-0.3379366
93	0xbea2f7d6	-0.3182971
94	0xbeaa442c	-0.33255136
95	0x3e6a7b1e	0.22898528
96	0x3e1d36a7	0.1535288
97	0x3eb02009	0.3439944
98	0xbe91d79d	-0.28484812
99	0xbe8e1062	-0.27746874
100	0x3ec1f715	0.3788382
101	0x3ed29725	0.4113094
102	0x3dc991b1	0.098422416
103	0xbe534e9f	-0.2063546
104	0xbe46953f	-0.1939287
105	0xbe1d5db1	-0.15367772
106	0x3ef5e983	0.48029718
107	0xbe4f06f4	-0.20217496
108	0x3ee8baf6	0.4545514
109	0xbe821fcf	-0.25414893
110	0xbe61017a	-0.2197322
111	0xbe3f84b2	-0.18702963
112	0x3ec8205e	0.39087194
113	0xbe598781	-0.21243097
114	0xbe8543bf	-0.2602825
115	0xbe6cb002	-0.23114017
116	0x3ebf26dc	0.37334335
117	0xbe8d5f91	-0.27611974
118	0x3e68d0c0	0.22735882
119	0xbe81b13d	-0.25330535
120	0x3eb387b2	0.35064465
121	0x3e930635	0.28715673
122	0xbe93d761	-0.2887526
123	0xbe742485	-0.23842056
124	0xbe960835	-0.29303136
125	0x3ebfd2e1	0.37465575
126	0x3ea6b0b2	0.32556683
127	0x3e0d2f82	0.13787654
128	0x3e75a4e1	0.23988678
129	0xbec1a20e	-0.3781895
130	0xbec12b70	-0.37728453
131	0x3e8e95ca	0.27848655
132	0xbec83cd9	-0.39108923
133	0x3eb90e23	0.36143598
134	0x3e88091d	0.26569453
135	0x3ebc66d2	0.36797196
136	0xbe8c6908	-0.27423882
137	0xbe89e984	-0.2693597
138	0xbe87656f	-0.26444575
139	0xbe1ddd9f	-0.15416573
140	0xbe3d4108	-0.18481839
141	0x3ef6d822	0.4821177
142	0xbe62d83e	-0.22152802
143	0xbe176370	-0.14784026
144	0x3ed9c0d5	0.42529932
145	0xbe54c5bf	-0.20778559
146	0xbe6c000f	-0.23046897
147	0xbe7398f7	-0.2378882
148	0x3e977ad0	0.29585886
149	0xbea57ff9	-0.32324198
150	0xbea2dee1	-0.31810668
151	0x3e8d6525	0.2761623
152	0x3ec153d2	0.37759262
153	0xbe870992	-0.2637449
154	0x3e919876	0.2843663
155	0xbed6f43a	-0.41983205
156	0xbec4dda4	-0.38450348
157	0x3eacef7d	0.33776465
158	0xbebded84	-0.37095273
159	0x3e9243ae	0.2856726
160	0x3e6bcd01	0.23027422
161	0xbe46fb0d	-0.19431706
162	0xbe965aea	-0.29366237
163	0xbe63af7a	-0.22234908
164	0x3ef0e842	0.470522
165	0x3ed7389f	0.42035386
166	0xbe6c9815	-0.2310489
167	0xbe17d7e4	-0.1482845
168	0x3e876823	0.26446638
169	0xbeac4227	-0.3364422
170	0x3e71575e	0.23568484
171	0x3e9a4b58	0.30135608
172	0xbeacba09	-0.33735684
173	0xbec6d5ac	-0.38834894
174	0x3e90ca49	0.2827933
175	0x3e06b2ff	0.13154219
176	0x3e86ae85	0.26305023
177	0xbeb49d85	-0.35276428
178	0xbebb03be	-0.36526293
179	0x3e8cbcd3	0.2748781
180	0xbec5a650	-0.3860345
181	0x3eb33e71	0.35008577
182	0xbe969f3f	-0.2941837
183	0xbe982261	-0.2971373
184	0x3eb08495	0.34476152
185	0x3e9ed955	0.31025186
186	0x3eb21450	0.34781122
187	0xbe32ef2c	-0.1747405
188	0xbe8ff3b6	-0.28115624
189	0xbe456d62	-0.19280007
190	0xbe62da5d	-0.22153611
191	0x3ed7d271	0.42152742
192	0xbcc55100	-0.024086475
193	0x3eac54c2	0.33658415
194	0xbe61508f	-0.22003387
195	0xbe73bf6f	-0.23803495
196	0x3e8055e0	0.25065517
197	0x3e0daaa8	0.13834631
198	0xbec14931	-0.37751153
199	0xbea3c1ca	-0.31983787
200	0x3ead72db	0.3387669
201	0xbe9e6a1e	-0.30940336
202	0x3e8f5daa	0.28001148
203	0x3e69b4fa	0.22822943
204	0x3e05f038	0.13079917
205	0xbea2fea4	-0.318349
206	0xbe9eb060	-0.30993938
207	0x3ea3d4b2	0.3199821
208	0xbea89496	-0.32925862
209	0x3eb907f6	0.36138886
210	0xbe9e28bc	-0.30890453
211	0x3e81cdb0	0.2535224
212	0x3e818a60	0.25300884
213	0xbec14a94	-0.3775221
214	0xbec4d8bd	-0.38446608
215	0x3ea293ea	0.31753474
216	0x3e355b76	0.17710671
217	0xbea37abe	-0.31929582
218	0xbeaf9a46	-0.3429739
219	0x3ea3471e	0.31890196
220	0x3e7938fd	0.24338146
221	0x3df596bc	0.11991641
222	0x3ea8a210	0.32936144
223	0xbe9cba5b	-0.30610928
224	0xbe578094	-0.21045142
225	0x3e8526d6	0.26006192
226	0xbe8aae50	-0.27086115
227	0x3ea97b3c	0.33101833
228	0xbe918996	-0.28425282
229	0x3ed08be4	0.40731728
230	0xbe84c133	-0.2592865
231	0xbea87853	-0.329043
232	0xbeb78a03	-0.35847482
233	0x3e7907bf	0.24319361
234	0xbeb405c2	-0.35160643
235	0x3e200bde	0.15629527
236	0x3e900287	0.28126928
237	0x3eae32a6	0.34023017
238	0x3eb0adc0	0.3450756
239	0x3eb12bf1	0.34603837
240	0x3e9b6318	0.3034904
241	0xbe7f8339	-0.24952401
242	0xbe7df49c	-0.24800342
243	0xbe7474e1	-0.23872711
244	0xbe668ee9	-0.22515453
245	0xbe00b6b2	-0.12569693
246	0x3eed782e	0.46380752
247	0xbe48e372	-0.19618014
248	0xbe8717bc	-0.26385295
249	0x3ee8db55	0.45479837
250	0xbe54ce65	-0.20781858
251	0xbe47f041	-0.19525243
252	0xbe820057	-0.25390884
253	0xbe6d2e7f	-0.23162268
254	0x3eb77908	0.35834527
255	0xbe9903f8	-0.2988584

layers.1.gcn_1.bias f4 [7]
0	0x3dd448c0	0.103654385
1	0x3caa1b31	0.020764919
2	0xbe0316ff	-0.12801741
3	0x3daf4be0	0.08559394
4	0xbe018919	-0.12649955
5	0x3da1781e	0.07884239
6	0xbcb5efdc	-0.0222091
