cache/pretrained/pretrained_9.pt (torch_old, 950836 bytes, 4 tensors)

layers.0.gcn_0.weight f4 [3703, 64]
0	0xbc40f809	-0.011777886
1	0x3d955e46	0.07293372
2	0xbd88836b	-0.06665691
3	0x3cdcf3da	0.026971746
4	0x3d163632	0.03667278
5	0xbd2d3df9	-0.04229543
6	0xbbb76257	-0.00559644
7	0x3da95c7e	0.082695946
8	0x3b54cfee	0.0032472569
9	0xbd2e088c	-0.04248862
10	0x3c4c3fa1	0.012466342
11	0x3d308f3c	0.04310535
12	0x3c5504e1	0.0130016515
13	0x3cba78c2	0.02276266
14	0xbd55ea06	-0.052225135
15	0xbc91b24a	-0.01778521
16	0x3d813136	0.06308214
17	0x3d861271	0.06546486
18	0xb9df2ed0	-0.00042568753
19	0x3d11982a	0.035545506
20	0xbced3285	-0.028954754
21	0x3c4fda43	0.012686315
22	0x3c7f9eba	0.015601808
23	0x3cb5df7d	0.022201294
24	0x3d430d82	0.047620304
25	0x3d54caf1	0.051951353
26	0x3db94c2e	0.09047733
27	0xbd81578c	-0.06315526
28	0xbc9f8f06	-0.019477379
29	0x3b627a9f	0.003455795
30	0xbcab828b	-0.020936271
31	0xbbca5b9c	-0.0061754715
32	0xbd4d7627	-0.050161507
33	0x3d25f648	0.040518075
34	0x3cbe93c3	0.023263818
35	0xbd99ec7a	-0.075158074
36	0xbd2dce0e	-0.042432837
37	0x3b271838	0.0025496613
38	0x3d96d7c2	0.07365371
39	0xbcca6d54	-0.024710335
40	0x3d76d3e7	0.06026068
41	0x3d0dd11a	0.034623243
42	0x3d7c8c87	0.061657455
43	0xbdba7fda	-0.09106417
44	0x3c93404c	0.017974995
45	0xbd929351	-0.071570046
46	0x3ca44d60	0.020056427
47	0xbcd88412	-0.026430164
48	0x3b8d579b	0.004313422
49	0xbd60a473	-0.05484433
50	0x3d9567b1	0.07295168
51	0x3dcb08e0	0.09913802
52	0xbca89566	-0.020579051
53	0x3cb133b2	0.021631096
54	0x3da8fdd3	0.08251538
55	0xbd101ed0	-0.035185635
56	0xbccc69e7	-0.024952842
57	0x3cd226fe	0.025653359
58	0x3cb0b3d6	0.021570127
59	0xbd3343b8	-0.043765754
60	0xbc05781b	-0.008146311
61	0x3d8b0277	0.067875795
62	0xbd8cd3d6	-0.06876342
63	0xbd084016	-0.033264242
64	0x3b43f327	0.0029899569
65	0x3d3fb72d	0.04680555
66	0x3d5a6ab1	0.053324405
67	0x3d6d6485	0.05795719
68	0x3c82ac97	0.015951438
69	0x3dbc595f	0.09196734
70	0xbca58c31	-0.02020845
71	0xbba867be	-0.00513932
72	0x3b56ba41	0.0032764825
73	0xbbb50147	-0.005523834
74	0x3dac9a79	0.08427901
75	0x3da6937f	0.081336014
76	0x3d32e79e	0.04367792
77	0xbcb4c2ef	-0.022065608
78	0x3d210635	0.03931256
79	0x3ce646f7	0.02811001
80	0xbd747e37	-0.05969068
81	0xb9bdead3	-0.00036223847
82	0x3c38c9cf	0.011278584
83	0xbc9ad629	-0.018900948
84	0xbcce966c	-0.025218211
85	0x3d185100	0.037186623
86	0xbd77b919	-0.060479257
87	0x3d1c1ead	0.038115192
88	0x3d27b2ea	0.04094211
89	0xbd1d998d	-0.038476516
90	0x3d498e67	0.04920807
91	0x3c30a181	0.010780693
92	0x3ce692b8	0.028146133
93	0x3d87819c	0.06616518
94	0x3c5040c8	0.012710758
95	0x3cf1818a	0.029480714
96	0x3ab54041	0.0013828353
97	0xbd22d3bd	-0.03975271
98	0xbc569f21	-0.013099463
99	0xbd23c853	-0.039985966
100	0x3c46b534	0.012128163
101	0x3cfd79de	0.0309419
102	0x3d03516f	0.032060083
103	0xbc985aac	-0.018597923
104	0xbd857a1b	-0.065174304
105	0xb98bf5ea	-0.00026695366
106	0xbcc491bd	-0.023995275
107	0xbd198a5a	-0.037485458
108	0x3d39279e	0.045203798
109	0x3d26f2ba	0.040758826
110	0x3c32ca93	0.010912555
111	0x3da536f8	0.08067125
112	0xbbe26a1d	-0.0069096223
113	0x3c39db60	0.011343807
114	0x3cd4feef	0.026000468
115	0x3afad6db	0.0019137518
116	0xbc16e68e	-0.009210242
117	0xbabbbc39	-0.0014323062
118	0xba85d0b4	-0.0010209293
119	0x3d81e5d4	0.06342664
120	0xbd1c912b	-0.03822438
121	0x3d4a39ab	0.049371403
122	0x3d084ec9	0.03327826
123	0x3d78424e	0.060610108
124	0xbd027924	-0.03185381
125	0x3cb46145	0.022019038
126	0xbd6249db	-0.055246215
127	0xbd9f4451	-0.07776702
128	0x3ce6efe2	0.028190557
129	0xbc7e2c80	-0.015513539
130	0xbd0f4202	-0.03497506
131	0x3a827ab6	0.0009954784
132	0x3c92f1b4	0.017937519
133	0xbd375af1	-0.044764463
134	0x3b97bf31	0.004630946
135	0x3d425476	0.04744383
136	0x3d4ac07f	0.049499985
137	0xbd092f6d	-0.033492494
138	0x3cbf47ef	0.02334973
139	0xbae3fdff	-0.0017394422
140	0x3d0aea53	0.033914875
141	0xbb569e7f	-0.003274828
142	0x3c3c951a	0.011510158
143	0xbcbc3f27	-0.022979332
144	0x3c398b64	0.011324737
145	0x3ce86cb7	0.028372152
146	0x3d912142	0.070864215
147	0x3cf7b92f	0.03023967
148	0xbd81f6e1	-0.063459165
149	0xbcbe8680	-0.023257494
150	0xbc855443	-0.01627553
151	0xbcf9e686	-0.03050543
152	0x3c4a63a8	0.012352861
153	0x3d92f993	0.07176509
154	0x3b77e4a9	0.00378255
155	0xbd34afaf	-0.044112857
156	0x3d94d540	0.07267237
157	0x3baa6f1a	0.0052012326
158	0xbced232e	-0.028947439
159	0xbce55502	-0.027994636
160	0xbd17a3b0	-0.03702134
161	0x3d24e5eb	0.04025833
162	0x3c8bd37e	0.01706862
163	0xbd579b20	-0.052638173
164	0xbc95061f	-0.018191395
165	0xbcde03f1	-0.027101489
166	0x3cfdd0dc	0.030983381
167	0x3c2ab1f9	0.010418409
168	0x3c960296	0.01831178
169	0x3c4c4c8e	0.012469424
170	0x3d18f5de	0.037343852
171	0xbbe83e0e	-0.0070874756
172	0x3dadcf90	0.08486855
173	0xbd07dbd7	-0.03316864
174	0xbb61afea	-0.0034437128
175	0xbc5bfbba	-0.0134267155
176	0xbc079a79	-0.008276575
177	0xbd6f1921	-0.058373574
178	0x3d9b56cf	0.07584917
179	0x3b98299a	0.004643631
180	0xbcbfbacd	-0.023404503
181	0x3d354660	0.044256568
182	0x3d897a52	0.06712784
183	0xbcfb535b	-0.030679395
184	0xbbf94032	-0.0076065296
185	0x3bf6d5a2	0.0075327912
186	0xbb1df7e8	-0.0024104062
187	0xbc969132	-0.018379781
188	0xbd69c534	-0.057072833
189	0x3d89f4dc	0.06736156
190	0xbc385c34	-0.011252452
191	0x3bc14324	0.0058978964
192	0xbcbade20	-0.022810996
193	0x3d519b6b	0.05117361
194	0x3c933559	0.017969774
195	0xba9a6e70	-0.001178218
196	0xbc3ec299	-0.011643075
197	0x3d752613	0.059850764
198	0xbd38adc2	-0.045087583
199	0xba72dd5c	-0.00092645525
200	0xbcd42795	-0.02589778
201	0x3d7e1157	0.062028255
202	0x3ce5466b	0.02798768
203	0x3c16dfa4	0.0092085935
204	0xbd998fee	-0.074981555
205	0x3d2c75d8	0.042104572
206	0xbd0ec3bd	-0.03485464
207	0xbc85899e	-0.016300973
208	0x3d839f45	0.064268626
209	0x3ce8676f	0.028369633
210	0xbd058ad3	-0.032603096
211	0xbc0aa098	-0.00846114
212	0x3d51d8d1	0.051232163
213	0xbd31ae59	-0.04337916
214	0xbc121766	-0.008916711
215	0x3d4051f8	0.04695317
216	0x3cab4845	0.020908484
217	0xbd807ac2	-0.06273414
218	0xbb96818d	-0.0045930804
219	0x3ca6bbd4	0.020353235
220	0x3d29e4fc	0.041478142
221	0x3ccf95bc	0.025339954
222	0x3d75b018	0.05998239
223	0x3d53b000	0.05168152
224	0xbd5a01d8	-0.053224415
225	0x3c89232b	0.016740402
226	0xbd2b22cb	-0.041781228
227	0x3ccf237c	0.025285475
228	0xbceb766e	-0.028742995
229	0x3c0edb71	0.008719311
230	0x3d2cca6a	0.042185225
231	0x3c567053	0.013088304
232	0xbcedcc82	-0.029028181
233	0xbc1cc0ca	-0.009567449
234	0xbc16278b	-0.009164701
235	0x3ce19a3e	0.027539369
236	0x3d90c645	0.07069067
237	0x3ca8e861	0.02061862
238	0x3ce398a1	0.02778274
239	0x3d6c420f	0.057680186
240	0x3d62385f	0.05522954
241	0x3d25d081	0.040482048
242	0x3d12a556	0.035802208
243	0x3d033984	0.032037273
244	0x3d9a3f35	0.07531587
245	0xbd7f35e3	-0.06230725
246	0x3d759f9c	0.05996667
247	0x3c5421df	0.012947529
248	0x3cc3e1d4	0.023911394
249	0xbc5a5bbe	-0.013327537
250	0xbcc5f882	-0.02416635
251	0x3d5d1916	0.053979002
252	0x3b978d83	0.004625024
253	0x3c0e2235	0.008675148
254	0x3d06d389	0.03291658
255	0xbd7be04a	-0.061493196

layers.0.gcn_0.bias f4 [64]
0	0x3c848639	0.016177284
1	0x3ca04a4b	0.019566676
2	0x3d609674	0.054830983
3	0x3c7c5b51	0.015402631
4	0x3d50e186	0.050996326
5	0x3d5ff4e6	0.054676913
6	0x3d60bf70	0.05487007
7	0x3c965d59	0.018355059
8	0x3c99b485	0.018762836
9	0x3d484cab	0.04890124
10	0x3cc46de8	0.023978189
11	0x3d0f196c	0.034936354
12	0x3d4b040e	0.049564414
13	0x3d1a4fe1	0.037673835
14	0x3d39e08d	0.045380164
15	0x3d4205dc	0.04736887
16	0x3d11e74a	0.035620965
17	0x3d570594	0.052495554
18	0x3d43fd4e	0.047848992
19	0x3cc734b5	0.024317125
20	0x3cc11d1a	0.023573447
21	0x3cbc304e	0.022972252
22	0x3d423843	0.047416937
23	0x3d325c25	0.043544907
24	0xbc27caaa	-0.01024119
25	0x3d62971b	0.055319887
26	0x3d4efb1b	0.05053244
27	0x3d2a8e1d	0.041639436
28	0x3c8e6c53	0.017385637
29	0x3cb89cc9	0.022535698
30	0x3d38bfec	0.045104906
31	0x3d4109f3	0.04712863
32	0x3cc0c6a7	0.023532225
33	0x3cc288d9	0.023746895
34	0x3cbb5acc	0.022870444
35	0x3c89b36b	0.016809186
36	0x3d0d7d1e	0.03454315
37	0x3c36cd1b	0.011157299
38	0x3cbd2c4e	0.023092415
39	0x3d4105bd	0.047124613
40	0x3cb80b55	0.022466341
41	0x3d39d748	0.045371324
42	0x3cbc4c16	0.0229855
43	0x3d60d308	0.054888755
44	0x3ca4a53f	0.020098327
45	0x3d25bfd7	0.040466156
46	0x3cfccacf	0.030858425
47	0x3d4bcef9	0.04975793
48	0x3d1b4117	0.03790387
49	0x3cc174b7	0.023615224
50	0x3ccc5329	0.024941998
51	0x3c3d1e8b	0.011542927
52	0x3c9006f7	0.017581446
53	0x3c792798	0.015207194
54	0x3c8801f6	0.016602498
55	0x3cc35958	0.023846313
56	0x3cd02a4a	0.02541079
57	0x3ca9733b	0.020684829
58	0x3d3f5b3f	0.04671788
59	0x3cc63a5b	0.024197748
60	0x3be8e250	0.0071070567
61	0x3d49556a	0.049153723
62	0x3d48dc6f	0.049038347
63	0x3d624d45	0.05524947

layers.1.gcn_1.weight f4 [64, 6]
0	0x3e836e35	0.2567002
1	0xbea0266c	-0.31279314
2	0x3e2b4b4b	0.1672794
3	0x3e14df5c	0.1453833
4	0xbdf506c3	-0.1196418
5	0xbe340283	-0.17579083
6	0x3e2519c4	0.1612311
7	0x3b82efc2	0.0039958665
8	0xbe80ae48	-0.25132966
9	0x3e211e87	0.15734302
10	0xbc1c7a63	-0.009550664
11	0x3e8c0ae7	0.27352068
12	0xbea4402c	-0.3208021
13	0x3cb0d952	0.021588001
14	0x3dec495f	0.11537432
15	0x3e8f9ff8	0.28051734
16	0x3e88799b	0.26655278
17	0x3e503879	0.20334043
18	0x3e46a3b7	0.1939839
19	0x3a89fd09	0.0010527681
20	0xbe96281b	-0.29327473
21	0xbe4084ff	-0.18800734
22	0xbe9b1615	-0.30290285
23	0x3e2e9f35	0.1705292
24	0x3e6dc334	0.23218995
25	0xbd8b5394	-0.06803051
26	0xbd1d4c70	-0.038402975
27	0xbe59fae6	-0.21287116
28	0xbe8ef841	-0.27923778
29	0x3b753adb	0.0037419114
30	0xbe8a9ea6	-0.27074164
31	0x3e0e67f0	0.13906837
32	0xbe80e55d	-0.2517499
33	0xbeaf6d2c	-0.3426298
34	0xbe70b08e	-0.2350485
35	0x3dd47b95	0.10375134
36	0xbe41f4b2	-0.18941
37	0x3e10141a	0.14070168
38	0x3e553b3f	0.20823382
39	0x3e93f41b	0.28897175
40	0x3e5fc49d	0.21852346
41	0xbda7bf95	-0.08190838
42	0x3e5c5c0b	0.21519487
43	0xbe982112	-0.2971273
44	0xbe86eed5	-0.2635409
45	0xbe193086	-0.14959916
46	0xbe4d7714	-0.20064956
47	0x3e1fef0e	0.15618536
48	0x3e47a0ec	0.1949498
49	0x3db77819	0.08958454
50	0x3daf91a6	0.08572702
51	0xbe2eaf16	-0.17058977
52	0xbde19953	-0.110155724
53	0xbe318a72	-0.17337969
54	0xbeafc2bc	-0.34328258
55	0x3e8e516d	0.27796498
56	0x3e481735	0.19540103
57	0xbe2bb779	-0.16769208
58	0xbe8c15f2	-0.27360493
59	0x3d4d7692	0.050161906
60	0xbddf54a6	-0.10904817
61	0xbe5f14ef	-0.2178533
62	0x3d943478	0.0723657
63	0xbdf71bf6	-0.1206588
64	0x3dc6a364	0.09699133
65	0x3c123626	0.008924043
66	0x3e63ce98	0.22246778
67	0xbeadb2cc	-0.33925474
68	0xbe90306b	-0.2816194
69	0x3ea6de30	0.3259139
70	0xbe04f2f7	-0.12983309
71	0x3e84747b	0.25870118
72	0x3e8ae2be	0.27126116
73	0xba54aa18	-0.0008112504
74	0xbe980b16	-0.29695958
75	0xba836daa	-0.0010027189
76	0xbe9ce742	-0.30645186
77	0xbe2905be	-0.16506097
78	0x3d820785	0.063490905
79	0xbe64c710	-0.22341561
80	0xbe303006	-0.1720582
81	0x3e6ec501	0.23317339
82	0x3e6e4244	0.23267466
83	0x3ea3cd6f	0.3199267
84	0xbea26605	-0.3171846
85	0x3da5c275	0.0809373
86	0xbeb03dda	-0.3442219
87	0x3e93f0d0	0.28894663
88	0xbdf32268	-0.11871797
89	0xbe8c4c69	-0.27402046
90	0xbdc49eed	-0.09600625
91	0x3d626daf	0.055280384
92	0xbe8391ea	-0.2569726
93	0x3df93116	0.121675655
94	0x3e90a70a	0.2825244
95	0xbe3bc3ed	-0.18336459
96	0x3e4537fe	0.1925964
97	0xbdd255bc	-0.10270259
98	0x3e518e32	0.204644
99	0x3df60d31	0.12014235
100	0xbe3be5ae	-0.18349335
101	0x3e795cb6	0.24351773
102	0x3db2e447	0.08734947
103	0x3e86e4d9	0.26346472
104	0x3df58c55	0.11989657
105	0xbe96318d	-0.2933468
106	0xbe8dcb9f	-0.27694413
107	0xbd35693b	-0.04428981
108	0x3e767ec1	0.2407179
109	0x3e0d07f2	0.13772562
110	0x3e741532	0.2383621
111	0x3dcb3d60	0.09923816
112	0xbe6491e6	-0.22321281
113	0xbe37ed96	-0.17961726
114	0x3e4df484	0.20112807
115	0x3e9c90dc	0.3057927
116	0xbea20431	-0.31643823
117	0x3e1dc2eb	0.15406387
118	0xbe077478	-0.13228023
119	0xbc475d84	-0.012168292
120	0xbe38fbbb	-0.18064778
121	0xbe773224	-0.24140221
122	0x3b5ad4a8	0.0033390913
123	0xbe9cd8b5	-0.30634084
124	0xbe385b8c	-0.18003672
125	0x3e848f33	0.25890502
126	0xbe9e56fe	-0.30925745
127	0x3da89a95	0.08232609
128	0xbeaefbc4	-0.34176457
129	0x3e575b82	0.21031001
130	0x3e5c940d	0.21540852
131	0xbe898304	-0.2685777
132	0x3d8c0b61	0.06838108
133	0xbe34800e	-0.17626974
134	0x3e2ce41f	0.16883896
135	0xbcdfc574	-0.027315833
136	0xbdb988f3	-0.09059324
137	0xbddfba82	-0.109242454
138	0xbdd6c133	-0.104860686
139	0x3e989036	0.29797524
140	0xbe8bef3c	-0.2733096
141	0x3e43b897	0.19113384
142	0x3e73ff85	0.23827942
143	0x3e8e7c2a	0.27829105
144	0x3ead6532	0.33866268
145	0x3e4f6034	0.20251542
146	0x3e2c63df	0.16834973
147	0xbe7c8b7f	-0.24662589
148	0x3d38956c	0.045064375
149	0x3d9a5b7d	0.07536981
150	0x3e4b66fe	0.19863507
151	0x3ce1d072	0.027565215
152	0x3d6beba3	0.057597768
153	0xbe0b0ffc	-0.13580316
154	0x3dd76cff	0.10518836
155	0xbe964c90	-0.29355288
156	0x3e8254bc	0.25455272
157	0x3d840f04	0.064481765
158	0x3dbc5a5a	0.09196921
159	0x3e997b04	0.29976666
160	0x3e9bef5f	0.30456063
161	0xbea5cd08	-0.3238299
162	0xbda8c5e7	-0.08240872
163	0x3e39e429	0.18153442
164	0x3e98b041	0.2982197
165	0x3d128565	0.035771746
166	0xbcc9d1bd	-0.024636144
167	0x3e907803	0.28216562
168	0x3dcd3dcb	0.10021552
169	0xbe6df1c1	-0.23236753
170	0xbe38815b	-0.18018095
171	0xbe95335d	-0.2914075
172	0x3e1a027d	0.15040012
173	0xbe4041cf	-0.18775104
174	0xbcb0f134	-0.02159939
175	0xbe1e3c3a	-0.15452662
176	0x3ae6e4b9	0.0017615772
177	0x3e9b5bde	0.30343527
178	0x3eaad717	0.33367226
179	0xbd1d8680	-0.038458347
180	0xbe17be3d	-0.14818664
181	0x3dbe9405	0.09305576
182	0xbe9a0b46	-0.30086726
183	0x3debb929	0.11509926
184	0xbd187d8f	-0.037229117
185	0x3deeffe9	0.11669905
186	0xbe855726	-0.2604305
187	0xbe380b63	-0.17973094
188	0xbe80c2e8	-0.25148702
189	0xbea71cbc	-0.3263911
190	0xbd8d50f1	-0.06900204
191	0xbc36c380	-0.011155009
192	0xbd04fc5a	-0.032467224
193	0xbc9876cc	-0.018611334
194	0x3ea35c9b	0.3190659
195	0x3c2a2dfe	0.010386942
196	0x3e1c566b	0.15267341
197	0xbe5e0ee2	-0.21685365
198	0x3e0b0da2	0.1357942
199	0xbe38fdcc	-0.18065566
200	0x3e7758de	0.24154994
201	0x3d8e4cf7	0.06948274
202	0xbea7d774	-0.32781565
203	0xbd9af1ad	-0.07565627
204	0x3e604d56	0.21904501
205	0xbe31f073	-0.1737688
206	0xbe44eb6c	-0.19230431
207	0xbc21cd5e	-0.0098756235
208	0x3e4541b5	0.19263346
209	0xbe5ec589	-0.21755041
210	0xbea26053	-0.31714115
211	0x3c4834d9	0.012219631
212	0x3e2221c4	0.15833193
213	0x3e55e7cd	0.20889206
214	0xbe7177dd	-0.2358088
215	0xbd5d3075	-0.05400129
216	0xbdf7c7ce	-0.120986566
217	0xbdb0c24b	-0.086308084
218	0x3e8f071b	0.2793511
219	0x3ea16565	0.3152267
220	0xbe9969e0	-0.2996359
221	0xbe7ecbe3	-0.24882464
222	0xbea4a05e	-0.321536
223	0x3de6ddde	0.112727866
224	0x3bd7c0e9	0.006584276
225	0xbe42b295	-0.19013436
226	0xbe0b51a1	-0.13605358
227	0xbd8ef83a	-0.06980939
228	0x3e72f23e	0.2372522
229	0xbe3ee0f8	-0.18640506
230	0xbd4b84b4	-0.049687102
231	0xbd881e4e	-0.06646405
232	0x3e911584	0.28336728
233	0x3e20d002	0.15704349
234	0xbdedc0d8	-0.11609048
235	0xbe2336db	-0.15938894
236	0x3dcfdfca	0.10150106
237	0x3dd972fd	0.106176354
238	0x3eb0724b	0.344622
239	0xbdc40088	-0.09570414
240	0x3e6d0cd0	0.23149419
241	0xbe348401	-0.1762848
242	0x3e8e5822	0.27801615
243	0xbdf36a13	-0.118854664
244	0xbe94ae2b	-0.2903913
245	0xbe1b6dfa	-0.15178671
246	0x3e8b0ad9	0.27156714
247	0x3e752b04	0.2394219
248	0xbe3e58cf	-0.18588565
249	0x3df9b257	0.12192219
250	0x3e27140a	0.16316238
251	0xbeafb27d	-0.34315863
252	0x3e6c47e4	0.23074299
253	0xbe1b5a7d	-0.15171237
254	0x3d7afb07	0.061274555
255	0x3e2a163f	0.16610049

layers.1.gcn_1.bias f4 [6]
0	0x3bf8ffc9	0.0075988513
1	0x3d34088e	0.04395347
2	0x3cfdfcbc	0.031004302
3	0xbd611310	-0.05494982
4	0x3d5afdcb	0.053464692
5	0xbd6c7d15	-0.057736475
