cache/pretrained/pretrained_28.pt (torch_old, 740152 bytes, 4 tensors)

layers.0.gcn_0.weight f4 [2879, 64]
0	0xbbc0a950	-0.0058795586
1	0xbcdc4919	-0.026890324
2	0x3b11dc87	0.0022256689
3	0xbc97e138	-0.01854001
4	0xbbe9ea76	-0.0071385456
5	0x3d32f32d	0.04368894
6	0x3a39979b	0.0007079781
7	0x3b851ef3	0.0040625273
8	0xbb580118	-0.0032959636
9	0xbca90fcb	-0.020637413
10	0xbb9adc8b	-0.004725998
11	0xb997b228	-0.000289337
12	0xbbc35321	-0.0059608375
13	0xbd32d5d7	-0.043660965
14	0xbb0d70f0	-0.0021582209
15	0x3c2605e9	0.010133245
16	0xbb7511f5	-0.0037394736
17	0x3b7782f9	0.0037767275
18	0xbc7ef968	-0.015562393
19	0xbbdc64a8	-0.0067258663
20	0xbc006930	-0.007837579
21	0xbcd6ba8e	-0.026212003
22	0x3d0d0cb5	0.034435946
23	0xbbd7bc07	-0.006583694
24	0xbabb4601	-0.001428783
25	0xbb8b764e	-0.0042560464
26	0xbbcda755	-0.006276051
27	0xb8801285	-6.106965e-05
28	0x3be76911	0.0070620854
29	0xbd1d7303	-0.03843976
30	0xbc7425f7	-0.01490163
31	0x3c31cb72	0.010851728
32	0x3b91092f	0.0044261436
33	0xbbee7138	-0.0072766803
34	0x3c46608e	0.012107981
35	0xbcec22b5	-0.028825143
36	0xbb9090f3	-0.0044118105
37	0x3bbc35e1	0.0057437276
38	0xbc126e67	-0.008937455
39	0xbc60803e	-0.01370245
40	0x3c0bb0a9	0.008526006
41	0x3a165e7f	0.0005736127
42	0x3ce5f332	0.028070066
43	0x3bb8d3e4	0.0056404937
44	0xb8ca2d4f	-9.64055e-05
45	0x3ba4b54a	0.005026494
46	0xbc7508b8	-0.014955692
47	0x3b06af6c	0.0020551337
48	0xbcfccc61	-0.030859174
49	0xbb2dd6eb	-0.0026525806
50	0x3c429b0c	0.011877786
51	0x3ad09e4e	0.0015916319
52	0xbb737081	-0.0037145915
53	0xbc322c18	-0.010874771
54	0xbc10fb69	-0.008849003
55	0x3d03790b	0.032097857
56	0xbd0c793c	-0.034295306
57	0xbc3699cf	-0.011145069
58	0x3bb9ef35	0.0056742677
59	0x3b039883	0.0020079918
60	0xbb1906cf	-0.0023350006
61	0xbc1a5001	-0.0094184885
62	0x3a0f2d6c	0.00054617855
63	0xbd151d30	-0.03640479
64	0xbb0d256f	-0.0021537205
65	0x3c0a0057	0.008422933
66	0x3d72b226	0.059251927
67	0xbd0955c4	-0.033529058
68	0x3c96874d	0.018375063
69	0x3c1ea044	0.009681765
70	0x3c4a1e64	0.012336347
71	0x3c8eab1e	0.01741558
72	0xbcb0c54d	-0.021578455
73	0x3d067a76	0.03283163
74	0xbb0faf7a	-0.002192466
75	0xbbcb7c31	-0.006209873
76	0x3b8ab74d	0.004233277
77	0xbcceb3d5	-0.025232235
78	0xba1f6c5e	-0.00060815166
79	0x3d0aebd1	0.0339163
80	0xbc3c23f4	-0.011483181
81	0x3cdf4f48	0.027259484
82	0xbc5e0d4e	-0.013552977
83	0x3c18fd55	0.009337743
84	0x3b94b11b	0.004537714
85	0xbce9bf97	-0.02853374
86	0xbc7d1b8d	-0.015448463
87	0x3c49ed9d	0.012324718
88	0x3a08874c	0.0005208149
89	0xbbe03628	-0.0068423934
90	0x3a4d9ff1	0.00078439625
91	0x3c1885c3	0.009309235
92	0x3be869fa	0.0070927115
93	0xbc089eaf	-0.008338614
94	0x3ca35abc	0.019940726
95	0xbc3004e9	-0.010743358
96	0x3b5bbd3f	0.0033529548
97	0xba92e4f9	-0.0011207155
98	0x3c59964a	0.013280461
99	0x3c195d0a	0.009360561
100	0xbb04ac4a	-0.0020244294
101	0x3ca5a689	0.020221012
102	0xbc074187	-0.008255369
103	0x3b79b8fd	0.0038104646
104	0x3c9de937	0.019276245
105	0x3b8b055e	0.004242583
106	0x3cc4f704	0.024043567
107	0x3ca48e0c	0.020087264
108	0x3c3924dd	0.011300293
109	0xbb7a26f3	-0.0038170188
110	0xbca72474	-0.020403124
111	0xbb81e6fc	-0.003964303
112	0x3aea6fa4	0.0017886055
113	0xbb4e3f62	-0.0031470885
114	0x3d64bafb	0.05584238
115	0x3c570aa1	0.013125093
116	0xbbf5c256	-0.0074999733
117	0x3af2155a	0.0018469498
118	0x3c1063fc	0.008812901
119	0xbc8b4f3a	-0.017005552
120	0xbaa2bd9d	-0.0012416128
121	0xbcc5c283	-0.024140602
122	0x3cb1b3fd	0.02169227
123	0xbcc331f6	-0.023827534
124	0xbbcdc48f	-0.006279535
125	0x3cd4329b	0.025903037
126	0xbbc32a0f	-0.0059559415
127	0xbcbb5a05	-0.022870073
128	0xba3d133e	-0.0007212645
129	0x39428197	0.00018549558
130	0x3a42c5c7	0.0007429984
131	0xba7087e4	-0.0009175523
132	0xb9816183	-0.0002467745
133	0x3ab9f743	0.001418807
134	0xba77c086	-0.00094509905
135	0x39d7e4bf	0.00041178425
136	0x3a8b2136	0.0010614756
137	0x3afb3e7b	0.0019168401
138	0x39a433bc	0.00031319063
139	0x39fc91fd	0.00048173955
140	0x3b390e2e	0.0028237212
141	0x399d3238	0.0002998279
142	0x3a0ec76e	0.00054465875
143	0x3a864396	0.0010243531
144	0x39982ec0	0.0002902653
145	0x3a87df6c	0.0010366268
146	0x3a2808e1	0.00064100145
147	0x38ff10ac	0.00012162453
148	0x3af9506c	0.001902116
149	0xba8a514b	-0.0010552792
150	0x39fbd4d0	0.00048033008
151	0xb9e14279	-0.0004296487
152	0x3a84cabc	0.001013122
153	0x3a2ff9cc	0.0006712943
154	0xba0b5c50	-0.0005316185
155	0x395e7a76	0.0002121719
156	0x3a604164	0.0008554666
157	0x3a926835	0.0011169972
158	0x39e50733	0.00043683648
159	0xba17f204	-0.0005796256
160	0xbaaf4e0b	-0.0013374699
161	0x3a0630ef	0.0005118986
162	0x39d18f02	0.00039970136
163	0x3ab58624	0.0013849181
164	0xba8f18bf	-0.0010917409
165	0x3abb9463	0.001431119
166	0xb9c4b3f3	-0.00037518106
167	0x3a8158a0	0.0009868331
168	0xba2308af	-0.00062192505
169	0x3ac0a419	0.0014697342
170	0xb9d1f85e	-0.00040048634
171	0x3a9a9255	0.0011792878
172	0x39dc9729	0.00042074293
173	0x3950c6b1	0.00019910444
174	0x3a489649	0.0007651789
175	0x3a9dc14e	0.0012035759
176	0x3a57b90c	0.0008229173
177	0x3ad254f7	0.001604705
178	0xbaffb080	-0.0019507557
179	0x3a03348e	0.00050050847
180	0xb9e21852	-0.000431242
181	0xba737092	-0.00092864886
182	0x3a876e41	0.0010332541
183	0x39a1bc54	0.00030848628
184	0x3b1920ab	0.002336542
185	0xb9400063	-0.00018310691
186	0x3aa464ce	0.0012542249
187	0xb9875f93	-0.00025820415
188	0x3a787731	0.000947821
189	0x3a8963e0	0.0010482036
190	0xb986f526	-0.00025741121
191	0xba4e79b3	-0.0007876411
192	0x3b0dc0b5	0.0021629755
193	0xbc3ad786	-0.011403924
194	0xbcaf3c59	-0.02139108
195	0xbbc3ef08	-0.0059794225
196	0xbb917aa0	-0.004439667
197	0x3b98b51a	0.004660261
198	0xbb2eafcf	-0.0026655083
199	0x3cef575c	0.02921646
200	0xbc88915b	-0.016670873
201	0xbc2c47d4	-0.010515172
202	0x3d208c74	0.039196447
203	0x3bc82c68	0.0061088093
204	0xbb296df1	-0.0025852884
205	0x3c71b35c	0.014752235
206	0xb912f929	-0.00014016464
207	0xbac07201	-0.0014682413
208	0x3c349524	0.011021886
209	0x3c4e5f45	0.012595956
210	0xbc41ffe6	-0.011840796
211	0xbca1f071	-0.019767972
212	0xbc6dda34	-0.014517356
213	0xbbf0f4f6	-0.0073534204
214	0x3c466bc7	0.012110657
215	0xbbacabdd	-0.005269511
216	0x3ca8c4bf	0.020601628
217	0x3b683414	0.0035431432
218	0xbc3cd2aa	-0.011524836
219	0xbc0dd8b7	-0.008657626
220	0x3c8f4f42	0.017493848
221	0x3ce4b9b8	0.027920589
222	0x3c0dce73	0.008655178
223	0x3ba8c35b	0.0051502413
224	0xbcb2cb15	-0.021825353
225	0x39114bbb	0.0001385649
226	0xbc1a7290	-0.009426728
227	0x39f87fcf	0.0004739747
228	0xbc0d8ed0	-0.008640006
229	0xbb075e70	-0.0020655654
230	0x3c191ed7	0.009345732
231	0x3c112014	0.008857746
232	0x3b97890c	0.0046244916
233	0x3c830e77	0.015998108
234	0xbc7baf69	-0.015361645
235	0x3c863456	0.016382378
236	0xbbbf295e	-0.005833789
237	0xbb6ed4b0	-0.003644269
238	0x3c72b15d	0.0148127945
239	0x3c8fad3d	0.017538661
240	0x3cb88c02	0.022527698
241	0x3c800c7a	0.01563095
242	0xbc655012	-0.013996141
243	0xbc9f3723	-0.01943547
244	0xbb299b39	-0.0025879873
245	0xbc843296	-0.016137403
246	0x3cd9c757	0.02658431
247	0xbb23c5fc	-0.0024989834
248	0x3cf25c96	0.029585164
249	0x3c2ab830	0.01041989
250	0x3be7be72	0.0070722634
251	0xbb5e76fe	-0.0033945437
252	0x3c6e6f41	0.014552892
253	0x3c84afa4	0.016197033
254	0xbb8cdfb9	-0.0042991308
255	0x3bd61aed	0.0065339715

layers.0.gcn_0.bias f4 [64]
0	0x3d9459c4	0.07243684
1	0x3d822599	0.063548274
2	0x3e22c2da	0.15894642
3	0x3dbab4af	0.09116494
4	0x3dcae714	0.09907356
5	0x3de06b22	0.10957934
6	0x3e014a1b	0.12625925
7	0x3df7d018	0.121002376
8	0x3dd1f115	0.10251061
9	0x3d96d8b0	0.073655486
10	0x3dda8eaa	0.10671742
11	0x3d752093	0.05984552
12	0x3d5d5299	0.05403385
13	0x3da09f73	0.078429125
14	0x3dea6e72	0.11446847
15	0x3dc97df8	0.0983848
16	0x3d3ef289	0.04661802
17	0x3dbe5f84	0.09295562
18	0x3db2de13	0.087337635
19	0x3db3916d	0.08767972
20	0x3d927198	0.071505725
21	0x3daad329	0.08341057
22	0x3dddffce	0.108398065
23	0x3dedf412	0.11618818
24	0x3e0f2fa9	0.13983025
25	0x3db0e966	0.08638267
26	0x3e095dba	0.1341466
27	0x3dbc0c14	0.09181991
28	0x3d9d15dc	0.07670185
29	0x3d9af7fd	0.07566831
30	0x3da4e20e	0.08050929
31	0x3e0c91aa	0.13727441
32	0x3dfd9f41	0.12383891
33	0x3da3929e	0.079869494
34	0x3d50b311	0.05095202
35	0x3d947dd5	0.07250563
36	0x3dadc9f9	0.08485789
37	0x3dd62207	0.10455709
38	0x3ddaabb4	0.10677281
39	0x3dfd2c42	0.12361957
40	0x3d8b459d	0.06800387
41	0x3df14593	0.11780848
42	0x3e0b082d	0.13577338
43	0x3dd98003	0.106201194
44	0x3d9d06e4	0.0766733
45	0x3dc855d8	0.097819984
46	0x3d8fd4cb	0.07023009
47	0x3dec887f	0.11549472
48	0x3d7e4acc	0.06208305
49	0x3d9b2505	0.0757542
50	0x3e0cb454	0.13740665
51	0x3e06e921	0.13174869
52	0x3de655f0	0.1124686
53	0x3db15280	0.08658314
54	0x3da5db61	0.08098484
55	0x3de42e52	0.111416474
56	0x3d81afbf	0.06332349
57	0x3ca8da56	0.020611923
58	0x3dd71fcc	0.10504112
59	0x3d877822	0.066147104
60	0x3d9d7e21	0.07690073
61	0x3d7b3fb7	0.06134006
62	0x3da00bc5	0.07814745
63	0x3d982cc0	0.074304104

layers.1.gcn_1.weight f4 [64, 7]
0	0x3e800ec5	0.25011268
1	0xbe87abd7	-0.2649829
2	0x3e4822af	0.1954448
3	0xbeb13290	-0.3460889
4	0xbeca93b0	-0.39565802
5	0x3ea0e3cb	0.31423792
6	0x3d80686c	0.06269917
7	0x3e8ddbf1	0.27706864
8	0x3ea29b41	0.31759074
9	0x3ea8c680	0.32963943
10	0xbeaa2907	-0.33234426
11	0xbde1e3c4	-0.11029771
12	0xbe8e6ba4	-0.27816498
13	0xbeafb5f1	-0.34318498
14	0xbe8e5d13	-0.27805385
15	0x3e902712	0.28154808
16	0x3e74f788	0.2392255
17	0x3e7a78c2	0.24460128
18	0xbce300cf	-0.027710347
19	0xbebd2319	-0.3694084
20	0xbeb1387f	-0.34613416
21	0x3ec55e61	0.38548568
22	0xbe8a0846	-0.26959437
23	0xbe93d54b	-0.28873667
24	0xbd969478	-0.07352537
25	0x3eb6f2ae	0.35732025
26	0x3ea9ca43	0.33162126
27	0xbeb8a22a	-0.3606122
28	0xbe7fb8c0	-0.2497282
29	0x3ec97e3d	0.39354125
30	0x3eba3d98	0.36375117
31	0xbddd7fbd	-0.1081538
32	0x3ead8c06	0.33895892
33	0xbeaa5fd5	-0.3327624
34	0xbebf3498	-0.37344813
35	0x3ec86806	0.39141864
36	0xbea64ceb	-0.3248056
37	0x3ea6c62f	0.32573077
38	0x3ef2c173	0.47413215
39	0xbeac8479	-0.3369482
40	0xbe955e9e	-0.2917375
41	0xbe9af73d	-0.30266753
42	0xbeb9abdc	-0.3626393
43	0x3e395354	0.18098193
44	0xbec0ddb0	-0.37669134
45	0x3e8d1f04	0.27562726
46	0x3e5f523c	0.21808714
47	0x3e962d89	0.29331616
48	0xbebf236e	-0.37331718
49	0xbe823360	-0.2542982
50	0x3ea07177	0.31336567
51	0xbeb235bd	-0.34806624
52	0x3edb69e2	0.4285422
53	0xbe228d1d	-0.15874143
54	0xbeb3d610	-0.35124254
55	0x3ec68d69	0.38779762
56	0xbec0a593	-0.37626323
57	0x3dac778d	0.0842124
58	0x3e841fde	0.25805563
59	0xbee38747	-0.44439146
60	0x3e90b318	0.28261638
61	0x3ec434e3	0.383216
62	0xbe979c76	-0.29611558
63	0x3e82b656	0.25529736
64	0x3ed0c0a4	0.40771973
65	0x3ebc011c	0.36719596
66	0xbe852593	-0.2600523
67	0xbe92b2d9	-0.28652075
68	0xbe313ea7	-0.17309056
69	0xbea2bac9	-0.3178313
70	0x3ec3e1bf	0.38258168
71	0xbeccbedf	-0.39989373
72	0xbedc2e3e	-0.4300403
73	0x3ebd2af4	0.36946833
74	0x3df33abe	0.118764386
75	0xbebd92af	-0.37025973
76	0x3e6c3af3	0.23069362
77	0x3e975473	0.29556617
78	0xbea28c57	-0.31747696
79	0x3e90bb7c	0.2826804
80	0xbe018f39	-0.12652291
81	0xbe911e96	-0.28343648
82	0xbe77818a	-0.24170509
83	0x3eac129d	0.3360795
84	0x3e571c6d	0.21006937
85	0xbe8cfc2c	-0.27536142
86	0x3ebb5ebc	0.36595714
87	0xbe7b283f	-0.24527071
88	0xbe93719e	-0.2879762
89	0xbe564c3d	-0.2092752
90	0x3ec75df4	0.38938868
91	0x3e9ded47	0.3084509
92	0xbed5f6d9	-0.41789892
93	0xbe9a6972	-0.30158573
94	0xbea13d39	-0.31492022
95	0x3e7f7b55	0.24949391
96	0x3e53ade6	0.20671806
97	0x3e9f138f	0.3106961
98	0xbe8295c7	-0.25504896
99	0xbe9b0c20	-0.30282688
100	0x3eda11a1	0.42591575
101	0x3ec0f049	0.37683323
102	0x3cdd54d6	0.027017992
103	0xbe50a048	-0.20373642
104	0xbe8601fc	-0.2617339
105	0xbe41f317	-0.18940388
106	0x3edcd137	0.43128368
107	0xbe405fdd	-0.18786569
108	0x3ef4b9a5	0.47797886
109	0xbea6df70	-0.32592344
110	0xbe7dba94	-0.24778205
111	0xbe3c92e9	-0.18415417
112	0x3edcadbb	0.43101296
113	0xbe15b9dd	-0.14621682
114	0xbe52b151	-0.20575453
115	0xbe6dbcf9	-0.23216619
116	0x3ed8680a	0.42266876
117	0xbe723fd6	-0.23657164
118	0xbd641c9d	-0.05569135
119	0xbe9051ec	-0.281875
120	0x3e92f689	0.28703716
121	0x3ebc4fcd	0.36779633
122	0xbec6c013	-0.38818416
123	0xbe2a3c49	-0.1662456
124	0xbea3f497	-0.32022545
125	0x3ebfa58b	0.37430987
126	0x3eb218a5	0.34784427
127	0x3e2a8e90	0.16655946
128	0x3e7c7059	0.24652232
129	0xbed1078f	-0.4082608
130	0xbed9630d	-0.42458382
131	0x3e5de9d7	0.21671234
132	0xbecb33bc	-0.39687908
133	0x3e9b3e83	0.3032113
134	0x3e983327	0.29726526
135	0x3ede5aca	0.43428642
136	0xbeb422ed	-0.35182896
137	0xbe4e71de	-0.20160624
138	0xbea480b0	-0.3212943
139	0xbd664af8	-0.05622384
140	0xbe67bc9d	-0.22630544
141	0x3eeb4cc2	0.45957
142	0xbe890a85	-0.26765838
143	0xbdb5728e	-0.0885974
144	0x3edcc14b	0.4311622
145	0xbe8a9ac7	-0.2707121
146	0xbe80d356	-0.25161237
147	0xbe92ba7b	-0.28657898
148	0x3e884569	0.26615456
149	0xbeb8c0e9	-0.3608468
150	0xbea48a4c	-0.32136762
151	0x3e92786e	0.28607506
152	0x3ebde205	0.37086502
153	0xbe88b56d	-0.26700917
154	0x3ead6713	0.33867702
155	0xbed4fc67	-0.41598818
156	0xbeaded82	-0.33970267
157	0x3e89e284	0.2693063
158	0xbec61d63	-0.38694295
159	0x3e7e1269	0.2481171
160	0x3e87581e	0.26434416
161	0xbe62790a	-0.22116485
162	0xbe4d7884	-0.20065504
163	0xbe2c50c7	-0.16827689
164	0x3ef3dd29	0.4762967
165	0x3ea1aefb	0.31578812
166	0xbe8bc868	-0.27301335
167	0xbe31af44	-0.17352015
168	0x3e98d787	0.29851934
169	0xbea28df6	-0.31748933
170	0x3e633576	0.22188362
171	0x3eb49f89	0.35277966
172	0xbea4902a	-0.32141238
173	0xbed43a98	-0.41450953
174	0x3e92f074	0.28699076
175	0x3e2c2a4e	0.16813013
176	0x3e34869e	0.17629477
177	0xbeb0db8d	-0.34542504
178	0xbecae288	-0.39625955
179	0x3e977785	0.29583374
180	0xbec2e464	-0.38064873
181	0x3ea95129	0.33069733
182	0xbe93dd9f	-0.2888002
183	0xbea5c787	-0.3237879
184	0x3ec2be6a	0.380359
185	0x3e9f1e35	0.31077734
186	0x3eab4d67	0.3345749
187	0xbe0cbb80	-0.137434
188	0xbea59b26	-0.3234493
189	0xbe815a73	-0.2526432
190	0xbe75d393	-0.2400649
191	0x3ebacad7	0.3648288
192	0x3d1e62b8	0.038668364
193	0x3eb178be	0.3466243
194	0xbe791ab7	-0.24326597
195	0xbe87287c	-0.26398075
196	0x3e811b0a	0.25215942
197	0x3e37aab0	0.17936206
198	0xbec9b4a3	-0.39395627
199	0xbe90358d	-0.28165856
200	0x3ea159bd	0.31513777
201	0xbe9ca470	-0.30594206
202	0x3e8dc551	0.27689603
203	0x3e8fb030	0.28064108
204	0x3e079827	0.13241635
205	0xbea5a781	-0.32354358
206	0xbea7e0a3	-0.32788572
207	0x3ec0d9c2	0.37666136
208	0xbeace63f	-0.33769414
209	0x3ec17cd9	0.37790564
210	0xbeb49eba	-0.3527735
211	0x3e7121e9	0.23548092
212	0x3e78e2da	0.24305287
213	0xbebfdace	-0.37471622
214	0xbecaa88e	-0.39581722
215	0x3e93f335	0.2889649
216	0x3e80206e	0.25024742
217	0xbea30469	-0.31839302
218	0xbebaa646	-0.36454982
219	0x3ea61890	0.32440615
220	0x3e554aee	0.20829365
221	0x3e78595a	0.24252835
222	0x3ec47e9e	0.3837785
223	0xbea0293e	-0.31281465
224	0xbe75c8f9	-0.24002446
225	0x3e76052e	0.24025413
226	0xbe97e77e	-0.29668802
227	0x3ecae3b0	0.39626837
228	0xbea0b9d3	-0.31391773
229	0x3ed83c96	0.42233723
230	0xbe9fb2d8	-0.31191134
231	0xbea7173c	-0.32634914
232	0xbec79774	-0.38982737
233	0x3e8b448d	0.27200738
234	0xbeb451f9	-0.3521879
235	0x3e27036d	0.163099
236	0x3e9dd900	0.3082962
237	0x3eab4df0	0.334579
238	0x3ed9ab12	0.4251333
239	0x3eae23c3	0.3401166
240	0x3eb1cbd4	0.3472582
241	0xbe9f4ff7	-0.31115696
242	0xbe94e886	-0.2908365
243	0xbe5570a4	-0.2084375
244	0xbe20b14d	-0.15692635
245	0xbe04605c	-0.12927383
246	0x3ef3d3f5	0.47622648
247	0xbe5fed7e	-0.2186794
248	0xbebc8619	-0.36821058
249	0x3ee20244	0.44142354
250	0xbe6d2590	-0.2315886
251	0xbe799c84	-0.24376112
252	0xbe8d0750	-0.27544641
253	0xbe68e661	-0.22744133
254	0x3ec6fe4a	0.38865882
255	0xbe9e5ab2	-0.3092857

layers.1.gcn_1.bias f4 [7]
0	0x3de98ff6	0.114044115
1	0xbc6339d6	-0.01386877
2	0xbdd3a559	-0.10334272
3	0x3dbd3689	0.092389174
4	0xbdeccefb	-0.11562916
5	0x3d84ae44	0.06478551
6	0xbd0e45a2	-0.034734376
