cache/pretrained/pretrained_42.pt (torch_old, 950836 bytes, 4 tensors)

layers.0.gcn_0.weight f4 [3703, 64]
0	0xbbbb4d11	-0.005715974
1	0x3da84c79	0.08217711
2	0xbd65c912	-0.05609996
3	0x3b0d1fbb	0.0021533805
4	0x3d37d681	0.0448823
5	0xbb932234	-0.0044901613
6	0xbd1503ab	-0.03638045
7	0x3db7ac4f	0.08968412
8	0x3d6bc6b0	0.05756253
9	0xbc6b216e	-0.014351232
10	0x3aef8381	0.0018273444
11	0x3d507e55	0.05090173
12	0x3c79bf05	0.0152432965
13	0x3d0242a7	0.031801846
14	0xbd3088ee	-0.043099336
15	0xbd574ea4	-0.052565232
16	0x3da2f3e2	0.07956673
17	0x3d68bb17	0.056819048
18	0x3c30af32	0.010783957
19	0x3d29ccbb	0.04145501
20	0xbd09c0b6	-0.03363105
21	0x3b94d0e7	0.0045415047
22	0x3c8a7a02	0.016903881
23	0x3c44679a	0.011987591
24	0x3d3f018f	0.046632346
25	0x3d34aa97	0.044108
26	0x3dc8d483	0.098061584
27	0xbd56acf4	-0.052411035
28	0xb2422d17	-1.13025385e-08
29	0x3bab34c8	0.005224798
30	0x3bed5bcc	0.007243609
31	0xb9171462	-0.00014408075
32	0xbd3be499	-0.045872305
33	0x3d2bb8d6	0.04192432
34	0x3cd1323e	0.025536653
35	0xbdb1af80	-0.08676052
36	0x3c842e03	0.016135221
37	0x3b87a5b4	0.0041396264
38	0x3da0866d	0.0783814
39	0xbc45c2ea	-0.012070397
40	0x3d639210	0.055559218
41	0x3d11b768	0.0355753
42	0x3d8bd13c	0.06827018
43	0xbda9a4fb	-0.08283421
44	0x3be54633	0.006996894
45	0xbc15bd20	-0.009139329
46	0x3cd96e01	0.026541712
47	0x3c01cbe5	0.007922147
48	0x3d347cc2	0.04406429
49	0xbd144de0	-0.03620708
50	0x3d9da975	0.07698337
51	0x3d7ae024	0.061248913
52	0xbd017b1c	-0.031611547
53	0x3d82882e	0.063736305
54	0x3dbc6813	0.09199538
55	0xbd73de55	-0.059538204
56	0xbc686714	-0.014184732
57	0x3cbba3fe	0.022905346
58	0x3cdf66aa	0.027270634
59	0xbd47fda1	-0.048825864
60	0x3ca62c50	0.020284802
61	0x3d9841c4	0.07434419
62	0xbd895333	-0.06705322
63	0xbb0530df	-0.002032332
64	0x3b1cb461	0.0023911225
65	0x3d639fd0	0.05557233
66	0x3d671733	0.05641861
67	0x3caaea62	0.020863716
68	0x3c4523bb	0.012032445
69	0x3d936bc2	0.071982875
70	0xbd47b030	-0.04875201
71	0x3d1aef72	0.03782601
72	0xbb86d155	-0.00411431
73	0xbcbd12ba	-0.023080219
74	0x3dc378d9	0.09544534
75	0x3db2e2f8	0.08734697
76	0x3d869765	0.06571845
77	0xbd1cc754	-0.03827603
78	0x3d0da467	0.034580614
79	0x3cc2e2aa	0.023789722
80	0xbd1ccde9	-0.03828231
81	0x3b525c0b	0.003209832
82	0x3d498333	0.049197387
83	0xbb4522ab	-0.0030080478
84	0xbd21626e	-0.03940051
85	0x3d3975b7	0.045278277
86	0xbc208065	-0.009796237
87	0x3ceb118c	0.02869489
88	0x3cb1b901	0.021694662
89	0xbccc3d3e	-0.024931546
90	0x3d6292de	0.055315845
91	0xbca9b82e	-0.020717707
92	0x3d43da47	0.047815587
93	0x3da00331	0.07813109
94	0x3bcf70be	0.0063305786
95	0x3cfc6db6	0.030814033
96	0xbc1c8031	-0.009552048
97	0xbd0b21b2	-0.03396768
98	0x3c25e66a	0.010125736
99	0xbd39c9dd	-0.045358527
100	0x3c15f463	0.009152505
101	0x3cbf7ec3	0.023375874
102	0x3cf7c5ca	0.03024568
103	0xbcbcb2a6	-0.023034405
104	0xbdaa0297	-0.08301275
105	0x3c014e24	0.007892165
106	0x3a958911	0.0011408647
107	0x3c196422	0.009362252
108	0xbae7f781	-0.0017697663
109	0x3d327eb3	0.04357786
110	0x3d0685ec	0.03284256
111	0x3d935a15	0.07194916
112	0xbc7118a6	-0.014715349
113	0x3d049735	0.032370765
114	0x3d47bf13	0.048766207
115	0xbc4df8fd	-0.01257157
116	0xba5b0119	-0.00083543506
117	0x3d084855	0.033272106
118	0xbb376545	-0.0027983945
119	0x3d7a3f1f	0.061095353
120	0xbd2688cc	-0.040657803
121	0x3d7b26c9	0.061316285
122	0x3ce1e530	0.027575105
123	0x3d89dc80	0.0673151
124	0x3c821388	0.015878454
125	0x3cf7c015	0.030242959
126	0xbd1dfab5	-0.03856917
127	0xbdaefcab	-0.08544286
128	0x3ced6715	0.028979817
129	0x3c6fda53	0.014639455
130	0xbcca8274	-0.024720408
131	0x3c1ff2e1	0.009762497
132	0xba90658d	-0.0011016593
133	0xbd39e825	-0.045387406
134	0xba8ddcbe	-0.0010823233
135	0x3c1801b8	0.0092777535
136	0x3d5b09c6	0.053476118
137	0xbd3ed1ca	-0.04658679
138	0xbb33bbf9	-0.0027425273
139	0xbc22fb9c	-0.009947684
140	0x3d26ce43	0.04072405
141	0x39cf8105	0.00039578244
142	0xbb9d0d64	-0.004792856
143	0x3a6a1354	0.0008929272
144	0xbb669da4	-0.0035189176
145	0x3d383699	0.044973943
146	0x3d649547	0.055806424
147	0x3cc97189	0.02459027
148	0xbd8cc2b3	-0.068730734
149	0xbc9d792b	-0.019222816
150	0xbacf215e	-0.0015802791
151	0x3c08731e	0.008328227
152	0x3c5f57d3	0.013631779
153	0x3d9913eb	0.07474502
154	0x3d6468e9	0.055764113
155	0xbd862bc8	-0.06551319
156	0x3d96141b	0.073280536
157	0xbb382e94	-0.0028103935
158	0xbcbb1875	-0.02283881
159	0xbd0f93fd	-0.035053242
160	0xbd40de37	-0.04708692
161	0x3d41db67	0.04732838
162	0x3cb655f6	0.022257786
163	0xbd857183	-0.06515791
164	0xbd158481	-0.03650332
165	0xbcf536f0	-0.029933423
166	0x3d1e41eb	0.038637083
167	0xbc7ec2be	-0.01554936
168	0x3cb2e614	0.021838225
169	0x3d5eed90	0.054425776
170	0x3dbd01a2	0.09228827
171	0xbc97645b	-0.01848047
172	0x3d3661e0	0.044526935
173	0xbbf84d04	-0.0075775404
174	0x3c48948e	0.012242449
175	0x3c26ddf3	0.010184753
176	0xbd376898	-0.044777483
177	0xbd6fbe71	-0.05853123
178	0x3d9e26bd	0.077222325
179	0xbc124a22	-0.008928807
180	0xbce87339	-0.028375255
181	0x3d55bac6	0.052180074
182	0x3d3c52a6	0.045977257
183	0xbbbb4335	-0.005714799
184	0xbc431470	-0.011906728
185	0xbbe7e021	-0.007076279
186	0x3be81588	0.007082645
187	0xbd10c214	-0.035341337
188	0xbd7bc451	-0.06146652
189	0x3d9b55dc	0.07584736
190	0xbc864fb2	-0.016395424
191	0xbb884076	-0.004158075
192	0xbc93c61e	-0.018038806
193	0x3d5b90e1	0.053604964
194	0x3cd49cce	0.025953677
195	0x3b567ab6	0.003272695
196	0xbd48c9e4	-0.049020663
197	0x3d4db0a6	0.050217293
198	0xbd04dc0c	-0.032436416
199	0x3d1041d3	0.035219025
200	0xbd1390cf	-0.036026772
201	0x3d96d527	0.07364874
202	0x3cf8ea4f	0.030385165
203	0xbc654710	-0.013993993
204	0xbd9ea2bb	-0.07745882
205	0x3d552381	0.052035812
206	0x3bb50dc2	0.0055253217
207	0xbab1adc8	-0.0013555819
208	0x3d325f1e	0.043547742
209	0x3cea54b4	0.028604843
210	0xbca7367b	-0.02041172
211	0xbc9966d4	-0.01872579
212	0x3d5f307c	0.054489598
213	0xbcf34580	-0.029696226
214	0xbcd60c91	-0.026129039
215	0x3c982eea	0.018577058
216	0xbb2d2c8b	-0.0026424255
217	0xbd79ccfe	-0.06098651
218	0xba8edc13	-0.0010899327
219	0x3cd7389a	0.026272107
220	0x3ba928d6	0.0051623387
221	0x3db9e6de	0.090772375
222	0x3d27155c	0.040791854
223	0x3d4f3b30	0.050593555
224	0xbd205a09	-0.039148364
225	0x3be588a1	0.007004813
226	0xbd94e3a7	-0.07269984
227	0x3d1d2757	0.038367596
228	0xbc8940ef	-0.016754596
229	0x3c83e50e	0.016100433
230	0x3d2de7f5	0.04245754
231	0x3c90b278	0.017663226
232	0xbcd241b0	-0.025666088
233	0xbca3bfa3	-0.01998884
234	0xbc028db7	-0.007968358
235	0x3cffa766	0.031207751
236	0x3d8712ce	0.065953836
237	0x3b004a4e	0.001957554
238	0x3cc11d19	0.023573445
239	0x3cf3c704	0.029757984
240	0x3d366da6	0.044538163
241	0x3da82526	0.082102105
242	0x3cd78f8e	0.02631357
243	0x3b9549bd	0.0045559094
244	0x3c48bd62	0.012252184
245	0xbd720607	-0.05908778
246	0x3d9bc3dc	0.076057166
247	0x3c883571	0.016627045
248	0x3d836855	0.06416384
249	0xbce6bf2c	-0.02816733
250	0xbd16ab99	-0.036784742
251	0x3d24ef1c	0.040267095
252	0x3a37ac78	0.0007006596
253	0x3d4fe557	0.050755825
254	0x3cf5396c	0.029934607
255	0xbd0be4bf	-0.034153696

layers.0.gcn_0.bias f4 [64]
0	0x3c872429	0.016496735
1	0x3cc90e5d	0.024542982
2	0x3d790582	0.06079627
3	0x3cab27f3	0.020893073
4	0x3d7b44ca	0.0613449
5	0x3d81a5c8	0.063304484
6	0x3d80e603	0.06293871
7	0x3cb7ddd9	0.022444652
8	0x3d010d33	0.03150673
9	0x3d615302	0.055010803
10	0x3cbbfbb6	0.022947174
11	0x3d093bf5	0.033504445
12	0x3d611d3d	0.054959524
13	0x3cbbd20b	0.022927305
14	0x3d64ae6a	0.055830397
15	0x3d703948	0.058648378
16	0x3cad2a40	0.02113831
17	0x3d6721ac	0.056428596
18	0x3d5b4874	0.053535894
19	0x3d08a278	0.033358067
20	0x3d401ab6	0.046900474
21	0x3cd3cdbe	0.025854941
22	0x3d548ee6	0.05189409
23	0x3d5e2122	0.054230817
24	0x38727ecb	5.781538e-05
25	0x3d4bec47	0.04978588
26	0x3ceb5081	0.02872491
27	0x3d6dc888	0.05805257
28	0x3cbcedea	0.023062665
29	0x3cebcc21	0.02878386
30	0x3cfccb2e	0.030858602
31	0x3d602789	0.054725204
32	0x3cec30d0	0.02883187
33	0x3cccee9d	0.025016123
34	0x3d432b2e	0.0476486
35	0x3cf15514	0.029459514
36	0x3d1118dd	0.035424102
37	0x3cb736fe	0.02236509
38	0x3cc1692d	0.023609722
39	0x3d604ae1	0.05475891
40	0x3cf12458	0.029436275
41	0x3d44c4d4	0.048039272
42	0x3cbffe9b	0.023436835
43	0x3d7f1a9a	0.06228123
44	0x3c777158	0.015102707
45	0x3cc9a5a5	0.024615118
46	0x3d558a34	0.052133754
47	0x3d4416eb	0.04787342
48	0x3cad795f	0.021176038
49	0x3cf24e25	0.029578278
50	0x3cdfabe2	0.02730364
51	0x3c1f9a20	0.009741336
52	0x3cfc104d	0.030769492
53	0x3cd94df6	0.026526432
54	0x3c773156	0.015087446
55	0x3ced69dd	0.028981144
56	0x3cdab65b	0.026698282
57	0x3cbdbd20	0.02316147
58	0x3d6e5bea	0.058193125
59	0x3cd1cb41	0.025609614
60	0x3cd18dae	0.025580253
61	0x3ce6ad91	0.028158935
62	0x3d7f2676	0.06229254
63	0x3d6ad4a1	0.057331685

layers.1.gcn_1.weight f4 [64, 6]
0	0x3e6dc167	0.23218308
1	0xbea5d479	-0.32388666
2	0x3e3b9a88	0.18320668
3	0x3e278d53	0.16362505
4	0xbe01fa78	-0.12693202
5	0xbe3e25d9	-0.18569125
6	0x3e2db0bd	0.16961952
7	0x3c6bfb30	0.0144031495
8	0xbe867dd6	-0.2626788
9	0x3e25a782	0.1617718
10	0xbc3feeef	-0.011714681
11	0x3e8ba64c	0.27275312
12	0xbea849fc	-0.32868946
13	0x3c98db35	0.018659214
14	0x3ddb6bbc	0.10713908
15	0x3e917eeb	0.28417143
16	0x3e7fdfdd	0.24987741
17	0x3e5a289e	0.21304557
18	0x3e4dd9ea	0.20102659
19	0x3bbf3d8c	0.0058361944
20	0xbe9887c9	-0.29791096
21	0xbe4ff443	-0.20308022
22	0xbe91856f	-0.28422114
23	0x3e40fbb5	0.18846019
24	0x3e715a75	0.23569663
25	0xbccf15c5	-0.025278935
26	0xbd42a891	-0.04752404
27	0xbe629a42	-0.22129157
28	0xbe927d6b	-0.2861131
29	0xbd291af3	-0.041285466
30	0xbe84724e	-0.25868458
31	0x3e17b061	0.14813377
32	0xbe86d40e	-0.2633366
33	0xbeb34895	-0.35016313
34	0xbe7a139e	-0.24421546
35	0x3de3a1ee	0.1111487
36	0xbe4bdca3	-0.19908385
37	0x3e0d379c	0.13790745
38	0x3e5c4d6d	0.2151391
39	0x3e9b92d5	0.3038546
40	0x3e6d6c5e	0.2318587
41	0xbde2e786	-0.11079316
42	0x3e618667	0.22023927
43	0xbe996548	-0.29960084
44	0xbe8b31fd	-0.27186576
45	0xbe1f57aa	-0.15560785
46	0xbe4fe522	-0.20302251
47	0x3e2757bb	0.1634206
48	0x3e608b69	0.21928181
49	0x3dc59862	0.09648205
50	0x3df749bf	0.12074613
51	0xbe38d208	-0.1804887
52	0xbdf25fc4	-0.11834672
53	0xbe3f0472	-0.1865404
54	0xbeaf1286	-0.3419382
55	0x3e9d40ae	0.3071341
56	0x3e4fcea9	0.20293678
57	0xbe4a0cb7	-0.19731413
58	0xbe904449	-0.28177097
59	0x3cd64683	0.02615667
60	0xbdfbc6ec	-0.12293801
61	0xbe4e73a9	-0.20161308
62	0x3da21c53	0.07915559
63	0xbe0301c9	-0.1279365
64	0x3dcd97be	0.10038708
65	0x3c938712	0.018008742
66	0x3e6ab68e	0.22921202
67	0xbeabd003	-0.33557138
68	0xbe94a663	-0.29033193
69	0x3ea245c5	0.31693855
70	0xbde9806b	-0.11401447
71	0x3e783582	0.24239162
72	0x3e8aafb7	0.27087185
73	0x3c3ee72d	0.011651796
74	0xbe9ba951	-0.30402616
75	0xbc80f5ed	-0.015742267
76	0xbe967f1d	-0.29393855
77	0xbe31dfe6	-0.17370567
78	0x3ccb101c	0.024787955
79	0xbe661472	-0.22468737
80	0xbe3aa5c5	-0.18227299
81	0x3e6eb82c	0.23312443
82	0x3e6aaf02	0.22918323
83	0x3e9cf69d	0.306569
84	0xbea739a2	-0.32661158
85	0x3db4d69f	0.08829998
86	0xbeb36f05	-0.3504564
87	0x3e8df545	0.27726188
88	0xbe16ebf8	-0.14738452
89	0xbe8e9ed7	-0.2785556
90	0xbdd79749	-0.10526902
91	0x3d81c9dc	0.0633733
92	0xbe879184	-0.26478207
93	0x3de81962	0.113329664
94	0x3e92f523	0.2870265
95	0xbe471836	-0.1944283
96	0x3e4af0c9	0.19818415
97	0xbddb0a5d	-0.10695336
98	0x3e55abf3	0.20866375
99	0x3dd58009	0.104248114
100	0xbe44ca46	-0.19217786
101	0x3e7bd85e	0.24594256
102	0x3d625ba7	0.055263188
103	0x3e8db93a	0.2768038
104	0x3e032f77	0.12811075
105	0xbe99fe36	-0.3007676
106	0xbe91427c	-0.28371036
107	0xbd63e61b	-0.055639368
108	0x3e728daf	0.2368686
109	0x3e171e22	0.14757589
110	0x3e604c5d	0.2190413
111	0x3db1c35c	0.0867984
112	0xbe6c0f88	-0.230528
113	0xbe40d047	-0.18829452
114	0x3e0b7976	0.13620552
115	0x3ea3c8fa	0.3198927
116	0xbea65c47	-0.32492277
117	0x3e20ee84	0.15715986
118	0xbdef42bd	-0.11682651
119	0xbcc5382f	-0.024074642
120	0xbe410a33	-0.18851547
121	0xbe7e5489	-0.24836935
122	0xbc3e748e	-0.0116244685
123	0xbea049ac	-0.31306207
124	0xbe1d9eb0	-0.15392566
125	0x3e88edb1	0.26743844
126	0xbe9f8112	-0.3115316
127	0x3dce6675	0.10078136
128	0xbeb26211	-0.34840444
129	0x3e573484	0.21016127
130	0x3e55a772	0.20864657
131	0xbe8d78fe	-0.27631372
132	0x3dcc846c	0.09986195
133	0xbe374876	-0.17898735
134	0x3e2fdb4a	0.17173496
135	0xbcd741af	-0.026276438
136	0xbdc969c8	-0.09834629
137	0xbdf2c539	-0.118540235
138	0xbded6238	-0.11590999
139	0x3ea26076	0.3171422
140	0xbe8f5946	-0.27997798
141	0x3e3299e0	0.17441511
142	0x3e754650	0.23952603
143	0x3e8eee26	0.27916068
144	0x3ea6d91a	0.3258751
145	0x3e651987	0.22373019
146	0x3e357c00	0.17723083
147	0xbe8774e9	-0.26456383
148	0x3d544010	0.051818907
149	0x3d88b184	0.066744834
150	0x3e35484d	0.17703362
151	0x3d18caa3	0.037302624
152	0x3d6d97c2	0.058006056
153	0xbe11d6ff	-0.14242171
154	0x3de66b94	0.11250988
155	0xbe9b0d9d	-0.30283824
156	0x3e766fb3	0.24066047
157	0x3d9d1988	0.07670885
158	0x3d94b2c2	0.07260658
159	0x3e8fb6f5	0.28069273
160	0x3ea0f31d	0.3143548
161	0xbea855d6	-0.32877988
162	0xbdba326e	-0.0909165
163	0x3e3bf256	0.18354163
164	0x3e9c4548	0.30521607
165	0x3cf0b889	0.029384868
166	0xbc34d92c	-0.011038106
167	0x3e948adc	0.2901219
168	0x3de00caf	0.10939919
169	0xbe73f84c	-0.23825186
170	0xbe41af45	-0.18914516
171	0xbe9a6974	-0.3015858
172	0x3e2558d7	0.16147171
173	0xbe3c98aa	-0.18417612
174	0xbd05d453	-0.03267319
175	0xbe29580c	-0.16537493
176	0xbbc48a89	-0.00599796
177	0x3ea08350	0.31350183
178	0x3ead9d40	0.33909035
179	0xbd1a5f57	-0.03768858
180	0xbe223fff	-0.15844725
181	0x3d669ac4	0.05629994
182	0xbe9c96ef	-0.30583903
183	0x3df7a312	0.1209165
184	0xbd12f2f2	-0.035876222
185	0x3ddc3f0c	0.10754213
186	0xbe8b8f90	-0.27257967
187	0xbe2a2641	-0.16616155
188	0xbe8ed304	-0.27895367
189	0xbeaaad18	-0.33335185
190	0xbd518bc8	-0.051158696
191	0x3c8d4fd8	0.017249987
192	0xbd554789	-0.052070174
193	0xbc129169	-0.008945801
194	0x3ea5f821	0.3241587
195	0x3adeb6d4	0.0016991743
196	0x3e3b5f58	0.1829809
197	0xbe68cd8e	-0.22734663
198	0x3e0e6b9a	0.13908234
199	0xbe44f825	-0.19235285
200	0x3e82c327	0.25539514
201	0x3d8b3dc6	0.06798892
202	0xbea0267b	-0.31279358
203	0xbda65974	-0.081225306
204	0x3e601c84	0.21885878
205	0xbe2d291f	-0.16910218
206	0xbe4ba022	-0.19885305
207	0xbd51ffb0	-0.051269233
208	0x3e65be67	0.22435914
209	0xbe491ad2	-0.19639137
210	0xbea623c5	-0.32449165
211	0x3d2cd26d	0.042192865
212	0x3e27ca38	0.16385734
213	0x3e62762f	0.22115396
214	0xbe7b2a93	-0.2452796
215	0xbd6d4568	-0.05792752
216	0xbe022ccb	-0.127124
217	0xbda20442	-0.07910968
218	0x3e8dc436	0.2768876
219	0x3ea4f62f	0.32219073
220	0xbe9ddd65	-0.30832973
221	0xbe8f4e5e	-0.27989477
222	0xbea7268f	-0.32646605
223	0x3dd2c94e	0.10292302
224	0x3c6dafce	0.014507247
225	0xbe501b6c	-0.2032296
226	0xbdfb36c6	-0.122663066
227	0xbd9299bf	-0.07158231
228	0x3e82ba3a	0.25532705
229	0xbe4053a9	-0.18781914
230	0xbd866c8e	-0.06563674
231	0xbdc40aeb	-0.09572395
232	0x3e9deca7	0.30844614
233	0x3e27fb83	0.16404538
234	0xbe16dfbd	-0.14733787
235	0xbe2a3125	-0.1662031
236	0x3dd9128f	0.10599243
237	0x3de9b73b	0.114119016
238	0x3eb2cb99	0.34920958
239	0xbdd61615	-0.104534306
240	0x3e772b9b	0.24137728
241	0xbe4fe8d5	-0.20303662
242	0x3e9250b3	0.28577194
243	0xbe03a26c	-0.12854928
244	0xbe981e3d	-0.2971057
245	0xbe29a317	-0.1656612
246	0x3e8b982f	0.27264544
247	0x3e7cb61a	0.24678841
248	0xbe45081a	-0.19241372
249	0x3e04fef1	0.12987877
250	0x3e3d6fbc	0.18499655
251	0xbeb3c103	-0.35108194
252	0x3e710754	0.23537952
253	0xbe0e684d	-0.13906975
254	0x3d81cdae	0.063380584
255	0x3e368770	0.17825103

layers.1.gcn_1.bias f4 [6]
0	0x3c3c832c	0.011505883
1	0x3d5b34a1	0.053516988
2	0x3cf3e66d	0.029772962
3	0xbd7796d4	-0.060446575
4	0x3d426639	0.04746077
5	0xbd60e394	-0.054904535
