cache/pretrained/pretrained_79.pt (torch_old, 740152 bytes, 4 tensors)

layers.0.gcn_0.weight f4 [2879, 64]
0	0xbbad2a83	-0.005284609
1	0xbbc3d525	-0.0059763365
2	0x3bb7facc	0.005614614
3	0xbc17ba5b	-0.009260739
4	0xbb924d64	-0.004464792
5	0x3b864cd7	0.0040985155
6	0x3c182834	0.009286929
7	0xbac766cf	-0.0015213134
8	0x3c67d335	0.014149477
9	0x3bc179bc	0.0059044044
10	0x3b3cb0a1	0.0028791802
11	0x3bb3baa3	0.0054848953
12	0x3a9a021b	0.0011749895
13	0xbbfeccb0	-0.0077758655
14	0xbc24dd8b	-0.010062586
15	0xbb894008	-0.0041885413
16	0x3bc68d37	0.0060593146
17	0x3a461652	0.00075564266
18	0xbb0c4b4a	-0.002140718
19	0x3be7a172	0.0070688063
20	0xbbe6406b	-0.007026722
21	0x3b124144	0.0022316733
22	0x3c48e055	0.012260516
23	0x3bba6856	0.0056887073
24	0x3bac451f	0.0052572633
25	0xbb19387a	-0.002337961
26	0xaf07031b	-1.2279282e-10
27	0x3b30596b	0.0026908766
28	0xbb4a2300	-0.0030843616
29	0xbc05d5b7	-0.008168629
30	0x3baff15e	0.0053693494
31	0x3bfa5746	0.0076397983
32	0x3b622b36	0.003451062
33	0xba44cfca	-0.00075077696
34	0x3915d9ca	0.0001429088
35	0x3bd706ea	0.0065621035
36	0x3c1e3e02	0.0096583385
37	0x3c7b0c6b	0.015322785
38	0xbaa7d22a	-0.0012803723
39	0xb9135d44	-0.00014053757
40	0x3ba9283d	0.0051622675
41	0xbb78b094	-0.0037947046
42	0xbbd129f4	-0.006383175
43	0xbba9d5bf	-0.005182951
44	0xbb5b1c70	-0.0033433698
45	0x3b7a3094	0.0038175927
46	0xbadf5a32	-0.001704043
47	0x3c38c132	0.01127653
48	0x3b4b4639	0.0031017198
49	0x39cb05a3	0.00038723377
50	0x3c496ced	0.012294036
51	0x3caa0d57	0.020758314
52	0xbaeb7250	-0.0017963145
53	0x3b2e80aa	0.0026626983
54	0x3b35f3fb	0.0027763832
55	0x3c06fb5b	0.008238639
56	0xbc3c421c	-0.011490371
57	0xbb70f658	-0.0036767926
58	0x38204206	3.820846e-05
59	0x3c9111b5	0.017708639
60	0x3bcbf78e	0.006224579
61	0xbc9c0837	-0.019046886
62	0x3a9152db	0.0011087315
63	0x3bc5d3ab	0.0060371957
64	0xbb009a6b	-0.001962329
65	0x3b821181	0.003969372
66	0xbbda36e3	-0.006659375
67	0x3c19c266	0.009384727
68	0x3c7f7aa0	0.015593201
69	0x3c4b2b50	0.012400463
70	0x3c0d9944	0.008642498
71	0x3ca08452	0.019594345
72	0x3bc13277	0.0058959085
73	0x3bc0aca2	0.0058799544
74	0x3c31ff23	0.010864052
75	0xbac1bfa5	-0.0014781846
76	0x3bb222bd	0.00543627
77	0xbcb82dd9	-0.0224828
78	0x3bf0e303	0.0073512807
79	0xbb8027b7	-0.0039109844
80	0x3c4a9249	0.012363979
81	0xbb02e6ec	-0.0019974066
82	0xbb4bd78c	-0.0031103818
83	0x3b394314	0.0028268741
84	0x3a2bbb6b	0.000655106
85	0xbb493802	-0.003070355
86	0x3c5fa62c	0.013650458
87	0xbaa465ad	-0.0012542509
88	0x3ca53c03	0.020170217
89	0xbb10a8a8	-0.0022073183
90	0x2dbe786a	2.1653974e-11
91	0x3b186045	0.002325074
92	0x3c874a99	0.016515063
93	0xbb868477	-0.0041051465
94	0x3bc60325	0.0060428553
95	0x3c13148a	0.008977065
96	0xbbedbcd5	-0.0072551765
97	0x3c80e2d6	0.015733164
98	0x3c039e4b	0.008033345
99	0x3c2e3f1a	0.010635162
100	0x3c7dfcf9	0.015502208
101	0x3c9d1454	0.019174732
102	0xbbaddb76	-0.005305703
103	0xbae324b4	-0.0017329664
104	0x3c5d0347	0.013489551
105	0xbc5888f9	-0.013216251
106	0xbc24f84e	-0.010068966
107	0x39c0ce08	0.000367746
108	0xbcb05045	-0.02152265
109	0xbc67098b	-0.014101396
110	0x3cbfc006	0.023406994
111	0xbb43958c	-0.0029843776
112	0x3c976600	0.018481255
113	0x3aa96648	0.0012924159
114	0x3aba3aef	0.0014208237
115	0x3c050c98	0.008120678
116	0xbc31aa38	-0.010843806
117	0x3c83823d	0.016053313
118	0x3cb5da28	0.022198752
119	0x3bd29e26	0.006427544
120	0xbbbc140a	-0.0057396935
121	0xbb55ccbe	-0.0032623257
122	0x39ec3be0	0.00045058038
123	0xbc30426d	-0.010758025
124	0x3b7ad82d	0.0038275823
125	0x3c710021	0.014709503
126	0x3a5aef04	0.0008351656
127	0xbbecb044	-0.007223161
128	0x3bd07a3d	0.006362228
129	0xba908eb8	-0.0011028862
130	0xbc63cc8d	-0.013903749
131	0xbc97724f	-0.018487124
132	0x3c0d9882	0.008642318
133	0xbbe525b8	-0.006993022
134	0x3b5f64d9	0.003408721
135	0x3c4d8c30	0.01254563
136	0xbc31ec01	-0.01085949
137	0xbb3e129f	-0.0029002798
138	0xbb193eb3	-0.002338332
139	0x3c037ddb	0.008025612
140	0xbb5871ff	-0.0033026931
141	0xbc0f7bf1	-0.008757577
142	0x3c9564bc	0.01823651
143	0x3c8a4cbe	0.016882297
144	0xba8e918c	-0.0010877117
145	0xbc158e70	-0.009128198
146	0x3c989e17	0.01863007
147	0xbc1225c9	-0.0089201415
148	0x3c7c7cf9	0.015410655
149	0xbc61df9c	-0.013786223
150	0xbb97bca0	-0.00463064
151	0xbc57986f	-0.013158902
152	0x3c8ddd2a	0.017317373
153	0xba2659db	-0.0006345787
154	0xaf1ebe76	-1.4437682e-10
155	0xbc5bec7e	-0.013423083
156	0x3caf05f9	0.021365153
157	0xbbda6934	-0.006665373
158	0xbca06b94	-0.019582547
159	0xbb8c4bff	-0.0042815204
160	0x3c883087	0.016624702
161	0x3b70bc7b	0.0036733437
162	0xbbf0cfc1	-0.007348985
163	0xbbd91f41	-0.00662604
164	0xbb8bcbb3	-0.004266226
165	0xba84f551	-0.0010143911
166	0x3c77b307	0.015118367
167	0xbb25a2c4	-0.0025274018
168	0x3b06f000	0.0020589828
169	0xbb807e57	-0.003921311
170	0x3c41e505	0.011834388
171	0xbbc4954c	-0.005999243
172	0x3c043b88	0.008070834
173	0x3ae88bcb	0.0017741857
174	0xbb423045	-0.0029630822
175	0x3c595080	0.013263822
176	0xba8facd7	-0.0010961544
177	0xbac02efe	-0.0014662442
178	0xbb000805	-0.001953603
179	0xbbf0def4	-0.007350797
180	0x3ca49972	0.0200927
181	0xbb4de441	-0.0031416568
182	0xbb483765	-0.0030550596
183	0xbc3f60fc	-0.011680838
184	0x3c09b4fb	0.0084049655
185	0x3c22d177	0.009937636
186	0xbbf71c61	-0.007541225
187	0x3b116ece	0.002219129
188	0xbc60c881	-0.013719679
189	0x3c7f7f27	0.01559428
190	0xb9fb0557	-0.0004787843
191	0xbc1ad915	-0.00945117
192	0x3d9068ad	0.07051215
193	0x3d8ecf22	0.06973101
194	0xbd151a42	-0.036401995
195	0x3d1676ab	0.036734264
196	0xbd8d390f	-0.06895649
197	0xbd17add1	-0.037031
198	0xbcb40900	-0.021976948
199	0xbd84ec2c	-0.06490359
200	0x3be56c46	0.0070014326
201	0xbcc5f7a5	-0.024165938
202	0x3cdff584	0.02733875
203	0xbd37dc1c	-0.044887647
204	0x3d91a22c	0.0711101
205	0x3d3c2651	0.04593498
206	0x3d102af1	0.035197202
207	0xbd54ae13	-0.051923823
208	0x3db75645	0.089520015
209	0x3d9caf1c	0.07650587
210	0xbd13aea7	-0.036055233
211	0xbc740956	-0.014894804
212	0x3d7277cc	0.05919628
213	0xbd2828c9	-0.04105452
214	0xbd1d72f9	-0.038439725
215	0x3d9317f4	0.07182303
216	0x3deacaf6	0.11464493
217	0xbd1c275a	-0.038123466
218	0x2d589146	1.2310436e-11
219	0x3cd433df	0.02590364
220	0xbd878e32	-0.066189185
221	0x3cfe100b	0.03101351
222	0xbb861969	-0.0040923846
223	0x3d76e3e6	0.060275935
224	0x3b18185c	0.0023207879
225	0xbd6e61f4	-0.058198884
226	0x3d820ecb	0.06350478
227	0xbd56902e	-0.052383594
228	0xbd015ed6	-0.031584583
229	0x3d4d7ae7	0.050166037
230	0xbc88b7d5	-0.01668922
231	0xbd5e9cc4	-0.054348722
232	0xbd240d41	-0.040051702
233	0x3d66516c	0.056229994
234	0x3d7b132d	0.061297584
235	0x3c98aa2b	0.01863583
236	0xbd51f5e3	-0.051259886
237	0xbcb5a6d5	-0.022174278
238	0x3d22688f	0.039650496
239	0x3d849beb	0.064750515
240	0x3da28977	0.079363756
241	0x3d780c49	0.06055859
242	0xbd912fdd	-0.07089207
243	0xbd71e833	-0.059059333
244	0x3ce12138	0.02748166
245	0xbcf04179	-0.029328095
246	0xbd1dd275	-0.038530786
247	0xbd173a40	-0.036920786
248	0x3d3c5062	0.045975097
249	0xbd4e9040	-0.050430536
250	0xbd1115db	-0.035421234
251	0xbd2f8fac	-0.042861626
252	0xbd0b02ad	-0.0339381
253	0x3d79c474	0.060978368
254	0x3d25d95f	0.040490504
255	0xbcde54a9	-0.027139978

layers.0.gcn_0.bias f4 [64]
0	0x3d73eeb6	0.059553824
1	0x3cba7900	0.022762775
2	0x3d2f13e6	0.042743586
3	0x3d7a0256	0.061037384
4	0x3d92563a	0.07145353
5	0x3d5b7e99	0.05358753
6	0x3d7226fd	0.059119213
7	0x3d2dddf9	0.042448018
8	0x3d693a3e	0.05694031
9	0x3d7c7fe5	0.061645407
10	0x3e10c5a0	0.14137888
11	0x3d5e1932	0.054223247
12	0x3dba139e	0.09085773
13	0x3d8370ed	0.06418023
14	0x3d86702f	0.06564366
15	0x3d0c9e4d	0.034330655
16	0x3d88a21f	0.06671547
17	0x3d82b161	0.063814886
18	0x3d7a6b1d	0.061137307
19	0x3d75be88	0.059996158
20	0x3d1e8ee4	0.03871049
21	0x3d8ae561	0.06782032
22	0x3d6d02b9	0.057863925
23	0x3d475d17	0.04867276
24	0x3d501a68	0.050806433
25	0x3d4c8f3b	0.049941283
26	0xbc8b1f1b	-0.016982606
27	0x3d6e3dbd	0.058164347
28	0x3d806a90	0.06270325
29	0x3d065e3a	0.032804705
30	0x3d2e3dd7	0.042539444
31	0x3d9db4e6	0.07700519
32	0x3d721ffa	0.059112526
33	0x3d62ed88	0.05540231
34	0x3d2a2791	0.04154164
35	0x3d9dce68	0.077053845
36	0x3db07b64	0.08617285
37	0x3da45ec7	0.0802589
38	0x3d8774e3	0.06614091
39	0x3d64d010	0.055862486
40	0x3da5aed4	0.080899864
41	0x3d2137e7	0.039359953
42	0x3d4ebcb9	0.05047295
43	0x3d7e6173	0.062104654
44	0x3d336601	0.04379845
45	0x3d78c19d	0.06073152
46	0x3da41e78	0.08013624
47	0x3d2ebd5f	0.042661067
48	0x3daa562a	0.08317216
49	0x3d00e527	0.031468537
50	0x3d88f115	0.06686608
51	0x3d7546d2	0.059881993
52	0x3d4370d6	0.04771503
53	0x3dd458b7	0.103684835
54	0x3d161cf3	0.036648702
55	0x3d474fff	0.048660275
56	0x3d65167e	0.055929653
57	0x3d69b09e	0.0570532
58	0x3d2ab7b8	0.041679114
59	0x3d7df5d3	0.062002014
60	0x3d5991da	0.05311761
61	0x3d8e3da6	0.06945352
62	0x3d961bb4	0.07329503
63	0x3ce1b81d	0.027553612

layers.1.gcn_1.weight f4 [64, 7]
0	0xbf10dfb2	-0.5659133
1	0x3e778288	0.24170887
2	0x3f83624e	1.0264375
3	0xbf459dd1	-0.77193934
4	0x3f8ac48a	1.0841229
5	0xbf21243c	-0.62945914
6	0xbf15ae6d	-0.5846928
7	0x3f9b2544	1.2120748
8	0xbeab7fff	-0.3349609
9	0x3f8ae49e	1.0851018
10	0xbf0de81f	-0.55432314
11	0xbf0c7a40	-0.5487404
12	0xbf00ae1f	-0.5026569
13	0xbf093d76	-0.53609407
14	0x3f475220	0.7785969
15	0x3ef1c2dd	0.4721898
16	0xbf334c11	-0.70037943
17	0xbf64ea53	-0.8942005
18	0xbf393e6e	-0.72360885
19	0x3f44ff38	0.7695193
20	0x3f3aa2f8	0.7290492
21	0x3f34d18c	0.70632243
22	0x3f67d668	0.9056153
23	0x3f38b257	0.72147125
24	0xbf54dacf	-0.83146375
25	0xbf541bbc	-0.8285482
26	0xbf4b1587	-0.79329723
27	0xbd12d5c2	-0.035848387
28	0xbefc4b3f	-0.49276158
29	0x3f653fdb	0.8955056
30	0xbf153cdd	-0.58295995
31	0x3f619f23	0.8813345
32	0x3f26eee1	0.6520825
33	0xbf41d993	-0.75722617
34	0xbf3d7e15	-0.7402051
35	0x3f467e78	0.77536726
36	0xbf51f2f5	-0.8201135
37	0xbf1c44c0	-0.61042404
38	0x3f78b3f0	0.9714956
39	0xbf3972b0	-0.72440624
40	0x3f5fe8c1	0.8746453
41	0xbf33a71a	-0.7017685
42	0xbf022746	-0.50841177
43	0xbf6493cd	-0.89288026
44	0xbf0e9bd7	-0.5570654
45	0x3f2feb3d	0.6871832
46	0xbf390ae5	-0.7228225
47	0x3f60f26c	0.87869906
48	0x3f68dc9e	0.90961635
49	0x3f6f204f	0.93408674
50	0xbf595e13	-0.8490917
51	0xbf37a189	-0.7173086
52	0x3f4afb6b	0.79289883
53	0x3f5fded3	0.8744938
54	0xbf128eda	-0.57249224
55	0xbf3a72a7	-0.72831196
56	0x3f435d1b	0.7631394
57	0xbf858e29	-1.0434009
58	0xbf2ec4c7	-0.6826901
59	0x3f17f159	0.5935264
60	0xbf535887	-0.82556957
61	0x3f37e19e	0.7182864
62	0x3f36caa1	0.7140294
63	0xbf4ff70a	-0.81236327
64	0x3f00906d	0.50220376
65	0xbf5d411f	-0.8642749
66	0xbf522380	-0.8208542
67	0x3ef17519	0.4715965
68	0x3f4539f2	0.7704154
69	0x3f5ea5de	0.86971843
70	0xbf586461	-0.84528166
71	0x3f206680	0.626564
72	0x3ec84a98	0.3911941
73	0x3f07a976	0.5299295
74	0xbe10345a	-0.1408247
75	0x3f0ec7cf	0.55773634
76	0xbf4c5be8	-0.7982774
77	0xbef590d8	-0.4796207
78	0x3f477f0a	0.7792822
79	0xbf3c09db	-0.7345254
80	0xbf4b373e	-0.7938117
81	0x3f4502eb	0.7695758
82	0x3f497934	0.78700566
83	0xbf21f400	-0.6326294
84	0xbf246216	-0.6421217
85	0x3f54c1a0	0.8310795
86	0x3f622732	0.8834106
87	0xbe244891	-0.16043307
88	0xbf5d0571	-0.8633643
89	0x3f3274c7	0.6970944
90	0xbf4a47b7	-0.7901568
91	0xbf30e48a	-0.6909872
92	0x3f683a00	0.907135
93	0x3f61b114	0.88160825
94	0xbf048b63	-0.5177519
95	0xbf6165bd	-0.88045865
96	0xbf3c1ea0	-0.7348423
97	0x3f537ceb	0.82612485
98	0xbf0aec64	-0.54266953
99	0xbf31e7f0	-0.69494534
100	0x3f4601a6	0.77346265
101	0x3f3915d3	0.72298926
102	0x3f5452e6	0.8293899
103	0xbf36d47c	-0.71417975
104	0xbf093339	-0.53593785
105	0x3f6631df	0.8991985
106	0xbf5509ae	-0.83217895
107	0xbf41fa1c	-0.7577226
108	0xbf5a1c7f	-0.8519973
109	0x3f7a7a53	0.978429
110	0xbeef0de0	-0.46690273
111	0x3f6c544d	0.9231613
112	0xbf42f3dd	-0.76153356
113	0xbf76e525	-0.96443397
114	0x3f3365b3	0.70077056
115	0x3f14c397	0.58110946
116	0xbf650c7d	-0.8947218
117	0x3f2c4b2f	0.6730222
118	0x3f202ca5	0.6256812
119	0xbf1bedfc	-0.6091001
120	0x3f7a786d	0.97840005
121	0x3f5ce73b	0.8629033
122	0xbf203853	-0.62585944
123	0xbf3f9ccb	-0.7484862
124	0xbf2fb898	-0.6864104
125	0x3f25fd30	0.6483946
126	0xbef5a0c3	-0.47974214
127	0xbf42734b	-0.75957173
128	0xbf2f8745	-0.6856578
129	0x3f26d01b	0.65161294
130	0x3f5750c1	0.84107596
131	0xbeda539d	-0.42641917
132	0x3f49a7b0	0.78771496
133	0xbeaf3348	-0.34218812
134	0x3f8b7720	1.0895729
135	0xbec766b4	-0.38945544
136	0xbee80851	-0.45318845
137	0xbf0ae538	-0.5425601
138	0x3f798d95	0.9748166
139	0xbf0edebf	-0.55808634
140	0xbec122f1	-0.3772197
141	0xbf000568	-0.5000825
142	0x3f5520cf	0.83253187
143	0xbf228b4a	-0.6349379
144	0x3f7a0b78	0.9767375
145	0xbee2c2cd	-0.44289246
146	0xbef8dbe7	-0.48605272
147	0x3f576378	0.8413615
148	0x3f3cff69	0.73827225
149	0xbf35806a	-0.7089907
150	0x3f0cd3fa	0.5501095
151	0xbf783fb3	-0.969722
152	0xbf5b5a47	-0.8568463
153	0x3ee86a94	0.45393813
154	0x3f528b38	0.8224368
155	0x3f7cd972	0.98769295
156	0xbec216fe	-0.37908167
157	0x3f5296b8	0.8226123
158	0xbf723a01	-0.94619757
159	0xbf59f22f	-0.8513517
160	0xbf302c17	-0.68817276
161	0x3f654709	0.89561516
162	0x3f6d305b	0.9265191
163	0x3f654dd3	0.89571875
164	0xbefa4eb6	-0.48888177
165	0xbf4b7b4b	-0.79485005
166	0xbf479b16	-0.7797102
167	0xbf3bcb75	-0.73357326
168	0xbf16d937	-0.58925194
169	0xbf780c07	-0.9689335
170	0x3f58d356	0.84697473
171	0xbf50818d	-0.8144768
172	0x3f737633	0.9510223
173	0x3f806806	1.0031745
174	0xbf1f8632	-0.6231414
175	0x3f40caaa	0.7530924
176	0x3f0262c9	0.50931984
177	0xbf521060	-0.82056236
178	0xbf6784fa	-0.9043728
179	0x3f3258b6	0.6966661
180	0x3f38a21e	0.7212237
181	0xbf4b95c6	-0.7952541
182	0x3099288a	1.1143737e-09
183	0x30f58741	1.7864538e-09
184	0x2ff0ea7d	4.382236e-10
185	0x2fbd19c1	3.43972e-10
186	0xb04f431f	-7.5401546e-10
187	0xb0955702	-1.0865906e-09
188	0x300faec8	5.2271476e-10
189	0xbf23aaaf	-0.6393232
190	0x3f6bb46b	0.9207217
191	0x3f6b31fd	0.9187315
192	0xbf305cce	-0.6889161
193	0xbf56f79c	-0.8397157
194	0xbf2b06c8	-0.6680722
195	0x3f61f0d3	0.88258094
196	0xbe996343	-0.29958543
197	0xbf2c6330	-0.6733885
198	0xbedc7636	-0.43058938
199	0x3f72611c	0.9467943
200	0x3f6012c3	0.8752863
201	0xbeae2a66	-0.34016722
202	0xbee67682	-0.4501229
203	0x3f58866c	0.8458011
204	0xbf3df19d	-0.741968
205	0x3f56d0b2	0.83912194
206	0xbf4cb9e8	-0.7997117
207	0xbf293fbe	-0.6611289
208	0xbf12eff7	-0.5739741
209	0x3f657b63	0.896414
210	0x3f448ee7	0.7678055
211	0x3f4149b1	0.7550307
212	0xbf1115e2	-0.56674016
213	0xbf260375	-0.64849025
214	0xbf4a2f2c	-0.7897823
215	0x3f65357a	0.89534724
216	0xbf35f0e4	-0.71070695
217	0xbf42eefd	-0.7614592
218	0xbf7bf53c	-0.9842107
219	0x3f1e0082	0.61719525
220	0x3f5639d4	0.8368199
221	0xbf8127c1	-1.0090257
222	0x3f47f0c2	0.7810174
223	0x3f217a5a	0.6307732
224	0xbef01036	-0.46887368
225	0xbf5045b6	-0.8135637
226	0xbf3b4883	-0.7315752
227	0x3f33c22d	0.70218164
228	0x3f581e5c	0.84421325
229	0xbed8e696	-0.42363423
230	0x3f4e2172	0.80519783
231	0x3f3bcd6b	0.7336032
232	0x3f61b7cf	0.88171095
233	0xbf2e6cd6	-0.6813482
234	0x3f1c28f3	0.60999984
235	0x3e920b7d	0.2852439
236	0xbf4cc7a5	-0.79992133
237	0xbf5f057e	-0.87117755
238	0x3ec596b1	0.3859153
239	0x3f5e1823	0.8675558
240	0x3f3993de	0.7249125
241	0xbf3b679a	-0.7320496
242	0xbf5ebda5	-0.87008125
243	0xbf17cdbc	-0.592983
244	0x3e3aedd7	0.18254791
245	0xbf302608	-0.6880803
246	0x3f71f94f	0.9452104
247	0xbea55af1	-0.32295945
248	0x3f6bb0a3	0.920664
249	0xbf82ecc6	-1.0228508
250	0xbf32968d	-0.6976097
251	0x3f2f18cc	0.6839721
252	0xbee88da4	-0.45420563
253	0x3f6ab8e4	0.9168837
254	0xbe4312cd	-0.1905014
255	0x3f555664	0.83334947

layers.1.gcn_1.bias f4 [7]
0	0xbe83779d	-0.25677195
1	0x3d8ffe91	0.070309766
2	0x3d8deceb	0.06929954
3	0x3d278efe	0.040907852
4	0x3f0473d9	0.5173927
5	0xbe5b687d	-0.21426578
6	0xbe664b74	-0.2248972
