cache/pretrained/pretrained_74.pt (torch_old, 950836 bytes, 4 tensors)

layers.0.gcn_0.weight f4 [3703, 64]
000000 34 8b a2 3d 3b 03 50 bd f7 3e ba bc 6e 6c 70 bc
       0.07936707 -0.05078433 -0.022735102 -0.014674289
000010 04 76 98 bc 7f 38 a0 3c 03 a7 db bc a7 5b 05 3d
       -0.018610962 0.01955819 -0.026813036 0.03255811
000020 f2 4f 3a bc 42 5f 1c bb a2 ad 24 3d 64 33 a8 3c
       -0.0113715995 -0.002386049 0.04020465 0.020532317
000030 61 9f 3a bd 15 7c 60 bc 82 40 40 3c 56 c6 7a 3d
       -0.04556215 -0.013701458 0.01173413 0.061224304
000040 60 db 46 bc 77 7f 80 3d 04 4d 9e 3c 5e 81 a2 3c
       -0.012137264 0.06274312 0.019323833 0.019837078
000050 48 72 80 3d e6 20 91 3c 60 23 56 bd 1d 7e d7 bb
       0.062717974 0.017715883 -0.05227983 -0.006576313
000060 75 d7 81 3d 45 a4 c9 3c 97 89 86 bc 2b 2f bd 3c
       0.06339923 0.024614463 -0.01642303 0.02309378
000070 d0 a4 79 3c f4 08 fe ba 44 e2 3a 3c 20 19 d3 3c
       0.015237048 -0.001938133 0.011406485 0.025768816
000080 8c f7 07 bd 90 91 c5 3b dd fc 98 bc 24 16 95 bc
       -0.033195063 0.0060293153 -0.018675262 -0.018199034
000090 29 2e fd bb 65 cf b6 3c 8f 42 4c 3d f0 c2 12 b8
       -0.00772645 0.02231569 0.049868163 -3.4990662e-05
0000a0 84 91 2a bb c8 d0 32 bd d7 0d a6 3c da 8d 86 3d
       -0.0026026675 -0.04365614 0.020270271 0.06570025
0000b0 22 fc 1d bc f3 a2 16 3d ee bb e8 3c c7 31 f0 3c
       -0.009642633 0.036776494 0.028409924 0.02932061
0000c0 8f c8 52 3d b4 58 33 3c b5 4a bb 3c 76 4f 25 3c
       0.0514608 0.010946441 0.022862772 0.010089746
0000d0 ba e2 34 3d cc cb 11 3d e6 7d 34 bb 2a ed 7a bc
       0.044161536 0.035594746 -0.0027540862 -0.015315333
0000e0 5b 0f b3 bc 7b 1c 9f bd 96 f6 8e 3b 25 c5 bc 3d
       -0.021857908 -0.07769104 0.0043628914 0.0921729
0000f0 bb e4 06 3d c6 40 6e bc 52 50 15 3d 8d ba 3c bd
       0.032932978 -0.01454181 0.036453553 -0.046076346
000100 61 48 a3 3c c1 16 dd 3c 63 06 53 bd a2 24 77 3b
       0.019931974 0.026988389 -0.051519763 0.0037711044
000110 82 42 96 3d 76 db cc bc 03 ab cb 3c 71 36 09 3d
       0.07336904 -0.02500699 0.024861818 0.033499185
000120 b5 56 3c bd 9f 34 cb 3c 02 65 c0 3b 40 37 85 3d
       -0.045981128 0.024805365 0.005871416 0.06504679
000130 71 81 9a 3d 95 ec 26 3b f1 b3 35 3d 42 9b 56 3d
       0.0754422 0.0025470604 0.04436106 0.05239416
000140 77 e5 1b 3d 89 67 19 bc 14 d7 2a bd 2b 26 8b bc
       0.03806063 -0.009363064 -0.04170902 -0.016985973
000150 29 f6 ba bc d7 87 ca 3c 08 fd 53 bd c1 ca 23 bd
       -0.022822456 0.024722977 -0.05175498 -0.039988283
000160 a3 30 bb bc 16 48 27 3d 50 80 f3 3b 6f c5 4d 3d
       -0.02285034 0.04084023 0.0074310675 0.050237115
000170 f4 ff 60 3c 0e 03 28 bc 1e 90 d4 3c 88 d2 2e 3d
       0.013732899 -0.010254635 0.025947627 0.042681247
000180 a9 67 12 3d bb 28 34 3d be 58 ad 3d 95 cd 07 3a
       0.03574339 0.043984156 0.08464192 0.00051804754
000190 eb 21 59 bc 61 13 36 bd d8 57 c8 3c 15 61 a0 bd
       -0.013252716 -0.044452075 0.02445595 -0.07831017
0001a0 70 61 63 3d 92 b5 82 bd 55 ee ef 3c d3 97 84 3d
       0.055512846 -0.06382288 0.02928845 0.06474271
0001b0 01 fb 70 3d f3 7a 54 3d 2d 3c 05 3d ea eb 84 3d
       0.058833126 0.051875066 0.03252809 0.064903095
0001c0 ea 41 a8 bd 0e c6 42 3d f2 aa 95 3d ee 7a 8d bc
       -0.08215697 0.04755216 0.07307996 -0.017270532
0001d0 30 aa 64 bd ba c2 40 3d 07 a3 b4 3d 77 63 40 3b
       -0.055826366 0.047060706 0.088201575 0.002935616
0001e0 e4 d5 63 3d b1 2b 83 bc 36 65 8b 3d bc b2 27 3d
       0.055623904 -0.016012045 0.06806414 0.04094194
0001f0 8b fa fb 3c 52 4d a8 bc 4d 76 53 3d f1 70 de bc
       0.030759117 -0.020544682 0.051626492 -0.027153464
000200 49 e5 d3 3c d3 d7 cc bc bf 07 ae bd 2f fe 85 bb
       0.025866168 -0.025005257 -0.08497571 -0.004089139
000210 f0 06 0a bd ac 57 a5 bc 7d 92 b8 3c 10 2e 44 3d
       -0.033698022 -0.020183407 0.022530789 0.04789549
000220 83 17 d4 bc 24 8b 95 3c 71 13 94 3d 04 c2 f6 3c
       -0.025890118 0.018254824 0.07230271 0.03012181
000230 1a ff db bc e4 1d 82 bc bc 8d 20 3d 95 ba 28 3d
       -0.02685504 -0.015883394 0.03919767 0.041193563
000240 01 65 f7 bc b3 7f 00 bc 46 f7 a2 bc d9 7e 96 3b
       -0.03019953 -0.007842946 -0.0198933 0.004592758
000250 18 a8 ac bc e8 a5 cd bc 9f 96 96 3b 4f a9 12 bd
       -0.021076247 -0.025103524 0.004595592 -0.035805997
000260 5c 1e 91 bc 36 a6 9e 3d ee 55 1f 3d eb 5f 9d 3c
       -0.017714672 0.07746546 0.03890031 0.019210776
000270 01 02 06 bd 72 2b 81 bd ea 0a 94 3c 3e cd 3e 3d
       -0.032716755 -0.06307115 0.01807161 0.046582453
000280 de 71 89 bc 81 b0 a3 bc 19 45 ca bc de 59 14 bd
       -0.016777929 -0.019981625 -0.024691151 -0.036218517
000290 16 a1 56 bc c6 74 fe 3c de 8f 73 3d b0 26 ba bc
       -0.013099929 0.031061541 0.059463374 -0.022723526
0002a0 00 57 d1 bc 7b bf c5 bc 5a fa f5 3c 9a 4a 7d 3d
       -0.02555418 -0.024139157 0.030026603 0.061838724
0002b0 86 cf 5a 3d e9 7c 2e 3d d1 6d 2f 3c ab 91 54 3b
       0.053420566 0.042599592 0.010707335 0.0032435458
0002c0 76 74 69 bc c3 d6 1f bc ff 18 91 3c bc 8e 06 3c
       -0.014248958 -0.009755793 0.017712114 0.008212741
0002d0 28 62 9a 3c 54 da 9c 3c 59 fd 48 3d 04 16 58 3c
       0.018845633 0.019147076 0.049069736 0.013188843
0002e0 2d 5d 55 3c 52 bb 2b bd 45 75 b4 bc 15 ae a4 3d
       0.013022703 -0.04192669 -0.022028575 0.08041016
0002f0 0c 53 9c 3d 03 16 2f bd 56 01 a5 3c 7e df 16 bd
       0.076330274 -0.0427456 0.020142239 -0.036834233
000300 10 e1 f4 39 9a 64 48 3d ff e6 d7 3c 43 af b9 3b
       0.0004670699 0.048924066 0.026355265 0.005666645
000310 6d cf fc 3c c9 ad 3d bc 37 4a 2a 3c e6 4b 80 3c
       0.030860627 -0.011577078 0.010393671 0.015661191
000320 27 41 d8 3a 0b ae fe 3c de f2 08 bb da 37 c9 3b
       0.0016498909 0.03108885 -0.0020896713 0.006140691
000330 43 42 78 3c 22 5c 33 3d bd 10 2b 3c 92 02 8d 3d
       0.015152517 0.043789037 0.010441002 0.06885256
000340 d7 67 4f 3d 70 62 b2 bd 04 ea 80 bc 12 26 6e 3d
       0.05063614 -0.08710182 -0.015736587 0.058141775
000350 04 46 94 bd 99 ab a8 3b ae ad b4 3c 7d 05 58 3d
       -0.07239917 0.005147409 0.022055473 0.05273961
000360 29 c0 aa 3c 00 17 8a bd 97 92 f5 3b 55 21 c9 bc
       0.020843582 -0.06742668 0.0074942815 -0.024552027
000370 5d 0b f9 3c 00 40 16 3c 7e 06 85 3c c6 72 24 3d
       0.030400926 0.009170532 0.016238447 0.04014852
000380 f9 f7 19 bb bc 88 f1 bc eb 30 dc bc d8 ec 92 3c
       -0.002349375 -0.029484145 -0.026878795 0.017935202
000390 b3 7a 83 bc ff a0 9e 3a 10 4a 10 bc 88 47 9a 3c
       -0.016049718 0.0012102424 -0.00880672 0.018832937
0003a0 1c b7 8d bc 69 e3 0e 3d 63 f7 70 bc 1f ee cb bc
       -0.017299227 0.034884844 -0.014707419 -0.024893818
0003b0 c1 7f e4 bc c8 4e 90 3c a8 3c e2 3c 2d ca 8e bc
       -0.027892949 0.01761569 0.027616814 -0.01743039
0003c0 fe 23 2e bc 69 af 4d 3d 22 0c 12 3c 68 d9 8f 3c
       -0.010628698 0.050216112 0.0089140255 0.017559722
0003d0 7c 9c 11 bd ad 52 6b bc 99 a3 dc 3c 2c c4 45 bc
       -0.035549626 -0.014362973 0.026933478 -0.012070697
0003e0 2c e9 d0 bc 8b 71 af 3c 80 86 c7 3c f3 2d 3e bd
       -0.02550181 0.021416446 0.024356127 -0.04643054
0003f0 56 52 1d bc f5 ad 90 bc 8a 87 6e 3c 4d 0b 6e 3c
       -0.00960215 -0.017661074 0.014558682 0.0145290615

layers.0.gcn_0.bias f4 [64]
000000 3f 19 bf 3c 5c 32 ca 3c 1a 86 54 3d 4b 6f 91 3c
       0.023327468 0.024682216 0.0518857 0.017753264
000010 d9 be b7 3c b0 ab 6d 3d 04 1d 97 3b 70 9c 39 3d
       0.02242987 0.058025062 0.004611613 0.045315206
000020 db a5 3f 3d 2c 66 50 3d cd 97 57 3b 20 c9 d2 3b
       0.04678903 0.05087869 0.0032896877 0.0064326674
000030 67 a8 a4 3c e0 c1 68 3c de d5 da 3c 02 bd 66 3d
       0.020099832 0.01420638 0.026713308 0.056332596
000040 75 0b eb 3c a8 5a 51 3d dc 0b 59 3d 39 1b c6 3c
       0.028691987 0.051111847 0.052989826 0.024182903
000050 68 89 51 3d a0 ef 46 3d 26 51 d3 3c 87 b3 87 3c
       0.05115643 0.048568368 0.02579553 0.016565097
000060 b2 10 9f 3c f1 9c 5f 3d cf a0 56 3d 9a 9a f3 3c
       0.01941714 0.05459303 0.052399453 0.029736806
000070 40 0a 75 3c 8f 46 c3 3c 14 8a 60 3d 5e 0a b9 3c
       0.014956057 0.023837356 0.05481918 0.022587951
000080 9e a9 39 3d aa 7f ac 3c e3 a0 a7 3c 4d 37 e1 3b
       0.045327775 0.021056969 0.020462459 0.0068730474
000090 39 34 ba bc 5a 2c 55 3d 9c af a4 3c 57 ed 5a 3d
       -0.02272998 0.05204425 0.020103268 0.053449
0000a0 2a 21 5c 3d 89 62 33 3d 7a ea 4b 3d 4c 32 4e 3d
       0.053742565 0.043795142 0.04978416 0.050340936
0000b0 eb f0 49 3d de a8 b6 3c cb 9b 62 3d ba 69 26 3c
       0.049302023 0.022297319 0.055324357 0.010157043
0000c0 f6 75 54 3d 57 d1 4a 3d 9e 48 c3 3c 58 2f f2 3c
       0.05187031 0.04951605 0.023838338 0.02956359
0000d0 d2 34 d9 3c 02 b2 49 3d 98 57 d2 3c d7 24 2d bc
       0.026514445 0.049242027 0.025676534 -0.010567865
0000e0 93 1a 88 3c 21 1c 18 3d 1e 76 ba 3c 44 65 a2 3c
       0.016614234 0.0371362 0.0227614 0.019823678
0000f0 dd 09 5f 3d f9 27 48 3d f4 cd 48 3d f2 78 df 3c
       0.054452766 0.048866246 0.049024537 0.02727935

layers.1.gcn_1.weight f4 [64, 6]
000000 06 90 57 3e 80 98 30 3e 27 81 88 3e 49 30 9d be
       0.21051034 0.17245674 0.26661035 -0.307009
000010 eb 21 88 be 00 97 aa bc bc 25 88 bd 7e b9 c6 bd
       -0.26588377 -0.020823956 -0.06647822 -0.097033486
000020 af 59 10 3e 72 40 09 3e af 03 4f 3e a6 a4 07 3e
       0.14096712 0.1340349 0.20216249 0.13246402
000030 f2 ed 51 be 6e 7b 4c 3e 21 82 4f be a0 2a a2 3e
       -0.20500925 0.1996896 -0.20264484 0.31673145
000040 00 af 77 3e 50 7e 5e be 0a 11 b8 bd 10 c2 42 be
       0.24187851 -0.21727872 -0.08987625 -0.19019341
000050 d5 1e 01 3e 38 09 67 3e e5 6e a4 bd 40 c2 33 bc
       0.12609418 0.2256211 -0.08028964 -0.010971606
000060 48 8d 7d be b4 14 f2 3d 42 cb 9f be 2e 17 76 3d
       -0.24760926 0.11820355 -0.3120976 0.0600807
000070 08 7c df 3d 3b 07 e0 3d 1e e1 36 bd f8 33 bc 3d
       0.10912329 0.10938879 -0.044648282 0.091896
000080 39 f5 36 be bd 77 0d be 87 00 1d 3e 58 10 90 bd
       -0.17866983 -0.13815208 0.15332232 -0.07034367
000090 8c 02 18 be 64 53 ba bd 62 f5 40 3e 6d 68 e1 3d
       -0.14844722 -0.09097937 0.18843606 0.11006246
0000a0 16 80 1d bd cf 21 a2 3e a6 ff 92 3d 93 c3 13 3e
       -0.03845223 0.3166642 0.07177667 0.14430074
0000b0 ce 33 3d 3e 06 a6 31 be c2 b7 43 3e c0 94 a6 3e
       0.18476793 -0.17348489 0.19113067 0.32535362
0000c0 14 53 7c be a6 d8 a7 3e 76 89 9b 3e 79 d2 09 3d
       -0.24641067 0.32782477 0.30378312 0.033647988
0000d0 89 d3 84 bd 1e 3c 14 be 83 8c 8b 3e ff 7b 7f be
       -0.0648566 -0.14476058 0.2725564 -0.24949645
0000e0 58 9a 55 3e 7f 19 7f 3e 83 22 67 3e 53 4d 93 bd
       0.20859659 0.2491207 0.22571759 -0.07192483
0000f0 29 72 06 3e 54 9d 76 bd 68 9a 4c be 40 b8 4c be
       0.13129486 -0.060208634 -0.19980776 -0.19992161
000100 e2 1a 2f 3e 02 6f f7 bd 98 93 52 bd 0d 48 bb bd
       0.17100099 -0.1208172 -0.051410288 -0.09144602
000110 3a 84 2a be fd 14 96 be ab d1 3b 3e 58 2b f8 3d
       -0.16652003 -0.29312888 0.183417 0.12117642
000120 64 0e 8d be ad d7 9d bd 09 9a 91 3d a1 8a 10 be
       -0.27550042 -0.077071525 0.07109458 -0.14115383
000130 b4 78 8b 3e 15 2b 85 3e 64 e4 4d 3c 24 3c 0b be
       0.27240527 0.2600943 0.01256666 -0.1359716
000140 96 89 20 be 74 a7 a1 3e e3 23 0c 3e 8c db 99 be
       -0.15677485 0.3157307 0.13685565 -0.30050313
000150 ed 71 04 be 1d 46 1b be 3a 98 1c be 8f 93 1d be
       -0.12934084 -0.15163465 -0.15292445 -0.1538832
000160 13 13 88 be e7 9b 8c 3e 2f c9 20 3e e0 00 7f 3e
       -0.26577052 0.27462694 0.15701745 0.24902678
000170 af 5c 5b be 9f 4f f4 3d 32 e0 54 be 6b 06 b0 3e
       -0.21422075 0.11929249 -0.20788649 0.34379897
000180 4f ec 60 be b1 f9 29 be 7c 24 69 be 13 a3 8d 3e
       -0.21965145 -0.16599156 -0.22767824 0.27663478
000190 3d f3 ed bc b7 e4 5e 3d 68 e2 16 3e 87 47 82 3e
       -0.02904665 0.05441734 0.14734805 0.25445196
0001a0 11 2c 79 3e b0 da 2e be 7c f3 41 be b6 47 2f be
       0.24333216 -0.1707561 -0.18940538 -0.171172
0001b0 b8 ee d2 3c 5b ed 13 be d2 fd a1 bc d7 53 e4 bd
       0.025748596 -0.14446013 -0.019774351 -0.11148804
0001c0 39 6c 48 3c b5 d3 95 be 52 ce cc 3d b9 fd 79 3e
       0.012232834 -0.29263082 0.1000029 0.24413194
0001d0 4c 3e a6 be da d7 96 3e 92 83 d3 bc e6 74 a9 bd
       -0.32469404 0.29461557 -0.025819574 -0.0827425
0001e0 37 ca 02 3e a2 db 8e 3e 11 4d 6c 3e ae a4 48 be
       0.12772451 0.27901942 0.23076274 -0.1959407
0001f0 f2 60 29 bc 78 b6 7f be ab d4 c8 bc 45 3a 90 be
       -0.010338055 -0.2497195 -0.02451547 -0.28169456
000200 f9 18 ae 3e ba b5 a7 be 21 ff 33 3e 77 31 94 bd
       0.34003428 -0.32755834 0.17577793 -0.07235997
000210 cf da 9f 3d a1 bd 90 be 35 cf 8d be 1c a3 0b 3e
       0.07805406 -0.28269675 -0.2769715 0.1363644
000220 78 ab cb 3d a8 ea 64 be 75 5f 03 3e 1f be 5a 3b
       0.099448144 -0.2235514 0.12829383 0.003337748
000230 d2 f7 75 be 2e c4 2b 3e 48 41 11 3e f4 0b 94 be
       -0.24020317 0.16774055 0.14185059 -0.2891537
000240 d0 fc dc 3d 8e cd fa bd 9e 5a 6f 3e 60 4a 61 3e
       0.10790408 -0.12246238 0.23374411 0.22001028
000250 63 27 3c be b2 72 aa be 6c 5a 7d 3e d2 49 97 bd
       -0.183744 -0.3329063 0.24741524 -0.07387127
000260 44 ae 97 be c6 3c ec bd b6 07 83 be e8 f5 85 3d
       -0.29625142 -0.11535029 -0.2559182 0.065410435
000270 87 ff f0 3d 87 07 db bd bc 3c 70 bd c4 cf 88 3e
       0.11767488 -0.10694795 -0.05865167 0.26721013
000280 eb 08 cf bd 7d 7a b5 3d 32 37 03 3e 78 f9 c3 bd
       -0.10109123 0.088612534 0.12814024 -0.09569067
000290 61 b6 81 be 45 7f 6b bd 12 b0 2b bd 0a 6b 32 3e
       -0.25334457 -0.05749442 -0.04191596 0.17423645
0002a0 04 2b 83 be 59 be 8c 3e 1f 2d 7c bd 58 8c 72 bd
       -0.25618756 0.27488974 -0.06156647 -0.059215873
0002b0 2e 07 76 bc e9 5f 04 3e fa 5b 0a be c7 83 ad be
       -0.01501636 0.12927212 -0.13511649 -0.338896
0002c0 c8 6a 47 3d d5 97 a1 bd 06 34 ab 3e 79 5e 7c be
       0.04868582 -0.07890288 0.33438128 -0.24645413
0002d0 2d a8 0d be a3 5a 09 be 39 3a 3f 3e 8d 91 3a be
       -0.13833685 -0.13413481 0.18674554 -0.18219586
0002e0 88 99 55 bd aa df c7 3d 4d 99 29 be 80 36 eb 3d
       -0.052148372 0.097594574 -0.16562386 0.114850044
0002f0 63 6d 9f 3d ed f9 8d be 49 57 86 be 69 61 d9 3d
       0.07784536 -0.2772974 -0.26238468 0.10614283
000300 60 01 a1 be 69 d6 36 bd 8a 81 3b 3e 7c e9 0e be
       -0.31446362 -0.04463807 0.18311134 -0.13956255
000310 90 98 1e 3e 22 3b 7b 3e f8 18 87 be 42 4a bc bd
       0.15487885 0.24534276 -0.26386237 -0.09193851
000320 63 17 9c 3e 9d 34 2b be 74 58 54 be 51 88 0b 3d
       0.30486593 -0.16719289 -0.20736867 0.03406555
000330 71 98 d3 bd 30 e2 f9 bd bf 5b 0c 3e ef 12 0e bd
       -0.1033181 -0.12201345 0.13706873 -0.034686025
000340 c5 80 94 3e 07 e1 1b 3e d1 5c 95 3c 59 83 86 be
       0.29004493 0.1522256 0.018232735 -0.26272085
000350 8b ac a9 3d a1 fe 92 3e 95 e9 69 3e af 9e 42 be
       0.08284863 0.2870989 0.2284301 -0.19005845
000360 52 3d 84 be eb 63 46 be 82 a9 76 bd 5c 20 68 be
       -0.25828034 -0.19374053 -0.06022025 -0.22668594
000370 dc 1c a3 be 1f ee f0 bd d6 5c 75 3e 1c 5b b2 3d
       -0.31857955 -0.11764168 0.23961195 0.08708784
000380 cd 1d 59 3d bc 36 ad be ce 4e 1f 3d d6 65 32 be
       0.053006936 -0.33830822 0.038893513 -0.1742166
000390 85 43 86 3e c3 8c 4c bd 30 12 05 be 36 0d 3f 3d
       0.26223388 -0.04993893 -0.12995219 0.04664346
0003a0 e2 e9 f0 bb 28 76 ab bd eb 18 80 3e d7 00 ea bd
       -0.0073520998 -0.08372146 0.2501901 -0.114259414
0003b0 df 65 91 bc f1 00 7b 3e dd 08 a4 3e 1e 3a 0e be
       -0.017748771 0.24512078 0.32038012 -0.13889357
0003c0 78 76 fa bd cb 4a 99 be bf 82 b9 3d e1 2b 8c be
       -0.12229627 -0.29939875 0.09058141 -0.27377227
0003d0 20 99 4a 3e c0 cf 69 bd bb e6 75 be 82 14 8e be
       0.19784975 -0.05708289 -0.24013798 -0.2775002
0003e0 01 2d 59 3e 77 58 ff 3d 29 5b 40 3d 45 b1 92 be
       0.21208574 0.12468045 0.046961937 -0.2865087
0003f0 45 64 80 3e 96 55 69 3e 4c 2d 02 bc 92 c2 e8 3d
       0.250765 0.22786555 -0.00794537 0.11365236

layers.1.gcn_1.bias f4 [6]
000000 6e 7d 5c 3d a3 09 f9 bc c1 6b e5 bc 62 3f 37 bb
       0.053830557 -0.030400103 -0.028005483 -0.0027961363
000010 64 a3 e4 3c 6e 8e cb 3c
       0.027909942 0.02484819
