cache/pretrained/pretrained_56.pt (torch_old, 950836 bytes, 4 tensors)

layers.0.gcn_0.weight f4 [3703, 64]
0	0x3c80f95e	0.015743908
1	0x3ced10c0	0.028938651
2	0xbc8118a9	-0.01575883
3	0x3c99cc80	0.018774271
4	0xbbd90543	-0.0066229417
5	0x3c927549	0.017878192
6	0xbc74347d	-0.014905092
7	0x3d099ea1	0.033598546
8	0xbcfff03b	-0.03124248
9	0x3d17622e	0.036958866
10	0xbd3c7607	-0.046010997
11	0xbd348b7f	-0.044078346
12	0x3d25a5e9	0.040441427
13	0x3d14a3fa	0.036289193
14	0x3d269a1b	0.04067431
15	0x3d3872dd	0.045031417
16	0x3d68ad4d	0.056805898
17	0xbb4662ad	-0.0030271218
18	0x3d8f0d96	0.06985013
19	0x3aa19ff2	0.0012330993
20	0xbd41aba2	-0.047282822
21	0x3ca7f2d1	0.020501526
22	0x3ca851ba	0.020546783
23	0x3d05cc1c	0.032665357
24	0x3d2530e1	0.040329818
25	0x3ccf6966	0.025318813
26	0xbc325cd0	-0.010886386
27	0x39943a0b	0.00028272005
28	0xbc821317	-0.015878243
29	0xbcabc65f	-0.020968614
30	0x3c157527	0.00912217
31	0x3b151818	0.0022749957
32	0x3ca5d04f	0.02024093
33	0x3c9189a2	0.017765824
34	0xbc730e4d	-0.014834953
35	0xbaee1a8a	-0.0018165868
36	0x3dab3fde	0.08361791
37	0xbc22a8d6	-0.009927949
38	0x3d55e942	0.052224405
39	0x3d016a47	0.031595495
40	0xbc1f0f2c	-0.009708207
41	0x3bfd4fc8	0.007730458
42	0x3c716f59	0.01473602
43	0x3d3586e7	0.044318106
44	0x3cd358c4	0.025799163
45	0x3c852892	0.016254697
46	0xbcaa90c7	-0.020820988
47	0x3ce008b3	0.027347898
48	0x3d00241c	0.031284437
49	0xbbc3ce44	-0.0059755165
50	0x3c9d8820	0.019229949
51	0xbd047db3	-0.03234644
52	0xbb618462	-0.0034411182
53	0x3cfb49f9	0.030674921
54	0x3d543c41	0.051815275
55	0x3d652a94	0.05594881
56	0x3d2eed9c	0.04270707
57	0x3caff60a	0.021479625
58	0xba5ac750	-0.000834574
59	0x3d8a52d3	0.06754079
60	0xbd6af210	-0.057359755
61	0xbcb02a00	-0.021504402
62	0xbcc2f382	-0.023797754
63	0xbc88dfe9	-0.016708331
64	0x3c860b03	0.016362673
65	0xbd14f88b	-0.03636984
66	0x3d524e49	0.05134419
67	0x3b8d224d	0.0043070675
68	0xbcc9f115	-0.02465109
69	0xbd7096fa	-0.058737732
70	0x3d9149f9	0.07094187
71	0x3d2188c2	0.039437063
72	0x3d93bc88	0.07213694
73	0x3d7285b5	0.059209544
74	0x3d548d95	0.051892836
75	0xbca6b84d	-0.020351553
76	0x3d70587b	0.05867813
77	0x3d12327c	0.035692677
78	0xbc3061a9	-0.0107654715
79	0x3d384c1a	0.04499445
80	0xbc69fa27	-0.014280832
81	0xbc8b5d73	-0.017012333
82	0x3a9d4cb0	0.0012001004
83	0xbd1c2114	-0.038117483
84	0x3c93a11a	0.018021155
85	0x3bc96218	0.006145727
86	0xbd412d10	-0.047162116
87	0x3cb49b04	0.022046573
88	0xbd13c2af	-0.036074337
89	0x3ca97125	0.020683834
90	0x3d81b4ae	0.0633329
91	0xbd8fcaf1	-0.0702113
92	0x3d4202c2	0.04736591
93	0xba4a746a	-0.00077230355
94	0xbd0b1e26	-0.0339643
95	0x3d1d13f3	0.038349103
96	0x3d702a83	0.058634292
97	0xbc68987a	-0.0141965095
98	0xbc5cca5f	-0.013475983
99	0xbd2e7c81	-0.042599205
100	0xbc64b66c	-0.013959508
101	0xbcc48e8b	-0.023993751
102	0x3c83bb23	0.016080445
103	0xbd1bcde5	-0.038038153
104	0xbd9d9cda	-0.07695933
105	0x3c93381c	0.017971091
106	0x3dbbe3f7	0.0917434
107	0x3ca184cf	0.019716648
108	0x3d81b432	0.06333198
109	0x3d7f8329	0.062380943
110	0x3d288d96	0.041150652
111	0x3d30437f	0.04303312
112	0x3d8e6937	0.06953662
113	0xbc972568	-0.018450454
114	0xbd51820c	-0.051149413
115	0xbbe4d7f4	-0.0069837514
116	0x3d84991a	0.06474514
117	0x3d89bd76	0.0672559
118	0x3c0da022	0.008644136
119	0xbca464b9	-0.02006756
120	0x3cb5d8a5	0.02219803
121	0x3d588445	0.052860517
122	0x3dc74c36	0.09731333
123	0x3bb0ec96	0.005399297
124	0x3b7fef74	0.0039052637
125	0x3d068a36	0.032846652
126	0x3c924d81	0.017859222
127	0x3d198a54	0.037485436
128	0x3d97ef5e	0.074187025
129	0xbca81598	-0.02051811
130	0xbd885836	-0.0665745
131	0x3d79f37e	0.061023228
132	0x3daba253	0.0838057
133	0xbc910d95	-0.017706672
134	0x3d893747	0.066999964
135	0x3d958300	0.07300377
136	0x3d9865d4	0.07441297
137	0x3c6ed585	0.014577274
138	0x3cca0b95	0.024663726
139	0xbd8c1b44	-0.06841138
140	0xbd3f6f93	-0.046737265
141	0xbd7cfbb2	-0.061763473
142	0x3bb44e02	0.0055024633
143	0xbc9515bc	-0.01819884
144	0xbd06cf88	-0.03291276
145	0xbd4920b3	-0.04910345
146	0xbb523550	-0.0032075234
147	0xba68b88d	-0.0008877598
148	0x3d94b119	0.07260341
149	0xbcd2b2f2	-0.025720093
150	0xbc643026	-0.013927495
151	0xbc1326f6	-0.008981457
152	0xbd20a64f	-0.039221104
153	0xbc8ea6cc	-0.01741352
154	0x3c6d47ba	0.014482433
155	0xbd81993c	-0.06328055
156	0x3cc4df37	0.024032218
157	0xbd0ccd1c	-0.034375295
158	0x3d902296	0.07037847
159	0x3cc37383	0.023858791
160	0x3c95738a	0.01824357
161	0xbb3cd56c	-0.0028813733
162	0xbcc16359	-0.023606943
163	0xbc03f880	-0.0080548525
164	0xbd476da1	-0.048688535
165	0xbd223a4b	-0.039606374
166	0xbd69c0c6	-0.05706861
167	0x3c3e5379	0.011616581
168	0x3c3f6203	0.011681083
169	0x3d12d158	0.035844177
170	0x3d16c0eb	0.036805075
171	0x3d893c1d	0.06700919
172	0x3c4af0f3	0.012386548
173	0x3d6f3aa1	0.058405522
174	0xbc019959	-0.007910096
175	0x3bb6da87	0.0055802497
176	0x3d99aebe	0.075040326
177	0x3d478677	0.04871222
178	0xbbca732e	-0.0061782813
179	0x3bd1d006	0.006402972
180	0x3d31e415	0.043430407
181	0x3d502680	0.050817966
182	0xbb6a6b9b	-0.0035769704
183	0xbd595d76	-0.053067647
184	0x3cf9663b	0.030444255
185	0x3bbd5bab	0.00577875
186	0x3cc079a8	0.02349551
187	0x3cc00584	0.02344013
188	0xbd418903	-0.047249805
189	0xbd5e3b95	-0.05425604
190	0xbd19c71e	-0.03754341
191	0xbc853bb9	-0.01626383
192	0x3d02a05b	0.03189121
193	0x3d5683d5	0.05237182
194	0x3d40260d	0.046911288
195	0xbcbef82b	-0.023311695
196	0xbcf34bff	-0.029699324
197	0xbcadabc3	-0.021200066
198	0xbc20adad	-0.0098070325
199	0x3c39912b	0.011326115
200	0x3cc229f6	0.02370165
201	0x3cb277f3	0.021785712
202	0xbca37a89	-0.01995589
203	0x3c80772e	0.01568183
204	0x3c1046d8	0.008805953
205	0x3d401c55	0.04690202
206	0x3d09de6f	0.033659395
207	0x3d0521df	0.032503005
208	0x3d496cc2	0.049175985
209	0x3c06ecb1	0.008235143
210	0x3d3fcc0f	0.046825465
211	0x3d087c48	0.03332165
212	0xbd32a345	-0.043612737
213	0x3d176810	0.036964476
214	0x3ce5a703	0.028033739
215	0x3b97468c	0.004616564
216	0x3d78a1cf	0.060701188
217	0xba5aefb4	-0.00083517586
218	0xbd2bf583	-0.041982185
219	0xbcaa6cc6	-0.02080382
220	0xbcef7356	-0.029229801
221	0xbc8ce778	-0.017200217
222	0x3c39da76	0.011343589
223	0x3967d15b	0.00022107868
224	0xbce37f8e	-0.027770784
225	0x3cee48df	0.029087482
226	0xbb2eade5	-0.0026653942
227	0xbc9640b0	-0.018341392
228	0x3d67a1fd	0.05655097
229	0xbc85cd46	-0.016333234
230	0x3d37887e	0.044807903
231	0x3cd4053b	0.0258814
232	0xbc595e21	-0.013267071
233	0xbd31fd0d	-0.04345422
234	0x3c9fad97	0.019491954
235	0x3d491611	0.04909331
236	0x3cd7ee18	0.02635865
237	0x3c4cde99	0.012504243
238	0xbc74888e	-0.014925135
239	0x3cd2a702	0.025714401
240	0x3a241ce3	0.0006260408
241	0xbcac0e51	-0.02100292
242	0x3cf21990	0.029553205
243	0xbcd6badd	-0.02621215
244	0x3d074f1b	0.033034425
245	0x3d483477	0.04887816
246	0xbc69760a	-0.014249334
247	0x3ce8bccf	0.028410343
248	0xbc96412e	-0.018341627
249	0x3c9d94fd	0.019236082
250	0x3cd103ee	0.02551457
251	0x3d1fc87e	0.039009564
252	0xbd2c5897	-0.042076673
253	0x3d1cae49	0.03825215
254	0x3c8bceb9	0.017066346
255	0x3c3679bf	0.011137425

layers.0.gcn_0.bias f4 [64]
0	0x3d4e38ac	0.050347015
1	0x3d5935d6	0.053029858
2	0x3ccd1a8a	0.025037069
3	0x3d66fdab	0.05639426
4	0x3ce60cca	0.02808227
5	0x3c0be119	0.008537554
6	0x3d5c22c1	0.05374408
7	0x3d4bf903	0.049798023
8	0x3d5f8239	0.05456755
9	0x3d4b7d22	0.049679883
10	0x3d662dea	0.05619613
11	0x3d3915be	0.04518675
12	0x3d4f4740	0.05060506
13	0x3d5424bb	0.05179284
14	0x3d50b97b	0.050958138
15	0x3cc3dad4	0.023908056
16	0x3cbd482c	0.023105703
17	0x3cafa413	0.021440541
18	0x3cbb976f	0.022899358
19	0x3d350b26	0.044200085
20	0x3cbee4af	0.023302404
21	0x3cfa8f98	0.030586049
22	0x3ca3ea04	0.020009048
23	0x3cdb5628	0.026774481
24	0x3c4fee24	0.0126910545
25	0x3c96097d	0.018315071
26	0x3cf729cd	0.0301713
27	0x3d45656d	0.04819243
28	0x3cebd1b0	0.02878651
29	0x3cd1e0f8	0.025619969
30	0x3d420b31	0.047373954
31	0x3c9bc865	0.019016454
32	0x3d5c1ce0	0.053738475
33	0x3c91f91c	0.01781898
34	0x3cc2e015	0.023788491
35	0x3d58bedb	0.05291639
36	0x3d56116e	0.052262716
37	0x3cd5d2de	0.026101526
38	0x3cafd26b	0.02146264
39	0x3cdc4882	0.026890043
40	0x3d2fa2d1	0.042879883
41	0x3d4c1213	0.049821924
42	0x3d65390e	0.055962615
43	0x3d54c6a5	0.051947255
44	0x3cd37b10	0.025815517
45	0x3d6091a4	0.054826394
46	0x3ca0b62f	0.019618122
47	0x3cd0f72f	0.025508491
48	0x3ced014a	0.028931279
49	0x3d48b038	0.04899618
50	0x3d3e85ae	0.046514206
51	0x3cd69e2b	0.026198467
52	0x3cd74f6a	0.026282985
53	0x3d5bd80a	0.053672828
54	0x3d4d3a76	0.05010458
55	0x3ccf41d4	0.025299944
56	0x3c8c2125	0.017105648
57	0x3c884a59	0.016637014
58	0x3ceddbae	0.029035416
59	0x3d5862f6	0.05282875
60	0x3d5c4ced	0.0537843
61	0x3cbc68f9	0.022999274
62	0x3cca1e5d	0.024672681
63	0x3cafc6ad	0.02145704

layers.1.gcn_1.weight f4 [64, 6]
0	0x3baf15c5	0.0053431713
1	0x3d03c8a4	0.032173768
2	0xbe1bd7aa	-0.15218988
3	0x3e14b502	0.14522174
4	0xbdf4deb7	-0.11956542
5	0xbe9c7568	-0.30558324
6	0xbe316e05	-0.17327125
7	0x3e4f8fc5	0.20269687
8	0x3e93b8bc	0.2885188
9	0x3e12c233	0.14331894
10	0x3e35c853	0.17752199
11	0xbe7b61e6	-0.24549064
12	0xbe3def42	-0.18548301
13	0x3df8b105	0.12143139
14	0xbe39dfba	-0.18151751
15	0x3dbfe498	0.09369773
16	0xbe439541	-0.19099905
17	0x3e1ec867	0.15506135
18	0x3e5a9e80	0.21349525
19	0xbea4c911	-0.32184651
20	0xbd949352	-0.072546616
21	0x3eacfad1	0.33785108
22	0x3e878721	0.26470283
23	0x3e0b52e6	0.13605842
24	0x3e995e5d	0.29954806
25	0xbe85f8fd	-0.26166525
26	0xbe541829	-0.20712341
27	0x3de82e1b	0.11336919
28	0x3d8b5816	0.068039104
29	0xbe98dcb5	-0.29855886
30	0x3e152e43	0.14568429
31	0x3caba3aa	0.020952065
32	0x3e922b76	0.28548783
33	0xbe13329e	-0.14374778
34	0x3dec0207	0.11523824
35	0x3d4bab3b	0.049723845
36	0x3e888943	0.26667222
37	0xbe25a5e2	-0.1617656
38	0xbc2af548	-0.010434456
39	0x3d17dcae	0.03707569
40	0xbe56599f	-0.20932625
41	0xbe6acd02	-0.22929767
42	0x3e2c673c	0.16836256
43	0xbd897aab	-0.0671285
44	0xbcf907fe	-0.030399319
45	0xbe706317	-0.234753
46	0x3e20bf60	0.15698004
47	0x3de63a16	0.11241548
48	0x3e9b0e8d	0.3028454
49	0x3e7cfb6f	0.2470529
50	0xbd97a399	-0.07404251
51	0x3da3dbde	0.08000921
52	0xbeaf45d1	-0.34232953
53	0x3e3a74f6	0.1820868
54	0x3e14ca7e	0.1453037
55	0x3e833d4f	0.25632712
56	0xbea3bc52	-0.31979614
57	0xbe629bb3	-0.22129707
58	0xbe5b9e29	-0.21447052
59	0xbe2f9192	-0.17145374
60	0x3e16ef18	0.14739645
61	0xbe96e662	-0.29472643
62	0x3e557d57	0.20848595
63	0xbe03a5b3	-0.12856178
64	0xbe06839d	-0.13136144
65	0xbc1eb236	-0.0096860435
66	0xbdf8bcb5	-0.12145368
67	0x3e32166d	0.17391367
68	0x3ea2d1e4	0.3180076
69	0x3e3a8a65	0.18216856
70	0xbdaefa8b	-0.08543881
71	0xbe542056	-0.2071546
72	0xbe9df637	-0.3085191
73	0x3e89df13	0.26928005
74	0x3e50657c	0.20351213
75	0xbe0ad9c7	-0.13559638
76	0xba9dea1a	-0.0012047917
77	0x3eb1e3ae	0.34744018
78	0xbdbf924f	-0.09354078
79	0x3eab7d3f	0.33493993
80	0x3dff67a5	0.124709405
81	0xbde85edf	-0.1134622
82	0x3e4dfa8d	0.20115109
83	0x3e352744	0.1769076
84	0x3da95021	0.082672365
85	0xbe909540	-0.2823887
86	0xbe17ce82	-0.1482487
87	0xbe5b7343	-0.21430688
88	0x3e8c16bd	0.27361098
89	0xbe86dd1e	-0.26340574
90	0xbd53d417	-0.051715937
91	0x3d7964b9	0.060887072
92	0xbe81e467	-0.2536957
93	0x3e644c17	0.22294651
94	0x3e8231c9	0.25428608
95	0x3cb85389	0.02250077
96	0x3b8efc20	0.0043635517
97	0x3e649bb3	0.2232502
98	0xbd10f6c8	-0.0353916
99	0x3ea123e4	0.31472695
100	0x3e894ed2	0.26817948
101	0xbe8db573	-0.27677497
102	0xbeb0103e	-0.34387392
103	0xbe38167c	-0.17977327
104	0xbe5f80a3	-0.21826415
105	0x3e4013c4	0.1875754
106	0xbe84f98e	-0.25971645
107	0x3e412d2a	0.18864885
108	0xbd1214e2	-0.035664447
109	0x3e098149	0.13428225
110	0xbdcc40a8	-0.0997327
111	0xbe884283	-0.26613244
112	0x3e91c4e7	0.28470537
113	0xbe0c48ac	-0.13699597
114	0xbe33ced8	-0.17559373
115	0x3e50185c	0.20321792
116	0x3e900f1f	0.28136536
117	0x3d793619	0.060842607
118	0xbd63fcb3	-0.055660915
119	0xbe985a30	-0.29756308
120	0x3e984faa	0.2974828
121	0xbe8eeea6	-0.2791645
122	0x3e7840e5	0.24243505
123	0xbe5f10f0	-0.21783805
124	0xbdebdb95	-0.11516491
125	0xbdff20bd	-0.12457416
126	0xbe5fa701	-0.2184105
127	0x3d738d30	0.05946082
128	0xbe90ea5f	-0.2830381
129	0xbd6ce02b	-0.05783097
130	0x3da5bfb7	0.08093207
131	0x3e9479eb	0.28999266
132	0xbd75684b	-0.059913915
133	0x3e63c523	0.2224317
134	0x3e67a991	0.22623278
135	0x3e3f1c24	0.18663079
136	0x3ea54f57	0.32287094
137	0x3de9f52b	0.11423715
138	0xbead4222	-0.33839518
139	0xbe2ed59f	-0.17073677
140	0xbe428b84	-0.18998533
141	0x3e82abf8	0.25521827
142	0x3e5c2699	0.21499099
143	0x3e822c3f	0.25424382
144	0xbe881368	-0.26577306
145	0x3e207e2a	0.15673128
146	0xbcae24bb	-0.021257749
147	0xbd9ff51a	-0.07810421
148	0x3e92cc64	0.28671563
149	0xbd2a0f70	-0.04151863
150	0x3e174931	0.14774014
151	0xbe426989	-0.18985571
152	0xbe5c09fe	-0.21488187
153	0x3dd22a76	0.10262005
154	0x3e85ff40	0.26171303
155	0xbd55ab6f	-0.052165445
156	0x3c33d6ea	0.0109765325
157	0xbd0f14f3	-0.034932088
158	0x3e42d7dd	0.19027658
159	0xbe9d55b2	-0.30729443
160	0xbead42bb	-0.33839974
161	0x3e440fc0	0.19146633
162	0xbe997c8d	-0.29977837
163	0xbe652638	-0.2237786
164	0x3ea0e370	0.3142352
165	0xbe10db93	-0.14146261
166	0x3e2d757d	0.1693935
167	0xbd4ef1cd	-0.050523568
168	0x3e084964	0.13309246
169	0xbdfd50ef	-0.123689525
170	0x3e66390b	0.22482698
171	0xbe17f702	-0.1484032
172	0xbe770301	-0.2412224
173	0xbe243ebf	-0.1603956
174	0xbd3bd328	-0.04585567
175	0xbe968608	-0.29399133
176	0x3dd15caa	0.102227524
177	0x3d7b06af	0.06128567
178	0xbdd794d8	-0.105264366
179	0x3e63e418	0.2225498
180	0x3d5a8633	0.05335064
181	0x3ccc77c1	0.024959447
182	0x3e091567	0.1338707
183	0xbe9546b1	-0.29155496
184	0x3d7f8fc7	0.062392976
185	0xbe998404	-0.29983532
186	0x3dae2e2e	0.08504902
187	0x3e93a77d	0.2883872
188	0x3dcbede1	0.09957481
189	0x3e8cadad	0.27476254
190	0xbe3ef585	-0.18648346
191	0x3d75fff7	0.06005856
192	0x3e830ed4	0.2559725
193	0xbe5c4761	-0.21511604
194	0x3e35938b	0.17732064
195	0xbe9f66e1	-0.31133178
196	0x3d86e370	0.06586349
197	0x3e3abfaf	0.18237184
198	0xbe9b8458	-0.30374408
199	0x3e70595e	0.23471591
200	0x3e103624	0.14083153
201	0x3d39dc0b	0.045375865
202	0xbe6366f9	-0.2220725
203	0xbe6526a0	-0.22378016
204	0xbddea323	-0.108709596
205	0xbdc77094	-0.097382694
206	0xbe49bd0a	-0.19701019
207	0x3e88cae7	0.26717302
208	0xbb359469	-0.0027706868
209	0x3e73eb92	0.23820332
210	0x3cf8a834	0.030353643
211	0xbe5d9e75	-0.21642478
212	0x3e911da5	0.2834293
213	0x3e92cd36	0.2867219
214	0x3e33ca2e	0.17557594
215	0x3e493a5a	0.19651166
216	0xbe719f41	-0.23595907
217	0xbdde1bbd	-0.108451344
218	0xbdeebb46	-0.11656813
219	0xbe463588	-0.19356358
220	0x3e3bfee7	0.18358956
221	0xbdd4e093	-0.10394397
222	0xbe1df3ef	-0.15425085
223	0x3bfd73de	0.0077347597
224	0x3d5dc9fb	0.0541477
225	0x3e2ba1ea	0.16760984
226	0x3dc59434	0.09647408
227	0x3e2e26a8	0.17006934
228	0xbe766c31	-0.24064709
229	0x3e446e82	0.1918278
230	0xbe1e5764	-0.15463024
231	0x3e190977	0.14945017
232	0x3d4575ed	0.048208166
233	0xbe0d5eab	-0.13805644
234	0xbb4f5c2c	-0.0031640632
235	0x3e80a18b	0.25123248
236	0xbe673534	-0.22578889
237	0xbdcbb41c	-0.099464625
238	0x3e254135	0.16138156
239	0xbe924d5b	-0.28574643
240	0xbc5816d7	-0.013189039
241	0xbe475453	-0.19465761
242	0x3d274796	0.040839754
243	0x3cfabfa3	0.030608958
244	0x3d0954d0	0.03352815
245	0xbe3947b1	-0.18093754
246	0x3e21890b	0.15774934
247	0xbdeee89d	-0.11665461
248	0x3d135ebc	0.035979018
249	0xbe621d55	-0.22081502
250	0xbd647696	-0.055777155
251	0x3e57d389	0.21076788
252	0x3e892538	0.26786208
253	0x3d86db21	0.06584764
254	0xbdad6568	-0.08466607
255	0xbead3bf6	-0.3383481

layers.1.gcn_1.bias f4 [6]
0	0xbd0dd16c	-0.03462355
1	0x3c6abcf6	0.014327278
2	0xbcdcc15c	-0.02694767
3	0x3d3d179e	0.0461651
4	0xbd65af69	-0.056075487
5	0x3d5c9c28	0.05385986
