cache/pretrained/pretrained_8.pt (torch_old, 950836 bytes, 4 tensors)

layers.0.gcn_0.weight f4 [3703, 64]
0	0xbc40f809	-0.011777886
1	0x3d955e46	0.07293372
2	0xbd88836c	-0.06665692
3	0x3cdcf3da	0.026971746
4	0x3d163632	0.03667278
5	0xbd2d3df9	-0.04229543
6	0xbbb76258	-0.0055964403
7	0x3da95c7e	0.082695946
8	0x3b54cff6	0.0032472587
9	0xbd2e088c	-0.04248862
10	0x3c4c3fa1	0.012466342
11	0x3d308f3d	0.043105353
12	0x3c5504e1	0.0130016515
13	0x3cba78c2	0.02276266
14	0xbd55ea06	-0.052225135
15	0xbc91b24a	-0.01778521
16	0x3d813135	0.063082136
17	0x3d861271	0.06546486
18	0xb9df2ee0	-0.000425688
19	0x3d11982b	0.03554551
20	0xbced3286	-0.028954756
21	0x3c4fda43	0.012686315
22	0x3c7f9eba	0.015601808
23	0x3cb5df7d	0.022201294
24	0x3d430d82	0.047620304
25	0x3d54caef	0.051951345
26	0x3db94c2e	0.09047733
27	0xbd81578d	-0.06315527
28	0xbc9f8f06	-0.019477379
29	0x3b627a8e	0.0034557912
30	0xbcab828b	-0.020936271
31	0xbbca5ba2	-0.0061754743
32	0xbd4d7627	-0.050161507
33	0x3d25f648	0.040518075
34	0x3cbe93c3	0.023263818
35	0xbd99ec7a	-0.075158074
36	0xbd2dce10	-0.042432845
37	0x3b271838	0.0025496613
38	0x3d96d7c2	0.07365371
39	0xbcca6d54	-0.024710335
40	0x3d76d3e7	0.06026068
41	0x3d0dd11a	0.034623243
42	0x3d7c8c87	0.061657455
43	0xbdba7fda	-0.09106417
44	0x3c93404d	0.017974997
45	0xbd929351	-0.071570046
46	0x3ca44d61	0.020056428
47	0xbcd88411	-0.026430162
48	0x3b8d579b	0.004313422
49	0xbd60a473	-0.05484433
50	0x3d9567b1	0.07295168
51	0x3dcb08e0	0.09913802
52	0xbca89566	-0.020579051
53	0x3cb133b2	0.021631096
54	0x3da8fdd4	0.08251539
55	0xbd101ed0	-0.035185635
56	0xbccc69e6	-0.02495284
57	0x3cd226fe	0.025653359
58	0x3cb0b3d6	0.021570127
59	0xbd3343b8	-0.043765754
60	0xbc05781b	-0.008146311
61	0x3d8b0277	0.067875795
62	0xbd8cd3d6	-0.06876342
63	0xbd084015	-0.03326424
64	0x3b43f31f	0.002989955
65	0x3d3fb72d	0.04680555
66	0x3d5a6ab0	0.0533244
67	0x3d6d6483	0.057957184
68	0x3c82ac98	0.01595144
69	0x3dbc595f	0.09196734
70	0xbca58c33	-0.020208454
71	0xbba867bf	-0.0051393206
72	0x3b56ba4d	0.0032764853
73	0xbbb50148	-0.0055238344
74	0x3dac9a79	0.08427901
75	0x3da6937f	0.081336014
76	0x3d32e79f	0.043677922
77	0xbcb4c2ef	-0.022065608
78	0x3d210636	0.039312564
79	0x3ce646f7	0.02811001
80	0xbd747e39	-0.059690688
81	0xb9bdeaf9	-0.00036223957
82	0x3c38c9cd	0.011278582
83	0xbc9ad62b	-0.018900951
84	0xbcce966b	-0.02521821
85	0x3d185100	0.037186623
86	0xbd77b919	-0.060479257
87	0x3d1c1ead	0.038115192
88	0x3d27b2ea	0.04094211
89	0xbd1d998d	-0.038476516
90	0x3d498e67	0.04920807
91	0x3c30a17e	0.01078069
92	0x3ce692b9	0.028146135
93	0x3d87819c	0.06616518
94	0x3c5040c8	0.012710758
95	0x3cf1818d	0.02948072
96	0x3ab54043	0.0013828356
97	0xbd22d3bd	-0.03975271
98	0xbc569f21	-0.013099463
99	0xbd23c853	-0.039985966
100	0x3c46b52f	0.0121281585
101	0x3cfd79de	0.0309419
102	0x3d03516f	0.032060083
103	0xbc985aac	-0.018597923
104	0xbd857a1b	-0.065174304
105	0xb98bf4ba	-0.00026694481
106	0xbcc491c0	-0.02399528
107	0xbd198a5b	-0.03748546
108	0x3d39279e	0.045203798
109	0x3d26f2ba	0.040758826
110	0x3c32ca94	0.010912556
111	0x3da536f8	0.08067125
112	0xbbe26a1b	-0.0069096214
113	0x3c39db5e	0.011343805
114	0x3cd4feef	0.026000468
115	0x3afad6e8	0.0019137533
116	0xbc16e692	-0.009210246
117	0xbabbbc3a	-0.0014323064
118	0xba85d0c2	-0.0010209309
119	0x3d81e5d4	0.06342664
120	0xbd1c912a	-0.038224377
121	0x3d4a39ab	0.049371403
122	0x3d084ec8	0.033278257
123	0x3d78424e	0.060610108
124	0xbd027924	-0.03185381
125	0x3cb46143	0.022019034
126	0xbd6249db	-0.055246215
127	0xbd9f4451	-0.07776702
128	0x3ce6efe2	0.028190557
129	0xbc7e2c80	-0.015513539
130	0xbd0f4202	-0.03497506
131	0x3a827ab6	0.0009954784
132	0x3c92f1b4	0.017937519
133	0xbd375af1	-0.044764463
134	0x3b97bf31	0.004630946
135	0x3d425476	0.04744383
136	0x3d4ac07f	0.049499985
137	0xbd092f6d	-0.033492494
138	0x3cbf47ef	0.02334973
139	0xbae3fe05	-0.0017394429
140	0x3d0aea53	0.033914875
141	0xbb569e80	-0.0032748282
142	0x3c3c951b	0.011510159
143	0xbcbc3f27	-0.022979332
144	0x3c398b60	0.0113247335
145	0x3ce86cb7	0.028372152
146	0x3d912142	0.070864215
147	0x3cf7b92f	0.03023967
148	0xbd81f6e1	-0.063459165
149	0xbcbe8681	-0.023257496
150	0xbc855443	-0.01627553
151	0xbcf9e687	-0.030505432
152	0x3c4a63a8	0.012352861
153	0x3d92f993	0.07176509
154	0x3b77e4af	0.0037825515
155	0xbd34afb1	-0.044112865
156	0x3d94d540	0.07267237
157	0x3baa6f1b	0.005201233
158	0xbced232e	-0.028947439
159	0xbce55502	-0.027994636
160	0xbd17a3b0	-0.03702134
161	0x3d24e5eb	0.04025833
162	0x3c8bd37e	0.01706862
163	0xbd579b20	-0.052638173
164	0xbc950622	-0.0181914
165	0xbcde03f1	-0.027101489
166	0x3cfdd0dc	0.030983381
167	0x3c2ab1fd	0.010418412
168	0x3c960296	0.01831178
169	0x3c4c4c8e	0.012469424
170	0x3d18f5de	0.037343852
171	0xbbe83e12	-0.0070874775
172	0x3dadcf90	0.08486855
173	0xbd07dbd8	-0.033168644
174	0xbb61b006	-0.0034437194
175	0xbc5bfbba	-0.0134267155
176	0xbc079a79	-0.008276575
177	0xbd6f1921	-0.058373574
178	0x3d9b56cf	0.07584917
179	0x3b98299a	0.004643631
180	0xbcbfbacd	-0.023404503
181	0x3d354660	0.044256568
182	0x3d897a51	0.06712783
183	0xbcfb535a	-0.030679394
184	0xbbf94032	-0.0076065296
185	0x3bf6d5a8	0.007532794
186	0xbb1df7eb	-0.002410407
187	0xbc969133	-0.018379783
188	0xbd69c534	-0.057072833
189	0x3d89f4dc	0.06736156
190	0xbc385c34	-0.011252452
191	0x3bc1432b	0.0058978996
192	0xbcbade20	-0.022810996
193	0x3d519b6a	0.051173605
194	0x3c933558	0.017969772
195	0xba9a6e72	-0.0011782183
196	0xbc3ec295	-0.011643072
197	0x3d752614	0.059850767
198	0xbd38adc2	-0.045087583
199	0xba72dd5a	-0.00092645513
200	0xbcd42795	-0.02589778
201	0x3d7e1157	0.062028255
202	0x3ce5466b	0.02798768
203	0x3c16dfa3	0.009208593
204	0xbd998fed	-0.07498155
205	0x3d2c75d7	0.04210457
206	0xbd0ec3bd	-0.03485464
207	0xbc8589a0	-0.016300976
208	0x3d839f45	0.064268626
209	0x3ce8676e	0.028369632
210	0xbd058ad3	-0.032603096
211	0xbc0aa096	-0.008461138
212	0x3d51d8d1	0.051232163
213	0xbd31ae59	-0.04337916
214	0xbc121765	-0.0089167105
215	0x3d4051f8	0.04695317
216	0x3cab4845	0.020908484
217	0xbd807ac3	-0.06273415
218	0xbb968190	-0.004593082
219	0x3ca6bbd3	0.020353233
220	0x3d29e4fc	0.041478142
221	0x3ccf95bc	0.025339954
222	0x3d75b017	0.059982385
223	0x3d53b000	0.05168152
224	0xbd5a01d6	-0.053224407
225	0x3c89232b	0.016740402
226	0xbd2b22cb	-0.041781228
227	0x3ccf237e	0.025285479
228	0xbceb766e	-0.028742995
229	0x3c0edb72	0.008719312
230	0x3d2cca6a	0.042185225
231	0x3c567053	0.013088304
232	0xbcedcc82	-0.029028181
233	0xbc1cc0ca	-0.009567449
234	0xbc16278b	-0.009164701
235	0x3ce19a3f	0.02753937
236	0x3d90c645	0.07069067
237	0x3ca8e861	0.02061862
238	0x3ce398a1	0.02778274
239	0x3d6c420f	0.057680186
240	0x3d62385f	0.05522954
241	0x3d25d080	0.040482044
242	0x3d12a556	0.035802208
243	0x3d033983	0.03203727
244	0x3d9a3f35	0.07531587
245	0xbd7f35e3	-0.06230725
246	0x3d759f9c	0.05996667
247	0x3c5421df	0.012947529
248	0x3cc3e1d4	0.023911394
249	0xbc5a5bc0	-0.013327539
250	0xbcc5f883	-0.024166351
251	0x3d5d1917	0.053979006
252	0x3b978d87	0.0046250257
253	0x3c0e2235	0.008675148
254	0x3d06d389	0.03291658
255	0xbd7be04a	-0.061493196

layers.0.gcn_0.bias f4 [64]
0	0x3c84863b	0.016177287
1	0x3ca04a4b	0.019566676
2	0x3d609674	0.054830983
3	0x3c7c5b50	0.01540263
4	0x3d50e186	0.050996326
5	0x3d5ff4e7	0.054676916
6	0x3d60bf6e	0.05487006
7	0x3c965d59	0.018355059
8	0x3c99b485	0.018762836
9	0x3d484cab	0.04890124
10	0x3cc46de7	0.023978187
11	0x3d0f196c	0.034936354
12	0x3d4b040f	0.049564417
13	0x3d1a4fe0	0.03767383
14	0x3d39e08d	0.045380164
15	0x3d4205db	0.047368865
16	0x3d11e749	0.03562096
17	0x3d570594	0.052495554
18	0x3d43fd4e	0.047848992
19	0x3cc734b5	0.024317125
20	0x3cc11d1b	0.023573449
21	0x3cbc304c	0.022972248
22	0x3d423843	0.047416937
23	0x3d325c24	0.043544903
24	0xbc27caaa	-0.01024119
25	0x3d62971b	0.055319887
26	0x3d4efb19	0.050532434
27	0x3d2a8e1d	0.041639436
28	0x3c8e6c53	0.017385637
29	0x3cb89cca	0.0225357
30	0x3d38bfec	0.045104906
31	0x3d4109f2	0.047128625
32	0x3cc0c6a9	0.023532229
33	0x3cc288d9	0.023746895
34	0x3cbb5aca	0.02287044
35	0x3c89b36b	0.016809186
36	0x3d0d7d1d	0.034543145
37	0x3c36cd1a	0.011157298
38	0x3cbd2c4f	0.023092417
39	0x3d4105bd	0.047124613
40	0x3cb80b55	0.022466341
41	0x3d39d748	0.045371324
42	0x3cbc4c16	0.0229855
43	0x3d60d308	0.054888755
44	0x3ca4a53f	0.020098327
45	0x3d25bfd6	0.040466152
46	0x3cfccace	0.030858424
47	0x3d4bcefa	0.049757935
48	0x3d1b4116	0.037903868
49	0x3cc174b8	0.023615226
50	0x3ccc532a	0.024942
51	0x3c3d1e8a	0.011542926
52	0x3c9006f6	0.017581444
53	0x3c792797	0.015207193
54	0x3c8801f5	0.016602496
55	0x3cc35959	0.023846315
56	0x3cd02a4b	0.025410792
57	0x3ca9733a	0.020684827
58	0x3d3f5b3f	0.04671788
59	0x3cc63a5a	0.024197746
60	0x3be8e249	0.0071070534
61	0x3d49556a	0.049153723
62	0x3d48dc6f	0.049038347
63	0x3d624d45	0.05524947

layers.1.gcn_1.weight f4 [64, 6]
0	0x3e836e35	0.2567002
1	0xbea0266c	-0.31279314
2	0x3e2b4b4a	0.16727939
3	0x3e14df5c	0.1453833
4	0xbdf506c3	-0.1196418
5	0xbe340283	-0.17579083
6	0x3e2519c4	0.1612311
7	0x3b82efbf	0.003995865
8	0xbe80ae48	-0.25132966
9	0x3e211e85	0.15734299
10	0xbc1c7a66	-0.009550666
11	0x3e8c0ae7	0.27352068
12	0xbea4402c	-0.3208021
13	0x3cb0d953	0.021588003
14	0x3dec4960	0.11537433
15	0x3e8f9ff8	0.28051734
16	0x3e88799b	0.26655278
17	0x3e503879	0.20334043
18	0x3e46a3b7	0.1939839
19	0x3a89fd01	0.0010527672
20	0xbe96281b	-0.29327473
21	0xbe4084ff	-0.18800734
22	0xbe9b1615	-0.30290285
23	0x3e2e9f35	0.1705292
24	0x3e6dc334	0.23218995
25	0xbd8b5394	-0.06803051
26	0xbd1d4c70	-0.038402975
27	0xbe59fae6	-0.21287116
28	0xbe8ef841	-0.27923778
29	0x3b753ae2	0.003741913
30	0xbe8a9ea6	-0.27074164
31	0x3e0e67f0	0.13906837
32	0xbe80e55d	-0.2517499
33	0xbeaf6d2c	-0.3426298
34	0xbe70b08e	-0.2350485
35	0x3dd47b95	0.10375134
36	0xbe41f4b2	-0.18941
37	0x3e10141a	0.14070168
38	0x3e553b3f	0.20823382
39	0x3e93f41a	0.28897172
40	0x3e5fc49d	0.21852346
41	0xbda7bf95	-0.08190838
42	0x3e5c5c0b	0.21519487
43	0xbe982112	-0.2971273
44	0xbe86eed5	-0.2635409
45	0xbe193085	-0.14959915
46	0xbe4d7714	-0.20064956
47	0x3e1fef0e	0.15618536
48	0x3e47a0ec	0.1949498
49	0x3db7781a	0.089584544
50	0x3daf91a6	0.08572702
51	0xbe2eaf16	-0.17058977
52	0xbde19953	-0.110155724
53	0xbe318a72	-0.17337969
54	0xbeafc2bc	-0.34328258
55	0x3e8e516d	0.27796498
56	0x3e481735	0.19540103
57	0xbe2bb779	-0.16769208
58	0xbe8c15f2	-0.27360493
59	0x3d4d7692	0.050161906
60	0xbddf54a6	-0.10904817
61	0xbe5f14ef	-0.2178533
62	0x3d943478	0.0723657
63	0xbdf71bf6	-0.1206588
64	0x3dc6a364	0.09699133
65	0x3c123627	0.008924044
66	0x3e63ce98	0.22246778
67	0xbeadb2cc	-0.33925474
68	0xbe90306b	-0.2816194
69	0x3ea6de30	0.3259139
70	0xbe04f2f7	-0.12983309
71	0x3e84747b	0.25870118
72	0x3e8ae2be	0.27126116
73	0xba54aa48	-0.0008112532
74	0xbe980b16	-0.29695958
75	0xba836dbc	-0.001002721
76	0xbe9ce742	-0.30645186
77	0xbe2905be	-0.16506097
78	0x3d820786	0.06349091
79	0xbe64c710	-0.22341561
80	0xbe303006	-0.1720582
81	0x3e6ec501	0.23317339
82	0x3e6e4244	0.23267466
83	0x3ea3cd6f	0.3199267
84	0xbea26605	-0.3171846
85	0x3da5c275	0.0809373
86	0xbeb03dda	-0.3442219
87	0x3e93f0d0	0.28894663
88	0xbdf32267	-0.11871796
89	0xbe8c4c69	-0.27402046
90	0xbdc49eed	-0.09600625
91	0x3d626daf	0.055280384
92	0xbe8391ea	-0.2569726
93	0x3df93115	0.12167565
94	0x3e90a70a	0.2825244
95	0xbe3bc3ed	-0.18336459
96	0x3e4537fe	0.1925964
97	0xbdd255bc	-0.10270259
98	0x3e518e32	0.204644
99	0x3df60d31	0.12014235
100	0xbe3be5ae	-0.18349335
101	0x3e795cb6	0.24351773
102	0x3db2e447	0.08734947
103	0x3e86e4d9	0.26346472
104	0x3df58c55	0.11989657
105	0xbe96318d	-0.2933468
106	0xbe8dcb9f	-0.27694413
107	0xbd35693b	-0.04428981
108	0x3e767ec1	0.2407179
109	0x3e0d07f2	0.13772562
110	0x3e741532	0.2383621
111	0x3dcb3d60	0.09923816
112	0xbe6491e7	-0.22321282
113	0xbe37ed96	-0.17961726
114	0x3e4df483	0.20112805
115	0x3e9c90dc	0.3057927
116	0xbea20431	-0.31643823
117	0x3e1dc2eb	0.15406387
118	0xbe077478	-0.13228023
119	0xbc475d88	-0.012168296
120	0xbe38fbbc	-0.18064779
121	0xbe773224	-0.24140221
122	0x3b5ad4b8	0.003339095
123	0xbe9cd8b4	-0.3063408
124	0xbe385b8c	-0.18003672
125	0x3e848f33	0.25890502
126	0xbe9e56fe	-0.30925745
127	0x3da89a94	0.082326084
128	0xbeaefbc4	-0.34176457
129	0x3e575b82	0.21031001
130	0x3e5c940d	0.21540852
131	0xbe898304	-0.2685777
132	0x3d8c0b61	0.06838108
133	0xbe34800e	-0.17626974
134	0x3e2ce41f	0.16883896
135	0xbcdfc576	-0.027315836
136	0xbdb988f3	-0.09059324
137	0xbddfba82	-0.109242454
138	0xbdd6c133	-0.104860686
139	0x3e989036	0.29797524
140	0xbe8bef3c	-0.2733096
141	0x3e43b897	0.19113384
142	0x3e73ff85	0.23827942
143	0x3e8e7c2a	0.27829105
144	0x3ead6532	0.33866268
145	0x3e4f6034	0.20251542
146	0x3e2c63df	0.16834973
147	0xbe7c8b7f	-0.24662589
148	0x3d38956d	0.04506438
149	0x3d9a5b7d	0.07536981
150	0x3e4b66ff	0.19863509
151	0x3ce1d070	0.027565211
152	0x3d6beba3	0.057597768
153	0xbe0b0ffc	-0.13580316
154	0x3dd76d00	0.10518837
155	0xbe964c90	-0.29355288
156	0x3e8254bc	0.25455272
157	0x3d840f04	0.064481765
158	0x3dbc5a59	0.0919692
159	0x3e997b04	0.29976666
160	0x3e9bef5f	0.30456063
161	0xbea5cd08	-0.3238299
162	0xbda8c5e7	-0.08240872
163	0x3e39e429	0.18153442
164	0x3e98b041	0.2982197
165	0x3d128565	0.035771746
166	0xbcc9d1bc	-0.024636142
167	0x3e907803	0.28216562
168	0x3dcd3dcc	0.100215524
169	0xbe6df1c1	-0.23236753
170	0xbe38815b	-0.18018095
171	0xbe95335d	-0.2914075
172	0x3e1a027d	0.15040012
173	0xbe4041cf	-0.18775104
174	0xbcb0f134	-0.02159939
175	0xbe1e3c3a	-0.15452662
176	0x3ae6e4cc	0.0017615794
177	0x3e9b5bde	0.30343527
178	0x3eaad717	0.33367226
179	0xbd1d8680	-0.038458347
180	0xbe17be3d	-0.14818664
181	0x3dbe9405	0.09305576
182	0xbe9a0b46	-0.30086726
183	0x3debb929	0.11509926
184	0xbd187d8f	-0.037229117
185	0x3deeffe8	0.11669904
186	0xbe855726	-0.2604305
187	0xbe380b63	-0.17973094
188	0xbe80c2e8	-0.25148702
189	0xbea71cbc	-0.3263911
190	0xbd8d50f1	-0.06900204
191	0xbc36c37e	-0.011155007
192	0xbd04fc5a	-0.032467224
193	0xbc9876ca	-0.01861133
194	0x3ea35c9b	0.3190659
195	0x3c2a2dfe	0.010386942
196	0x3e1c566b	0.15267341
197	0xbe5e0ee2	-0.21685365
198	0x3e0b0da2	0.1357942
199	0xbe38fdcd	-0.18065567
200	0x3e7758de	0.24154994
201	0x3d8e4cf7	0.06948274
202	0xbea7d774	-0.32781565
203	0xbd9af1ad	-0.07565627
204	0x3e604d56	0.21904501
205	0xbe31f073	-0.1737688
206	0xbe44eb6c	-0.19230431
207	0xbc21cd5d	-0.009875623
208	0x3e4541b5	0.19263346
209	0xbe5ec589	-0.21755041
210	0xbea26053	-0.31714115
211	0x3c4834d7	0.012219629
212	0x3e2221c4	0.15833193
213	0x3e55e7cd	0.20889206
214	0xbe7177dd	-0.2358088
215	0xbd5d3075	-0.05400129
216	0xbdf7c7ce	-0.120986566
217	0xbdb0c24b	-0.086308084
218	0x3e8f071b	0.2793511
219	0x3ea16565	0.3152267
220	0xbe9969e0	-0.2996359
221	0xbe7ecbe3	-0.24882464
222	0xbea4a05e	-0.321536
223	0x3de6ddde	0.112727866
224	0x3bd7c0e8	0.0065842755
225	0xbe42b295	-0.19013436
226	0xbe0b51a1	-0.13605358
227	0xbd8ef839	-0.069809385
228	0x3e72f23e	0.2372522
229	0xbe3ee0f8	-0.18640506
230	0xbd4b84b4	-0.049687102
231	0xbd881e4e	-0.06646405
232	0x3e911584	0.28336728
233	0x3e20d002	0.15704349
234	0xbdedc0d7	-0.11609047
235	0xbe2336dc	-0.15938896
236	0x3dcfdfcb	0.10150107
237	0x3dd972fd	0.106176354
238	0x3eb0724b	0.344622
239	0xbdc40089	-0.095704146
240	0x3e6d0cd1	0.2314942
241	0xbe348401	-0.1762848
242	0x3e8e5822	0.27801615
243	0xbdf36a13	-0.118854664
244	0xbe94ae2b	-0.2903913
245	0xbe1b6dfa	-0.15178671
246	0x3e8b0ad9	0.27156714
247	0x3e752b04	0.2394219
248	0xbe3e58cf	-0.18588565
249	0x3df9b256	0.12192218
250	0x3e27140a	0.16316238
251	0xbeafb27d	-0.34315863
252	0x3e6c47e4	0.23074299
253	0xbe1b5a7d	-0.15171237
254	0x3d7afb06	0.06127455
255	0x3e2a163f	0.16610049

layers.1.gcn_1.bias f4 [6]
0	0x3bf8ffbe	0.007598846
1	0x3d34088f	0.043953475
2	0x3cfdfcbc	0.031004302
3	0xbd61130f	-0.054949816
4	0x3d5afdcb	0.053464692
5	0xbd6c7d16	-0.05773648
