cache/pretrained/pretrained_19.pt (torch_old, 740152 bytes, 4 tensors)

layers.0.gcn_0.weight f4 [2879, 64]
0	0xbc07a24a	-0.008278439
1	0xbc59ea11	-0.013300435
2	0xbbe57f01	-0.0070036654
3	0x3c9221b1	0.017838331
4	0xbc655abd	-0.0139986845
5	0xbb01828b	-0.0019761648
6	0xbb8f1ea3	-0.004367666
7	0x3cbe98c4	0.023266204
8	0xbc551fa7	-0.013008035
9	0xbc6baf46	-0.01438505
10	0x3a89a294	0.0010500723
11	0x3caf1918	0.02137427
12	0x3bdc48a9	0.006722529
13	0x3bcfb853	0.006339112
14	0x3c53e606	0.01293326
15	0xbc1ab21c	-0.009441879
16	0xbafd3641	-0.0019318537
17	0x3c46c0bc	0.012130912
18	0x3ac2394e	0.0014818104
19	0x3b624b72	0.0034529832
20	0x3c9f74de	0.019464906
21	0xbccf4fdc	-0.025306635
22	0xbbd7eea7	-0.006589729
23	0x3c44c29e	0.012009291
24	0xbbd4104c	-0.0064716693
25	0xba6cf2c5	-0.0009038861
26	0xbc04ac94	-0.008097786
27	0xbc4b96a9	-0.012426057
28	0x3b21551d	0.0024617382
29	0x3bdf6777	0.006817754
30	0x3551a062	7.8091955e-07
31	0x3bc6bb7a	0.0060648294
32	0x3c35a389	0.011086353
33	0x3bd72a3b	0.0065663136
34	0xba44c95b	-0.0007506811
35	0x3c6a3680	0.01429522
36	0xbbc30bb5	-0.0059523233
37	0xbd01c4ce	-0.03168183
38	0x3ca4a8a2	0.020099942
39	0x3c3fa46d	0.011696917
40	0xbc0f01c3	-0.008728447
41	0x3a3f0a2c	0.00072875875
42	0xbca87ada	-0.020566393
43	0xba0acd0e	-0.0005294838
44	0xbcc25401	-0.023721697
45	0xbc753f06	-0.014968639
46	0xbb1c4755	-0.0023846228
47	0x3bc750cf	0.006082631
48	0x3b308196	0.0026932708
49	0x3c9941e3	0.018708175
50	0xbc3535a7	-0.011060155
51	0x3c4766a1	0.012170465
52	0x3b4d6fe7	0.0031347217
53	0x3bb399cc	0.0054809805
54	0xb69933b1	-4.565773e-06
55	0x3c4bb988	0.012434371
56	0x3c07e86a	0.008295158
57	0x3b859502	0.004076601
58	0x3a7f5695	0.000974038
59	0xbc59f8f2	-0.013303982
60	0x3bcebfe0	0.0063094944
61	0x3b6ef0c0	0.0036459416
62	0x3c10320a	0.008800993
63	0x3bd7aa79	0.006581601
64	0xbc3d0cc6	-0.01153869
65	0x3a9ec2e1	0.0012112522
66	0xbc03ce94	-0.0080448575
67	0x3ced4271	0.028962346
68	0xbcb400e0	-0.021973073
69	0xbc91c336	-0.01779328
70	0x3c8e0b53	0.017339384
71	0x3b07845b	0.0020678255
72	0xbc3950a7	-0.011310733
73	0x3b7bdfc5	0.0038432938
74	0x3c8244e8	0.015901998
75	0xbc13e57b	-0.00902688
76	0xbc025f19	-0.007957243
77	0x3bea6c2a	0.0071540074
78	0xbcb3a544	-0.02192939
79	0x3ccc3b1b	0.024930527
80	0x3ce0f33d	0.027459735
81	0x3be71c99	0.0070529697
82	0x3b811e65	0.003940391
83	0xbc39bc53	-0.011336404
84	0xbc390eb7	-0.011295012
85	0xbcef31ee	-0.029198613
86	0xbd292112	-0.041291304
87	0x3c7eb00b	0.015544902
88	0x3cd668ac	0.026172958
89	0x3b3b5e0b	0.002858999
90	0xbba8800a	-0.0051422166
91	0xbc51ac37	-0.012797407
92	0xbc1f3e63	-0.009719464
93	0x3c9bd7f0	0.019023865
94	0x35cf7240	1.5455953e-06
95	0xbb42e18e	-0.0029736492
96	0x3d2e0c08	0.042491943
97	0x3c202767	0.009775019
98	0x3c3bc3eb	0.011460285
99	0xbd293823	-0.0413133
100	0x3c5e92d6	0.013584813
101	0x3b2345e4	0.0024913484
102	0x3c485dfe	0.012229441
103	0x3ca1656e	0.019701686
104	0x3cb164ce	0.021654513
105	0x3cebe91c	0.028797679
106	0xbcd85a3e	-0.026410218
107	0xbc0e7570	-0.0086949915
108	0xbbe5f3c2	-0.0070175836
109	0xbcf1190f	-0.029430894
110	0x3cabab94	0.020955838
111	0x3c65e3b7	0.014031342
112	0xbd2c8aa9	-0.042124424
113	0xbc22e8a0	-0.009943157
114	0x3b606de6	0.0034245192
115	0xbb952fcf	-0.0045528184
116	0xbc0aa614	-0.008462448
117	0x3cfcaaa2	0.030843083
118	0xb6062b15	-1.9992633e-06
119	0xbc1dccd5	-0.009631355
120	0xbae7bc4f	-0.0017680022
121	0xbc89981f	-0.01679617
122	0x3cc8754a	0.02446999
123	0x3bed337b	0.007238803
124	0xbc182ea3	-0.009288463
125	0xbc8c6777	-0.01713918
126	0x3d149c3f	0.03628182
127	0xbb368446	-0.0027849837
128	0x3a2ad91a	0.0006517336
129	0x3a1afbe7	0.000591217
130	0xb91896ee	-0.00014552075
131	0x3b74d6f6	0.0037359572
132	0xbb950f41	-0.0045489375
133	0x3a8c92cb	0.00107249
134	0x3b7b8bde	0.0038382928
135	0x3ac28246	0.001483985
136	0xbb77eaaf	-0.0037829091
137	0x3a8c9d00	0.0010727942
138	0xb92a6730	-0.00016250904
139	0x3b534101	0.003223479
140	0x3b133d62	0.0022467007
141	0xbb0b932f	-0.0021297445
142	0x3b30920f	0.0026942526
143	0xbba6543a	-0.0050759586
144	0x3af388f6	0.0018580246
145	0x3b8eac8d	0.0043540657
146	0xba0dca28	-0.0005408847
147	0xbab96b10	-0.0014146287
148	0x3bd1098b	0.0063793114
149	0x39a9c21f	0.00032378823
150	0xbb574cf8	-0.0032852273
151	0x3b633ee9	0.0034674949
152	0xb9a365b1	-0.0003116555
153	0x3a1ae434	0.00059086387
154	0xb92f0725	-0.00016691962
155	0xbb87a73d	-0.0041398094
156	0xbab24059	-0.0013599499
157	0x3a010e5c	0.0004923099
158	0xb5aa4a63	-1.2687636e-06
159	0xbb631b5c	-0.0034653759
160	0x3b14e54a	0.0022719675
161	0x3b5ba2b7	0.0033513734
162	0xba97f1bf	-0.0011592432
163	0x39b054df	0.0003363257
164	0x3a87eae6	0.0010369688
165	0x3b6b62ec	0.0035917116
166	0x3ba8edd8	0.0051553063
167	0xbb871c13	-0.0041232198
168	0xba03d409	-0.0005028849
169	0x39ee1e6d	0.00045417566
170	0xbb7410d6	-0.003724148
171	0xbb38c798	-0.002819514
172	0x3afe9d26	0.0019425496
173	0x3b06b2bf	0.0020553318
174	0x3b85cb39	0.004083064
175	0xbaaf42c3	-0.0013371337
176	0xbabfb8de	-0.0014627238
177	0x3affe54e	0.0019523294
178	0xbae5e615	-0.0017539883
179	0xb90ec0c4	-0.00013613986
180	0xbb0f94d8	-0.0021908786
181	0x3b5d24a8	0.0033743773
182	0x350df6eb	5.2885906e-07
183	0x3a12677e	0.00055848795
184	0x39e29ecf	0.000432244
185	0xba135914	-0.00056208787
186	0x3b3a02c2	0.0028382991
187	0x3b76c12d	0.0037651763
188	0x3997cc6c	0.0002895327
189	0xbad8c285	-0.0016537464
190	0x3bcb23ac	0.006199321
191	0xb95482e8	-0.00020266662
192	0xbc158624	-0.00912622
193	0xbcb34f94	-0.021888532
194	0xbcb47fee	-0.022033658
195	0x3b82473a	0.003975776
196	0xbb8905fc	-0.0041816216
197	0xbb086e78	-0.0020817798
198	0x3b6e7f81	0.0036391916
199	0x3c62ad61	0.013835282
200	0xbbfb3a1d	-0.0076668398
201	0xbc79ca59	-0.015245997
202	0x3be6acd1	0.0070396443
203	0x3c8ae54e	0.016955044
204	0xbc365b30	-0.011130139
205	0xbc2d8019	-0.010589623
206	0x3a7da89f	0.00096763106
207	0x3bc2e690	0.0059478953
208	0x3c7259d8	0.014791928
209	0xbbf07e2c	-0.0073392596
210	0x3c2cad39	0.010539346
211	0x3c41544f	0.011799886
212	0x3c0d7bb9	0.008635455
213	0xbc40c4a8	-0.0117656365
214	0x3b45c81b	0.0030179087
215	0x3c20b900	0.009809732
216	0x3bb46245	0.0055048787
217	0xbc03a7a8	-0.008035578
218	0x3c13ad8d	0.009013546
219	0x3c292e90	0.010326043
220	0xbc53c5f2	-0.012925612
221	0x3c0ed4e7	0.008717752
222	0x35bc0d42	1.401095e-06
223	0x3c97a2bb	0.018510213
224	0x3cb4c394	0.022065915
225	0x3c46610a	0.012108097
226	0xbc1e1cef	-0.009650453
227	0x3b955e30	0.004558347
228	0xbb4e36f8	-0.003146587
229	0xbcaef4c1	-0.021356942
230	0x3be79eba	0.007068482
231	0xbc250b22	-0.010073455
232	0x3af0fb03	0.0018385354
233	0x3c644f7b	0.013934965
234	0xbbb8c24a	-0.0056383954
235	0xbc00dc65	-0.007865046
236	0x3b858ee3	0.0040758713
237	0xbc91ce77	-0.017798645
238	0x3b8ccb8c	0.0042967256
239	0x3bd77518	0.006575238
240	0xbc6e95de	-0.014562098
241	0xba472ac0	-0.0007597618
242	0x3c34a688	0.011026032
243	0x3cb7d14f	0.022438673
244	0xbbb65f3c	-0.005565552
245	0x3c9b25d6	0.01893894
246	0xb5d2a517	-1.5694267e-06
247	0x3bb157b4	0.0054120664
248	0x3c76e39c	0.015068915
249	0xbaf63e18	-0.0018786816
250	0x3b72af81	0.0037030878
251	0xbcb28264	-0.02179069
252	0x3c04a635	0.0080962675
253	0x3c7edb7e	0.015555261
254	0x3bbc7fdb	0.0057525462
255	0xbc533055	-0.012889941

layers.0.gcn_0.bias f4 [64]
0	0x3d951c0d	0.07280741
1	0x3d9ae5ed	0.07563386
2	0x3dcac6c4	0.09901193
3	0x3de5edff	0.11227035
4	0x3d57505d	0.052566875
5	0x3da9cdfe	0.08291243
6	0x3dbedefa	0.09319873
7	0x3d94636c	0.07245526
8	0x3d7a8b69	0.061168108
9	0x3d8f524d	0.069981195
10	0x3d9b44dc	0.07581493
11	0x3d9c2109	0.076234885
12	0x3d8f1aa0	0.069875
13	0x3d985717	0.07438486
14	0x3d53038c	0.051517054
15	0x3db28a9e	0.087178454
16	0x3d8aafb3	0.06771793
17	0x3d74748b	0.059681457
18	0x3da5675e	0.08076356
19	0x3d8e6c70	0.069542766
20	0x3d98a571	0.074534304
21	0x3d9fc1fc	0.078006715
22	0x3d66e87e	0.056374066
23	0x3dc07d1b	0.09398862
24	0x3da37f22	0.07983233
25	0x3d937435	0.07199899
26	0x3d9115f4	0.07084265
27	0x3d94f164	0.07272604
28	0x3da84219	0.08215732
29	0x3dad5ecd	0.084653474
30	0xbd2edc0e	-0.04269033
31	0x3d9db5bd	0.077006795
32	0x3dbbb768	0.09165841
33	0x3d7e9552	0.06215412
34	0x3db14189	0.08655078
35	0x3d56a121	0.05239976
36	0x3d95e7e3	0.073196195
37	0x3d9b7306	0.07590298
38	0x3d9ed7bd	0.077559926
39	0x3d96b1a3	0.073581
40	0x3d9d1aef	0.07671153
41	0x3da1bc8a	0.07897289
42	0x3da5d543	0.08097317
43	0x3d908ac4	0.070577174
44	0x3daff589	0.08591754
45	0x3d8164b5	0.063180365
46	0x3daaca2f	0.08339345
47	0x3d2c9f0f	0.042143878
48	0x3dba283f	0.090897076
49	0x3d6c3194	0.05766447
50	0x3d8d3efd	0.0689678
51	0x3d8be29f	0.06830334
52	0x3d38de8e	0.04513412
53	0x3dcf10b5	0.101106085
54	0xbd0c5325	-0.03425898
55	0x3d8cc9eb	0.0687445
56	0x3d5f5411	0.05452353
57	0x3d89cfa3	0.06729057
58	0x3d9b8e87	0.07595544
59	0x3db79a73	0.08965006
60	0x3d637946	0.055535577
61	0x3d33b13d	0.0438702
62	0x3de59797	0.11210554
63	0x3d962f23	0.07333209

layers.1.gcn_1.weight f4 [64, 7]
0	0x3f124cf9	0.571487
1	0x3f4b8ac5	0.7950862
2	0xbf31b012	-0.69409287
3	0x3f439d09	0.7641149
4	0xbf503019	-0.8132339
5	0xbf76f205	-0.9646304
6	0x3f0a886c	0.54114413
7	0xbf0727eb	-0.52795285
8	0x3f52aab4	0.8229172
9	0x3f3ba902	0.7330476
10	0x3f29eb69	0.6637483
11	0xbf39e1b6	-0.7261003
12	0xbf4a50fe	-0.79029834
13	0xbf0e41a8	-0.55568933
14	0xbf5e6e02	-0.8688661
15	0x3f48148f	0.7815637
16	0x3f1ceae6	0.61295927
17	0x3f3dcfe8	0.74145365
18	0x3e66bd2f	0.22533105
19	0xbf0288f5	-0.5099023
20	0xbf45b37c	-0.77226996
21	0xbf3541cb	-0.7080352
22	0xbf313919	-0.6922775
23	0x3f036ebe	0.51340854
24	0x3f44b6ed	0.7684162
25	0x3f324056	0.6962942
26	0xbf187f56	-0.595693
27	0x3f467bab	0.7753245
28	0x3ec6e5b7	0.38847134
29	0x3f61a311	0.88139445
30	0xbf167eab	-0.5878703
31	0xbf456835	-0.7711213
32	0xbf0cb809	-0.54968315
33	0x3f2c2714	0.6724713
34	0xbf076f61	-0.52904326
35	0x3eb84c1d	0.3599557
36	0x3f240eb7	0.64084953
37	0xbf50246c	-0.81305575
38	0x3f0f0966	0.55873716
39	0xbf5d652f	-0.8648252
40	0x3ec92972	0.39289433
41	0x3ef1c6ab	0.47221884
42	0x3d6b7269	0.057482157
43	0xbf457b4a	-0.7714125
44	0x3f31d841	0.694706
45	0x3f5abba9	0.85442597
46	0xbf4631f6	-0.77419984
47	0xbf5d0747	-0.8633923
48	0x3f4cad8a	0.799523
49	0xbf1c7b67	-0.611258
50	0xbf0cb8b2	-0.5496932
51	0x3f00e14e	0.5034379
52	0xbf08b1e0	-0.53396416
53	0x3f3fff19	0.74998623
54	0x3f588d32	0.84590447
55	0x3f2f0f54	0.68382764
56	0x3e5ea15d	0.21741243
57	0x3f4e99cd	0.8070343
58	0x3f4ade48	0.79245424
59	0xbf35f179	-0.71071583
60	0xbf432a8d	-0.762368
61	0x3f0ef69f	0.55845064
62	0xbf1f5bd5	-0.622495
63	0xbf0d89d1	-0.55288416
64	0x3f589790	0.84606266
65	0x3f380254	0.7187855
66	0x3f388192	0.7207271
67	0xbf2f2e68	-0.68430185
68	0xbf4f6b68	-0.81023264
69	0xbf17824d	-0.591832
70	0x3f5f26e0	0.87168694
71	0xbf1c2a5c	-0.61002135
72	0xbf12e0b7	-0.5737414
73	0x3f0959f4	0.5365288
74	0x3f4fee4d	0.81222993
75	0xbf32bd25	-0.6981986
76	0xbf0cef14	-0.55052304
77	0xbf5e04f2	-0.86726296
78	0xbf0a7e7a	-0.5409924
79	0xbf22341f	-0.6336078
80	0x3f088590	0.533288
81	0x3f334e62	0.7004148
82	0x3f421509	0.7581335
83	0x3f43b33d	0.7644537
84	0xbf23921b	-0.63894814
85	0x3f44b5c5	0.7683986
86	0xbf38bad7	-0.72160095
87	0x3eee236a	0.46511394
88	0x3f537ad0	0.8260927
89	0xbf5cff5e	-0.8632716
90	0xbf19b479	-0.60041004
91	0xbf085f41	-0.53270346
92	0x3f5a3e4f	0.85251325
93	0x3f278c3c	0.65448356
94	0xbf48886c	-0.78333163
95	0x3f2a04f5	0.66413814
96	0xbf492062	-0.7856504
97	0xbeff9088	-0.49914956
98	0xbf6b1c48	-0.9184003
99	0x3f5b95a4	0.8577521
100	0xbf34a1be	-0.705593
101	0xbf41ef72	-0.7575599
102	0xbe7ae2a7	-0.24500524
103	0x3f43ef98	0.76537466
104	0x3f5df584	0.8670275
105	0x3f223a99	0.6337066
106	0xbf3ef06e	-0.74585617
107	0x3f318a98	0.693521
108	0x3f40a4fa	0.75251734
109	0xbf339aac	-0.70157886
110	0x3f3bc2f3	0.73344344
111	0xbf4d4153	-0.801778
112	0x3f58c8e5	0.8468154
113	0xbeccc554	-0.399943
114	0x3f3aa28e	0.7290429
115	0xbf1a4798	-0.60265493
116	0xbf27bffe	-0.6552733
117	0xbf3fdcc8	-0.7494626
118	0x3f3f7ade	0.74796855
119	0xbf16818c	-0.5879142
120	0xbd8c539f	-0.06851887
121	0xbf0e5ab8	-0.55607176
122	0x3f1a7a92	0.6034328
123	0x3f42f3f9	0.7615352
124	0xbf03a486	-0.5142292
125	0xbf18f41c	-0.5974748
126	0x3f43c419	0.76471096
127	0xbf2d7098	-0.6774993
128	0xbf2b5661	-0.6692868
129	0x3f1ab939	0.6043888
130	0x3f40d626	0.75326765
131	0xbf349650	-0.7054186
132	0xbf2551d7	-0.64578
133	0x3f4e2184	0.8051989
134	0x3f440911	0.76576334
135	0xbf1869c6	-0.595364
136	0xbf6121ef	-0.87942404
137	0x3f5f54c1	0.872387
138	0xbf65236e	-0.89507186
139	0xbf35cd39	-0.7101627
140	0xbf5e6c46	-0.8688396
141	0xbf6641c3	-0.89944094
142	0xbf2d3ad3	-0.67667884
143	0x3f3ffbc2	0.74993527
144	0x3f187667	0.5955567
145	0x3f26ff12	0.65232956
146	0x3f4a5eec	0.7905109
147	0x3f1eb3ea	0.6199328
148	0x3f1384b2	0.5762435
149	0xbf3cd84a	-0.7376753
150	0x3f4cba18	0.79971457
151	0xbf735a4f	-0.95059675
152	0x3eefd5fe	0.4684295
153	0xbf384750	-0.71983814
154	0x3f5ee2a6	0.8706459
155	0x3f57d5f9	0.8431087
156	0xbf41599d	-0.75527364
157	0xbf5886a0	-0.8458042
158	0xbf1defd5	-0.6169408
159	0x3f4057bf	0.7513389
160	0xbf3d52cf	-0.7395448
161	0x3f306c3c	0.6891515
162	0xbf28e339	-0.65971714
163	0xbf2b579c	-0.66930556
164	0x3f1d0273	0.6133186
165	0x3f16a177	0.58840126
166	0xbf5839c0	-0.8446312
167	0x3f1ef73d	0.62096006
168	0x3f0eb6ee	0.5574788
169	0x3f3d20b9	0.73878056
170	0x3f24d074	0.64380574
171	0xbf4f777f	-0.8104171
172	0xbf1bfb13	-0.60929984
173	0xbf6046a2	-0.8760778
174	0x3f220df6	0.6330255
175	0xbf0e34bb	-0.5554921
176	0x3f0d4240	0.55179214
177	0x3f523fb9	0.82128483
178	0xbf584ab8	-0.8448901
179	0x3f5be429	0.8589502
180	0xbf3a1d52	-0.7270099
181	0xbf265afc	-0.6498258
182	0x3f2445a6	0.64168775
183	0x3f2bf17e	0.6716536
184	0x3ee2d90e	0.44306225
185	0xbf6436f0	-0.8914633
186	0x3f05e4f0	0.52302456
187	0xbf719747	-0.94371456
188	0xbf41dfc6	-0.75732076
189	0x3f674e83	0.90354174
190	0xbe5ccc34	-0.21562272
191	0x3f901f10	1.125948
192	0xbf7f7db1	-0.99801165
193	0xbf5d2e2f	-0.86398596
194	0x3f1ccd2a	0.61250556
195	0xbf6cf302	-0.925583
196	0xbf657b11	-0.8964091
197	0x3f3e0403	0.7422487
198	0x3f1a5366	0.60283506
199	0xbf51246c	-0.816962
200	0x3f2ac767	0.66710514
201	0x3f4dbde4	0.80367875
202	0xbf45817b	-0.77150697
203	0xbf0b584a	-0.54431593
204	0xbf18f248	-0.5974469
205	0x3f3d38ce	0.739148
206	0xbf3043da	-0.68853533
207	0x3f3e1224	0.7424643
208	0xbefbacc0	-0.49155235
209	0x3f42e999	0.7613769
210	0x37995337	1.8277771e-05
211	0x37a53874	1.969582e-05
212	0xb7d8174f	-2.576006e-05
213	0xb793177e	-1.7534705e-05
214	0xb8003167	-3.0563588e-05
215	0xb784650b	-1.5782678e-05
216	0xb72280ac	-9.685911e-06
217	0x3f24de91	0.6440211
218	0xbf4d045e	-0.8008479
219	0x3f1e4dbe	0.61837375
220	0xbf521109	-0.82057244
221	0x3f54a61d	0.8306597
222	0x3f037780	0.5135422
223	0xbf382997	-0.7193846
224	0x3f386b73	0.72038954
225	0xbf39d010	-0.72583103
226	0x3edc7c48	0.4306357
227	0xbf512129	-0.81691223
228	0x3f32b8f0	0.6981344
229	0xbf6043e8	-0.87603617
230	0x3f1e5053	0.61841315
231	0xbf589f18	-0.8461776
232	0xbf4720cf	-0.77784437
233	0x3f3b2cbc	0.73115134
234	0xbef1f791	-0.4725919
235	0xbf42c4b7	-0.76081413
236	0x3f38bfd4	0.72167706
237	0x3f516666	0.8179687
238	0xbf34687c	-0.7047193
239	0x3f424a5a	0.758947
240	0x3f22ab06	0.6354221
241	0x3e433aa5	0.1906534
242	0x3f253a3d	0.6454199
243	0xbf54de40	-0.83151627
244	0xbf1ec9db	-0.62026757
245	0xbf61dab5	-0.88224345
246	0xbf41e0de	-0.75733745
247	0xbef02af0	-0.4690776
248	0xbebd3c97	-0.3696029
249	0x3f9e4e73	1.2367691
250	0x3f9b1149	1.211465
251	0xbf4d52c2	-0.80204403
252	0x3f28e75d	0.6597803
253	0x3f59b7d1	0.85046107
254	0xbf181f33	-0.59422606
255	0x3f23e561	0.6402188

layers.1.gcn_1.bias f4 [7]
0	0x3e343f72	0.17602327
1	0xbebaa72b	-0.36455664
2	0xbef3aa61	-0.47590926
3	0x3ce7b2f0	0.028283566
4	0xbd5b1c58	-0.053493828
5	0x3ec577a7	0.3856785
6	0xbb56d8f0	-0.0032783113
