cache/pretrained/pretrained_99.pt (torch_old, 130085 bytes, 4 tensors)

layers.0.gcn_0.weight f4 [500, 64]
00000000: 6d8a 3a3e a6b1 df3c 36b4 92bd 972a 35be
00000010: ceb2 593e ed31 15be 0a86 d8bd 486f b7bd
00000020: 5aea d7bd d2dc c930 643b 2c3e d033 09be
00000030: 858d 18be 7bce 05be 0cd2 bf3d da60 f43d
00000040: 6651 513e bfb8 dabd 3f42 67bd ee12 503e
00000050: 7bca 7bbd 60c6 a8bd 566a 8bbd a2ae 9830
00000060: 24fd b43c cbb2 463d 19f0 b4bd f314 2f3e
00000070: 018f 0a3d 5ae0 373e 05a1 263e fe8f d8bd
00000080: a584 bd3c 3832 e6bc 1c2b 06be 3778 2abd
00000090: db68 203e 5c48 093e 7b97 a9bd d4aa 77bd
000000a0: 146e b63c de38 47bd 4769 2abe 1e37 44bb
000000b0: febe 003e c93b 3c3e cee1 7cbd 7696 15bd
000000c0: ef42 7bbc 8a87 393e 5dc1 14be 183a 6d3e
000000d0: d1fa fdbd 58dd e33d 2406 adbd b65d 6ab7
000000e0: 5350 503e 529e 153e 4443 8abd d498 ebbd
000000f0: 5df1 2f3e 5569 02be a2fb 373e ae72 47be
00000100: d4de b2bc b339 493a 9237 cf3b 54fe 393d
00000110: 0064 aabc 6491 f63c c877 723c 03ab e03c
00000120: 0104 113d f59e 48b0 5196 b5bc 1d6e 093d
00000130: 239f 173d c2d8 163d dd77 bcba 0581 72bc
00000140: 5f8a eabc 073a 7c3c 447e 9d3c 4d08 a3bc
00000150: 3c5b 7e3c 228d 9e3c 7665 7f3c a470 9c30
00000160: b040 413c 1462 02bc a44f b33c 0b43 c5bc
00000170: 543d 5cbb 1771 b1bc 3199 e4bc 5e3a 703c
00000180: b51c bab8 29a9 843c e742 1d3d a5b8 8a3c
00000190: 64cd a2bc cfb7 003c b604 913c 36a1 bf3c
000001a0: 7ff8 69ba 60ec 863c 7887 1f3d 9c34 32b0
000001b0: b87e 1cbc 0fe7 bdbc e88b 8d3c 8b23 4c3c
000001c0: 5d18 6e3b f4f1 ccbc 2789 ff3c 30b4 c4bc
000001d0: 2176 e53c 543a aeba 69eb 0f3d 119b 1730
000001e0: 7757 ccbc e0bc 1fbc 0228 0d3d d252 303d
000001f0: aad3 82bc b38b 423c 58e3 f2bc 001a 283d
00000200: 7023 b5bc d6fe 90bc f24b 54bb f617 043d
00000210: 890d 3abc d10b ef3c 286d 3f3d 5807 13bc
00000220: a8be fbbb 196e 01bc 5d93 31bc 9596 1b3d
00000230: 9757 4d3d bdf4 2c3d 1558 213d 404f 213d
00000240: 9d68 a3bc e6ff 553d 5c4f 82bc d576 6dbc
00000250: f24c 30bc e7ce 0bbd 8003 4ebc 3c77 4bae
00000260: adba 82bc 0055 c63c 740b ff3c 316f 55bc
00000270: 58a3 903c 90da b4bc 298e c8bc 5369 2d3d
00000280: abaa a7bc 9589 b7bb 811e 8a3d 11c7 443b
00000290: 45c7 6239 1a3b 23bc 1a7e 803d 545e b1bb
000002a0: 6a91 623d 7bb2 36bc dbed 113d 1a01 c339
000002b0: 3d35 dfbc b7b8 c6b9 071b 26bd e378 e33a
000002c0: 308e e33c d359 15bc cc11 063d 77df 8fbc
000002d0: b18d 463d 93fa bcbc 9573 10bc 8823 31b4
000002e0: 5e1d 88bc 2351 20bc e61b 7e3b 9c05 143d
000002f0: f6dc df3a 6006 543d ec63 b3bc 7ccc 193d
00000300: 0b21 873d 8510 6f3d fd09 333d 56b6 61bc
00000310: 3d1c a73c 8f3b 6fbd 80e8 9abd 8eb9 2a3d
00000320: 1944 6f3d 427e beb8 5621 db3c 9a06 143c
00000330: 43e7 10bd 7941 30bc d1f3 6fbd 9713 8bbd
00000340: cf08 293d 6a5b 5bbd 3abf 7d3d a9d0 273d
00000350: ed39 6e3d b8e4 893d 468b 423d 498e f2b0
00000360: 22e1 6e3d 6ab3 6bbd fad8 99bd be6d be3c
00000370: 8830 65bd cc90 113d 21bb c63c a364 6dbd
00000380: 6199 943d 3b07 563d c8cf abbd 7556 de3b
00000390: 9c3f 9dbc 74f7 8c3d 0a57 9cbd 41a3 543d
000003a0: 104c 8bbd 018d 4a3d 0aae b0bc b535 cdb9
000003b0: 4fcf a53d 92d7 2a3d b60c 963d 793e 973c
000003c0: 1a99 85bd 1f07 883a 7a7b 1fbd 4c32 803c
000003d0: d543 4bbd dc9f b73d bd77 783d 5d0f 2a32
000003e0: b78c a23c c4a7 763d 44ee 533d 2915 63bd
000003f0: 4a83 8d3c 413a 9cbd be0f 543d 803b a2bc
0.18216868 0.027306389 -0.07163279 -0.17692028 0.21259615 -0.14569826 -0.10572441 -0.08956772
-0.10542746 1.4687436e-09 0.1681953 -0.13398671 -0.14897735 -0.13067047 0.09366235 0.119325355
0.20441207 -0.10679769 -0.05645966 0.20319721 -0.061472397 -0.08240962 -0.06807391 1.1109089e-09
0.022093363 0.048510354 -0.088348575 0.17097835 0.033827785 0.17956677 0.16272362 -0.10574339
0.023134539 -0.028100118 -0.13102382 -0.041618552 0.15664999 0.13406509 -0.08280846 -0.06046565
0.022269286 -0.048638217 -0.16641723 -0.002994008 0.12572858 0.18382181 -0.06173878 -0.036520444
-0.015335782 0.1811811 -0.14526887 0.23166692 -0.12401355 0.11126202 -0.08448437 -1.3969306e-05
0.20343141 0.14611176 -0.06751111 -0.11503759 0.17181917 -0.12735493 0.17967084 -0.1947734
-0.021834768 0.00076761394 0.006323763 0.04540856 -0.020799637 0.030098625 0.014799066 0.027425295
0.03540421 -7.298547e-10 -0.022166403 0.033552278 0.037017 0.03682781 -0.0014378984 -0.0148012685
-0.028630434 0.015394694 0.019225247 -0.019901419 0.015524682 0.019354407 0.015588155 1.1382508e-09
0.011795208 -0.007957954 0.021888562 -0.02407982 -0.003360589 -0.02166037 -0.027905079 0.014662353
-8.874518e-05 0.016193943 0.03839388 0.016933748 -0.019873329 0.007856323 0.017702442 0.023392301
-0.00089252734 0.016470134 0.038947552 -6.4830785e-10 -0.0095516965 -0.023181466 0.017278627 0.012459646
0.003633044 -0.025017716 0.031193329 -0.024011701 0.02801043 -0.001329253 0.035136614 5.515384e-10
-0.02494405 -0.009749621 0.034461983 0.043047734 -0.01597007 0.011874127 -0.029649422 0.04104042
-0.022111624 -0.01769964 -0.00323939 0.032249413 -0.011355766 0.02918044 0.04673496 -0.008973919
-0.00768264 -0.0078997845 -0.010838357 0.037985403 0.05013236 0.042225588 0.039390642 0.03938222
-0.019947344 0.052245997 -0.015906982 -0.014493664 -0.010760533 -0.034132864 -0.012574077 -4.6262758e-11
-0.015958155 0.024210453 0.031133391 -0.013026998 0.017656013 -0.022076875 -0.02448185 0.042336773
-0.020467123 -0.005601118 0.067440994 0.003002588 0.00021627273 -0.009962821 0.06274052 -0.005412856
0.05531446 -0.0111509515 0.035627227 0.0003719412 -0.027247066 -0.00037903126 -0.04055312 0.0017354753
0.027777761 -0.009115654 0.032731816 -0.017562611 0.04847497 -0.023068702 -0.008816619 -1.6497336e-07
-0.016615566 -0.0097849695 0.0038773953 0.036138162 0.0017079401 0.051763892 -0.021898232 0.037548527
0.06598099 0.058365364 0.043710697 -0.013776382 0.020399207 -0.05840641 -0.07563877 0.041680865
0.058414552 -9.083423e-05 0.026749294 0.009034777 -0.0353768 -0.010757797 -0.05858213 -0.06790846
0.041268166 -0.053553976 0.061949946 0.04097048 0.05816071 0.06733078 0.047496103 -1.7648257e-09
0.058320172 -0.05754415 -0.07512088 0.023245689 -0.055954486 0.03553848 0.024259152 -0.057957303
0.07255817 0.05225299 -0.083892405 0.006785209 -0.01919537 0.068831354 -0.07633789 0.051913504
-0.06801617 0.049450878 -0.021567363 -0.00039140662 0.080961816 0.04170949 0.07326643 0.018462406
-0.065233424 0.0010378099 -0.038936116 0.015648983 -0.049625237 0.08966038 0.060661066 9.898796e-09
0.019842489 0.060218588 0.0517409 -0.0554401 0.017274518 -0.076282986 0.051772825 -0.019803762

layers.0.gcn_0.bias f4 [64]
00000000: 803a a73d e9c8 803d 3763 133d 6682 023e
00000010: 4e2a c73d a21b b73d 1251 5e3d b0e6 ce3c
00000020: d5bc 1f3d 1605 92bc a93e ac3d 3617 cf3d
00000030: ad52 e23d 5fb6 bc3d 1bf5 103e e8b4 173e
00000040: fe7b dc3d fcbb 973d 2348 503d cba1 c03d
00000050: 99d9 793c 3602 d73c 0e92 073d 60fe 3ebb
00000060: e50f 813d a1bb 0b3e 0e6e c83d aba3 c13d
00000070: 5bb6 183e ba01 ab3d 4e1d cc3d b9e9 813d
00000080: 8f17 653d 424b 153d 2a7c b73d fe27 eb3c
00000090: 25ae 153e da00 bc3d 9525 c03d 1802 123d
000000a0: 3d6b 113e 4dc6 083d bd51 c03d ad5c e6bc
000000b0: 10e2 ce3d d969 ed3d 930a f33c b508 d039
000000c0: 373a e03d daa9 d83d 531c e43d ae16 d63d
000000d0: be9e 8d3d 365a be3d 78aa 323d 87da 1dbc
000000e0: ee44 c43d f1b1 c63d 071b 963c 3837 d03d
000000f0: 87c8 b73d fe32 873d dabd cc3d d37d 063e
0.08165455 0.062883206 0.03598329 0.12745056 0.09724866 0.089408174 0.054276533 0.025256485
0.038998444 -0.01782469 0.08410389 0.10111849 0.110509254 0.09214472 0.14156 0.14815104
0.10765837 0.07408902 0.050850045 0.094058596 0.015249633 0.026246171 0.033098273 -0.0029143319
0.0630186 0.13645793 0.09786616 0.09455045 0.14913313 0.08349939 0.09966527 0.06343407
0.05593067 0.036448725 0.08959229 0.028705593 0.14617212 0.0917985 0.09382168 0.035646528
0.14201064 0.03339224 0.0939059 -0.028120363 0.10101712 0.115924545 0.029668128 0.0003967934
0.109486036 0.105792716 0.11138215 0.104535446 0.06915043 0.0929455 0.043619603 -0.0096346205
0.0958346 0.097019084 0.018323435 0.10166782 0.089737944 0.06601523 0.09997149 0.13133936

layers.1.gcn_1.weight f4 [64, 3]
00000000: e328 d53e 00cb fd3d 750d eebe aec7 ca3d
00000010: 6645 c13e dadb 9ebe 83f3 35be 57fd cb3e
00000020: 84bc 47be dbb7 f8be bcfc 453e fdfa a43e
00000030: 9f9e fe3e 7a67 6dbe a53c 7cbe 369e a8be
00000040: 6e99 75bd 11c0 dd3e 857a 8cbe dd33 98be
00000050: 5e35 0f3f 2cb4 40be 11b8 d13e 422e 77be
00000060: ef14 acbe 2bcb 003f c850 b6be 7394 d2af
00000070: 0400 11ba aae9 8f39 8f76 b33e dddc 8bbe
00000080: 58cd 9fbe 5a7c f4be 6fb5 9b3e 878b 123e
00000090: e9ec c0be c78c dfbb da58 dc3e f59b e4be
000000a0: 19d2 3f3e e2ed 933e fc90 2b3e 9684 15bf
000000b0: 891b 9d3e 16f1 9a3e c290 07bf df6d a63e
000000c0: 54b5 063f f09c 7abe ba0e 9dbe 9b3b bdbe
000000d0: aabb 61be 7f26 a43e dcbd 0cbe eb9f 033f
000000e0: c7be c4be e121 c23e 6106 9ebe cd40 6dbe
000000f0: 07c3 1cbe 62fa ea3e a8cd 80be a0d7 73be
00000100: ff6f fe3e 9017 b3be 038e e2bd 5d94 f73e
00000110: a447 71be 199f 46b2 d42c b031 403b ddb0
00000120: 27de f33d 57eb ba3e 11de 43be 26e9 af3d
00000130: 2b28 f0be 4d6c 833e f348 30be fa90 eabe
00000140: f0fe 103f 99e4 c73e d66e 1fbe f358 89be
00000150: 59bd cb3d aaa8 dfbe 75df a63e 30df 003f
00000160: 9087 2ebe 6478 c7be 532d c43e a41e 38be
00000170: dbd3 6fbe 6039 96be 5dfa a8be 40a4 ba3e
00000180: 54f0 db3c 15d8 b23e bb85 e2be e896 3fbd
00000190: f1ea 923e 390f 8ebe aa34 dabe ffdb 8ebe
000001a0: 6f8f 143f b41b 1bbe 972f 033e 94f3 37bd
000001b0: d0ac bb3e cc01 d7be 3e1b 103e 461c b73e
000001c0: b63b 863e 3fac f3be 9051 77be 6dbf febe
000001d0: 9b3b f63e b2a2 79be e163 ab3e cf35 aabe
000001e0: 99a1 bd3d 8e7c 07bf 3714 f53e 48b3 d1bd
000001f0: dd18 d83e 2117 bdbe eb53 ebbe 6f76 b53d
00000200: a08c 3f3e 0f8d c6bb 7d8d 0b32 fe53 aa39
00000210: 78ee 923e ed55 a83e 229d 08bf 9799 dc3e
00000220: 1876 14be 91a3 78be 0b0c 73be a9a3 fc3e
00000230: 6ec9 acbe 9b59 e3bd 192d 3c3e ab4b bfbd
00000240: daa8 883d ed05 acbe cf7b ec3e 039b fb3e
00000250: ec1a b3be fc46 12be ee19 b9be 33e9 093e
00000260: ed55 c43e 1785 063f 8083 70be 6995 97be
00000270: ece6 98be 0519 08be fcfe f73e 8418 733e
00000280: bd5b c23e 13dc 02bf 0d6b 94be 728e 0a3f
00000290: 8733 8dbe e9d6 5f31 bcf4 e7b5 5aaa dbb2
000002a0: f770 dc3e 7557 92be 33dc b3be 98b2 be3e
000002b0: 6611 fa3d 1809 c6be 3f3a 47be 6082 ce3e
000002c0: 57dc 69be 10ed 08bf 86dc 8d3d f103 d83e
000002d0: c3c4 ba3e 04ef 33be 44e2 78be 09aa bfbe
000002e0: bcab 5dbe 343f f13e 28a7 cd3e 3454 cfbd
000002f0: 8274 f9be 0a54 e7be 5f23 853e 17d8 d13e
0.41632757 0.12392235 -0.46494642 0.09901367 0.3774826 -0.31027108 -0.17768674 0.3984172
-0.19505507 -0.4857777 0.19334692 0.3222274 0.49730393 -0.23184004 -0.24632509 -0.32933205
-0.059960775 0.43310598 -0.27437225 -0.2972707 0.55940807 -0.1881873 0.40960744 -0.2413874
-0.3360972 0.5031001 -0.35608506 -3.8304257e-10 -0.00055313134 0.0002744918 0.3505139 -0.27316943
-0.31211352 -0.47751123 0.3041186 0.14311038 -0.37680748 -0.006822202 0.43036538 -0.44650236
0.1873249 0.28892428 0.16754526 -0.58405435 0.3068507 0.3026206 -0.5295526 0.325057
0.52620435 -0.2447393 -0.30675298 -0.36959538 -0.22044244 0.3206062 -0.137443 0.5141589
-0.38426802 0.37916473 -0.30864242 -0.23169251 -0.15308772 0.45894152 -0.25156903 -0.23812723
0.4969482 -0.34978914 -0.11062243 0.4835538 -0.23562485 -1.15612915e-08 5.1273705e-09 -1.6096706e-09
0.119076066 0.36507675 -0.1912768 0.085893914 -0.46905646 0.25668564 -0.17215328 -0.45813733
0.56639004 0.39041594 -0.15569624 -0.26825675 0.099482246 -0.43683368 0.3259236 0.5034056
-0.170439 -0.38959038 0.3831583 -0.17980438 -0.2342066 -0.2934065 -0.33003512 0.36453438
0.026847996 0.34930483 -0.44242653 -0.046774775 0.2869487 -0.2774599 -0.42618304 -0.2790222
0.5803136 -0.15147287 0.12811123 -0.04491003 0.36655283 -0.41993558 0.14072892 0.35763758
0.2621743 -0.4759235 -0.24152207 -0.4975542 0.4809235 -0.2437847 0.3347464 -0.33244178
0.09259338 -0.5292443 0.47866985 -0.10239273 0.4220647 -0.36931708 -0.45962462 0.0886048
0.18705988 -0.006059296 8.123036e-09 0.00032487506 0.28697562 0.32878056 -0.53364766 0.4308593
-0.14498174 -0.24281146 -0.23735063 0.49343613 -0.3374743 -0.11101075 0.18376578 -0.093406044
0.06672831 -0.3359827 0.46188208 0.49141702 -0.34981477 -0.14284891 -0.36152595 0.13467865
0.38346806 0.5254683 -0.23487663 -0.29606178 -0.2986368 -0.13290794 0.48436725 0.2373982
0.37960616 -0.51117057 -0.28987923 0.54123604 -0.27578375 3.2572933e-09 -1.7282068e-06 -2.5572422e-08
0.43054935 -0.2858235 -0.35128936 0.3724563 0.1221035 -0.38678813 -0.19455813 0.40333843
-0.22837959 -0.5348673 0.06926827 0.42190507 0.36478242 -0.17571646 -0.24305063 -0.37434414
-0.21647543 0.47118533 0.40166593 -0.10123482 -0.487217 -0.45181304 0.26003549 0.40985176

layers.1.gcn_1.bias f4 [3]
00000000: ed75 173e d027 4bbe 81cc f43d
0.14791079 -0.19839406 0.119530685
