cache/pretrained/pretrained_10.pt (torch_old, 740152 bytes, 4 tensors)

layers.0.gcn_0.weight f4 [2879, 64]
-0.0060750702 -0.022100843 -0.011021794 0.026810737 -0.021199401 -0.012448299 -0.00956837 0.016601315
-0.030966789 -0.03706379 0.01011753 0.030604824 0.011756226 0.011535581 0.010957584 -0.0232472
-0.006900294 0.01711238 0.012120303 0.0071215807 0.027952526 -0.03348286 -0.010213928 0.023492247
-0.00905742 0.011960239 -0.0028694056 -0.021463977 0.006305466 0.031303484 0.019125827 0.012651659
0.015578208 -0.00468818 0.004664823 0.024593655 -0.0074060443 -0.030413162 0.017120706 0.0104338555
-0.0062235757 0.02035205 -0.027782883 -0.00097571255 -0.022484548 -0.015378258 -0.008773876 0.007256916
0.0028179397 0.025658814 -0.016711824 0.020714572 0.007079923 0.008374284 0.016628765 0.01628178
0.024625545 0.0038333966 0.005494504 -0.030043503 0.006964524 -0.003891179 0.014850647 0.0076625682
-0.0141024925 0.026247032 0.013107092 0.009089581 -0.024148257 -0.039648797 0.032545906 -0.018104235
0.0072704884 0.011626682 0.010941008 -0.034365475 -0.014612957 0.03488374 -0.046989232 0.02350123
0.033682574 0.0076740026 0.019059928 0.0057373894 -0.021600924 -0.02713117 -0.02137953 0.0144814635
0.027878858 0.012391887 0.02524814 0.03363965 -0.01589423 0.043044064 0.038353905 0.020224458
0.048438814 -0.0067150206 0.03046286 -0.038796525 -0.0145684015 0.0052243005 0.006301325 0.0143377585
0.02278357 -0.008273967 -0.012524207 -0.0014837475 0.021065673 -0.050884932 0.033144664 0.0072698407
-0.05587672 -0.03383034 0.020810662 -0.025305385 -0.0543388 0.054213457 -0.029361242 -0.018090153
-0.0013736207 0.018314835 0.020609189 0.015859721 0.019446762 -0.015864039 0.030136429 0.024733935
0.0008728907 0.0071538305 0.005738371 0.0046692584 -0.0044832374 0.0009617194 0.004871008 -0.007591287
0.00094586716 0.015144667 0.007989313 0.0024544306 0.007525503 -0.0063709877 -0.02185664 0.002286679
-0.006034871 0.010551622 0.013505686 -0.0027013845 0.007882153 0.008985024 -0.014076727 0.005277506
-0.01431802 0.001436921 -0.00061619055 -0.005428095 -0.0013476748 0.0014777806 -0.0065018306 -0.00467158
-0.0060674693 0.00030080855 0.004635316 -0.0028813295 -0.0017709329 0.011085811 0.013158604 0.000657303
0.0012524048 0.01474885 -0.0032366964 -0.011913354 0.010068603 0.008667619 -0.00059620786 -6.5973356e-05
-0.0017563206 -0.016620224 -0.00054781133 -0.0097517995 -0.01044823 0.0132248495 -0.00014285874 -0.004757558
-0.011854188 -0.006617423 0.006242663 0.006699275 -0.0037737351 -0.0052625607 0.004940998 0.010534597
-0.009141588 -0.0067538708 -0.021283396 -0.0013953932 -0.00030915323 -0.008507071 0.009009402 0.001137241
-0.0017119845 -0.007124199 0.011847604 0.010299639 -0.008256128 -0.0005065901 -0.01253024 0.0072026374
0.008433781 0.009959006 0.023510842 0.0150410915 0.009917935 -0.0079405075 -0.00334772 0.019209363
-0.0072422153 -0.002314579 0.0067070285 0.003112699 -0.0026527848 0.00373578 0.012034149 0.020159775
0.016380433 0.0022392946 -0.00092797406 0.0015062746 -0.0058781332 -0.002717946 0.0024454007 0.0017001529
-0.0009862763 0.008695756 -0.0034017328 -0.0101932045 0.011025802 -0.0022405807 0.0011440243 0.00792283
-0.0054925713 -0.0044167796 0.0072341696 0.02054949 -0.012258764 0.026025133 0.009904712 0.01309378
0.007491638 -0.0024104472 -0.00071820366 -0.015685713 0.009579478 0.015375531 0.014217446 -0.016789488
00000000: 6211 c7bb d40c b5bc c194 34bc 31a2 db3c
00000010: 5eaa adbc f3f3 4bbc a7c4 1cbc 7bff 873c
00000020: 10ae fdbc 33d0 17bd ffc3 253c f8b6 fa3c
00000030: 309d 403c bcff 3c3c 7087 333c e970 bebc
00000040: dd1b e2bb 432f 8c3c 3c94 463c 265c e93b
00000050: b2fc e43c 5325 09bd 5258 27bc d072 c03c
00000060: 9365 14bc e1f4 433c a30c 3cbb 39d5 afbc
00000070: 159e ce3b 1538 003d c4ad 9c3c e748 4f3c
00000080: bd3b 7f3c 4e9f 99bb 5fdb 983b a278 c93c
00000090: 67ae f2bb 0625 f9bc b940 8c3c c3f2 2a3c
000000a0: 23ef cbbb 58b9 a63c ee98 e3bc f6c6 7fba
000000b0: 8431 b8bc 17f5 7bbc 4ec0 0fbc 6ccb ed3b
000000c0: 2fad 383b 6f32 d23c 3ce7 88bc 9bb1 a93c
000000d0: b3fe e73b 4b34 093c 0c39 883c 5e61 853c
000000e0: 83bb c93c b939 7b3b 3d0b b43b cb1d f6bc
000000f0: a936 e43b 2703 7fbb 2150 733c 4816 fb3b
00000100: 240e 67bc 0404 d73c 21bf 563c 77ec 143c
00000110: 91d2 c5bc c766 22bd db4e 053d 554f 94bc
00000120: 473d ee3b d77d 3e3c ea41 333c d0c2 0cbd
00000130: 2f6b 6fbc 41e2 0e3d c877 40bd a785 c03c
00000140: bdf6 093d 3376 fb3b 9123 9c3c b600 bc3b
00000150: 6cf4 b0bc 3042 debc 2024 afbc a943 6d3c
00000160: 3462 e43c 5707 4b3c 30d5 ce3c bbc9 093d
00000170: 9e34 82bc f94e 303d fc18 1d3d c3ad a53c
00000180: c767 463d ad09 dcbb 3f8d f93c 1be9 1ebd
00000190: 4eb0 6ebc 9c30 ab3b 587b ce3b ebe8 6a3c
000001a0: 9ca4 ba3c 888f 07bc 5532 4dbc 4e7a c2ba
000001b0: eb91 ac3c b86c 50bd b3c2 073d d837 ee3b
000001c0: fdde 64bd af91 0abd 1f7b aa3c 3d4d cfbc
000001d0: 5d92 5ebd ee0e 5e3d fd86 f0bc cd31 94bc
000001e0: 100b b4ba fe08 963c 9ad4 a83c 3fec 813c
000001f0: d14e 9f3c 4df5 81bc ace0 f63c d29e ca3c
00000200: b4d2 643a ae6a ea3b f208 bc3b 9400 993b
00000210: 1fe8 92bb e51b 7c3a fa9c 9f3b 55c0 f8bb
00000220: 12f4 773a 5621 783c 9ce5 023c 83da 203b
00000230: 7f98 f63b b8c3 d0bb b20c b3bc 1cdc 153b
00000240: 2bc0 c5bb b6e0 2c3c f446 5d3c b609 31bb
00000250: 2524 013c ec35 133c 13a2 66bc eeee ac3b
00000260: 2196 6abc 1157 bc3a d987 21ba 29de b1bb
00000270: 76a4 b0ba 17b2 c13a 4f0d d5bb 0e14 99bb
00000280: 9fd1 c6bb d7b5 9d39 d9e3 973b b0d4 3cbb
00000290: a61e e8ba 43a1 353c 2f97 573c dc4e 2c3a
000002a0: bb27 a43a 29a5 713c c11e 54bb 3a30 43bc
000002b0: c8f6 243c a102 0e3c d54a 1cba 2d5b 8ab8
000002c0: 5734 e6ba 2327 88bc ff9a 0fba 03c6 1fbc
000002d0: 0e2f 2bbc 0aad 583c 5acc 15b9 4ae5 9bbb
000002e0: 1138 42bc f8d6 d8bb 418f cc3b 9885 db3b
000002f0: c550 77bb 8f71 acbb 18e8 a13b 4d99 2c3c
00000300: 99c6 15bc 934f ddbb 845a aebc a0e5 b6ba
00000310: d815 a2b9 3e61 0bbc 2c9c 133c 7a0f 953a
00000320: ab64 e0ba 1d72 e9bb 741c 423c d1bf 283c
00000330: b644 07bc b0cc 04ba a34b 4dbc 1a04 ec3b
00000340: d72d 0a3c 192b 233c cf99 c03c e96e 763c
00000350: d67e 223c e718 02bc 6c65 5bbb f45c 9d3c
00000360: 1b50 edbb 31b0 17bb a2c6 db3b 6cfe 4b3b
00000370: 58da 2dbb fdd3 743b e12a 453c 1d26 a53c
00000380: 4230 863c 21c1 123b 4943 73ba 306e c53a
00000390: 5b9d c0bb 911f 32bb 0443 203b aad7 de3a
000003a0: f145 81ba a578 0e3c 9bef 5ebb 6601 27bc
000003b0: 91a5 343c b5d6 12bb 16f3 953a c2ce 013c
000003c0: 07fb b3bb a2ba 90bb 9d0c ed3b 6757 a83c
000003d0: fcd8 48bc a932 d53c 6047 223c 4b87 563c
000003e0: 6a7c f53b 98f8 1dbb d545 3cba 537f 80bc
000003f0: 3ef3 1c3c a7e9 7b3c 4af0 683c 1c8a 89bc

layers.0.gcn_0.bias f4 [64]
0.062022794 0.06957761 0.09162916 0.06866051 0.05552309 0.07335696 0.10845442 0.051759787
0.05738392 0.064811006 0.07419567 0.06999002 0.05023072 0.05269991 0.025360767 0.09266609
0.062773965 0.050011266 0.06946504 0.041054882 0.0696918 0.068243384 0.03461189 0.07098701
0.051360045 0.05407987 0.071785174 0.056959737 0.07691461 0.06838274 0.06039846 0.090077475
0.087628156 0.06311996 0.07466372 0.030133886 0.061114747 0.06585438 0.058832586 0.05849923
0.05223343 0.07878937 0.08214909 0.06323948 0.10124023 0.045088094 0.09079774 0.06620774
0.05920405 0.02501507 0.06710169 0.056227747 0.02646181 0.105740994 0.050822977 0.051884387
0.048032075 0.05271653 0.055494383 0.077304065 0.058795 0.03756343 0.098744236 0.07377974
00000000: 9d0b 7e3d b57e 8e3d 12a8 bb3d e29d 8c3d
00000010: 2e6c 633d 2d3c 963d 5a1d de3d 1202 543d
00000020: 670b 6b3d a2bb 843d e6f3 973d ed56 8f3d
00000030: babe 4d3d dcdb 573d 62c1 cf3c b8c7 bd3d
00000040: a38f 803d 9dd8 4c3d b043 8e3d 2a29 283d
00000050: 93ba 8e3d 30c3 8b3d 32c5 0d3d a361 913d
00000060: e95e 523d db82 5d3d 1b04 933d 9d4e 693d
00000070: 6885 9d3d 400c 8c3d 6064 773d 8a7a b83d
00000080: 6476 b33d 0a45 813d 4be9 983d 57db f63c
00000090: 7553 7a3d a9de 863d 70fa 703d e39c 6f3d
000000a0: b9f2 553d 525c a13d c83d a83d b383 813d
000000b0: 0a57 cf3d 4bae 383d 2af4 b93d ec97 873d
000000c0: f27f 723d 67ec cc3c 9c6c 893d 114f 663d
000000d0: 70c6 d83c bc8e d83d c12b 503d b984 543d
000000e0: 48bd 443d 4aed 573d 144e 633d 9851 9e3d
000000f0: 07d3 703d 1cdc 193d 6b3a ca3d d519 973d

layers.1.gcn_1.weight f4 [64, 7]
0.56865656 0.871238 -0.7657173 0.7659089 -0.9233978 -1.0953125 0.7884136 -0.50683624
0.87350637 0.7632657 0.773154 -0.75250447 -0.8387697 -0.49734056 -0.8682034 0.80366874
0.4789642 0.87506855 0.27913058 -0.7904787 -0.77022904 -0.7911348 -0.6997019 -0.33405373
0.86027515 0.84670687 -0.5933924 0.79249597 -0.015353442 0.8736107 -0.5866046 0.18463343
-0.68898636 0.7093931 -0.63401335 0.3242904 0.6224837 -0.8514123 0.5459339 -0.96157056
0.31558737 0.4375009 0.187119 -0.7762371 0.7895407 0.81858355 -0.8644995 -0.9055762
0.80493873 -0.79788905 -0.6981022 0.060942315 -0.6352883 0.80181086 0.9413123 0.6857794
0.16299412 0.7702287 0.75507593 -0.7490602 -0.7467769 0.5901536 -0.62967217 -0.567843
0.84238124 0.7657114 0.8609714 -0.7326184 -0.8047654 -0.5319518 0.98305017 -0.63863176
-0.5075839 0.5684231 0.8828606 -0.76067334 -0.65170527 -1.022364 -0.82210773 -0.76722777
0.735145 0.6752576 0.80677545 0.78083205 -0.7280048 0.9295767 -0.70178133 0.71231884
0.9100388 -0.84027755 -0.6137178 -0.46625626 0.9206523 0.7729685 -0.7848319 0.74594754
-0.87737375 -0.4673398 -0.9334091 0.9311724 -0.76815456 -0.6793516 -0.49467534 0.8214057
0.9773898 0.5650103 -0.8903821 0.6628894 0.82757264 -0.80724776 0.76214135 -0.8316546
0.9431134 -0.4041047 0.8127949 -0.64561945 -0.6708987 -0.8733291 0.7303383 -0.6264754
-0.5123996 -0.4024343 0.8302824 0.93295133 -0.09872418 -0.6068734 0.88888204 -0.668468
-0.56428254 0.6588799 0.77486885 -0.6983614 -0.7001523 0.9411662 0.91675097 -0.5625603
-0.8636328 0.9065296 -0.9561102 -0.723583 -0.97234434 -0.9349122 -0.77666414 0.77442116
0.6153071 0.6709586 0.8335898 0.6679507 0.61547476 -0.7297802 0.8482165 -1.0358763
0.4096443 -0.7887862 0.8569944 0.98060155 -0.6584993 -0.81119347 -0.67708963 0.81255394
-0.7328887 0.715464 -0.67431206 -0.6741136 0.6362693 0.4559937 -0.91700363 0.59000915
0.18827799 0.94554955 0.69550836 -0.80346787 -0.77521706 -0.95391744 0.72563416 -0.52033097
0.8846434 0.85995454 -0.83774614 0.9285269 -0.87763226 -0.6245781 0.7928743 0.78254825
0.60838985 -0.9077677 0.3824107 -1.1153687 -0.72855216 0.92759657 0.061987735 0.95406544
-0.8987143 -0.9347279 0.60414064 -0.7213598 -0.9927967 0.5650049 0.53981215 -0.42809486
0.54820496 0.81785846 -0.85046345 -0.65740144 -0.59446067 0.76713645 -0.69136864 0.7740938
-0.46185014 0.7994892 -0.69379824 -0.6759078 0.88325864 -0.7026471 0.83834636 -0.638589
0.7927257 0.676558 -0.86941415 0.67929435 -0.8624041 0.7950857 0.51355416 -0.80809677
0.7582452 -0.69661987 0.49049965 -0.83922887 0.706407 -0.9499159 0.56245506 -0.8570445
-0.7522951 0.8653735 -0.4240578 -0.73564047 0.81852174 0.80898887 -0.7195675 0.7700698
0.6299214 0.404397 0.63460493 -0.89132714 -0.7614481 -0.865039 0.5521835 -0.61597055
-0.7038509 1.0622987 1.0263529 -0.72220033 0.4180225 0.9187765 -0.7660329 0.6972765
00000000: 7a93 113f 7409 5f3f 0d06 44bf 9b12 443f
00000010: cc63 6cbf 3333 8cbf 79d5 493f 05c0 01bf
00000020: 1d9e 5f3f 6265 433f 6ced 453f 22a4 40bf
00000030: 9cb9 56bf 6ca3 febe 9442 5ebf 3cbd 4d3f
00000040: cc3a f53e 7e04 603f 34ea 8e3e d05c 4abf
00000050: bb2d 45bf cf87 4abf aa1f 33bf 1709 abbe
00000060: fe3a 5c3f c8c1 583f 90e8 17bf 04e1 4a3f
00000070: 018d 7bbc f3a4 5f3f b82b 16bf 8c10 3d3e
00000080: 6961 30bf c99a 353f b34e 22bf 6409 a63e
00000090: 175b 1f3f 28f6 59bf 53c2 0b3f 7d29 76bf
000000a0: ab94 a13e 1e00 e03e 209c 3f3e 79b7 46bf
000000b0: 571f 4a3f b18e 513f d74f 5dbf d8d3 67bf
000000c0: 7710 4e3f 7542 4cbf d3b6 32bf a69e 793d
000000d0: 41a2 22bf 7a43 4d3f d8f9 703f 3d8f 2f3f
000000e0: eee7 263e b52d 453f a84c 413f 69c2 3fbf
000000f0: c52c 3fbf 4e14 173f 3232 21bf 295e 11bf
00000100: 4ca6 573f aa05 443f 9f68 5c3f e18c 3bbf
00000110: 1b05 4ebf fe2d 08bf 2da9 7b3f 5f7d 23bf
00000120: 05f1 01bf 2d84 113f 2703 623f 7dbb 42bf
00000130: 28d6 26bf d3dc 82bf a775 52bf 0a69 44bf
00000140: 7632 3c3f afdd 2c3f d688 4e3f 9ce4 473f
00000150: 865e 3abf bdf8 6d3f f1a7 33bf 875a 363f
00000160: 4ef8 683f 6e1c 57bf 9c1c 1dbf 24b9 eebe
00000170: deaf 6b3f 43e1 453f beea 48bf 6bf6 3e3f
00000180: 919b 60bf 2a47 efbe e6f3 6ebf 5061 6e3f
00000190: c7a5 44bf fde9 2dbf 1646 fdbe a547 523f
000001a0: 3836 7a3f 84a4 103f 15f0 63bf 1fb3 293f
000001b0: cddb 533f caa7 4ebf b21b 433f 51e7 54bf
000001c0: e16f 713f d0e6 cebe 5413 503f 5147 25bf
000001d0: 04c0 2bbf 7f92 5fbf 73f7 3a3f b160 20bf
000001e0: 9f2c 03bf de0b cebe 638d 543f e6d5 6e3f
000001f0: e72f cabd 0e5c 1bbf c68d 633f b820 2bbf
00000200: d274 10bf 5aac 283f ce5d 463f d0c7 32bf
00000210: 2e3d 33bf 45f0 703f 31b0 6a3f f403 10bf
00000220: 0a17 5dbf 5312 683f a3c3 74bf bc3c 39bf
00000230: 8feb 78bf 6856 6fbf 76d3 46bf 7740 463f
00000240: c484 1d3f f1c3 2b3f 2466 553f d1fe 2a3f
00000250: c18f 1d3f e0d2 3abf b724 593f 9897 84bf
00000260: e6bc d13e e4ed 49bf fc63 5b3f b408 7b3f
00000270: 6993 28bf 60aa 4fbf bf55 2dbf 8903 503f
00000280: 989e 3bbf a628 373f b79f 2cbf b592 2cbf
00000290: 8be2 223f 0278 e93e c0c0 6abf d70a 173f
000002a0: f2cb 403e 890f 723f d60c 323f 12b0 4dbf
000002b0: a074 46bf ef33 74bf 29c3 393f 6934 05bf
000002c0: fd77 623f fb25 5c3f 8876 56bf f0b3 6d3f
000002d0: 82ac 60bf 5ae4 1fbf cff9 4a3f 1555 483f
000002e0: 70bf 1b3f 7763 68bf 56cb c33e 67c4 8ebf
000002f0: 6582 3abf f876 6d3f dae6 7d3d a23d 743f
00000300: 2412 66bf 544a 6fbf f6a8 1a3f 09ab 38bf
00000310: ed27 7ebf 29a4 103f 2131 0a3f 402f dbbe
00000320: 2957 0c3f 2c5f 513f f9b7 59bf 764b 28bf
00000330: 932e 18bf 0e63 443f 89fd 30bf 032b 463f
00000340: 9f77 ecbe 53ab 4c3f c39c 31bf 4b08 2dbf
00000350: 3d1d 623f aee0 33bf de9d 563f 927a 23bf
00000360: 12f0 4a3f e832 2d3f ed91 5ebf 3ce6 2d3f
00000370: 84c6 5cbf bd8a 4b3f 4978 033f 6edf 4ebf
00000380: 5c1c 423f ae55 32bf c522 fb3e b4d7 56bf
00000390: 17d7 343f b02d 73bf 0efd 0f3f 4567 5bbf
000003a0: 6996 40bf 1e89 5d3f 1b1e d9be ef52 3cbf
000003b0: a48a 513f e519 4f3f 9335 38bf 4b23 453f
000003c0: 8742 213f 200d cf3e 7875 223f 042e 64bf
000003d0: 43ee 42bf 3273 5dbf e65b 0d3f 3fb0 1dbf
000003e0: 932f 34bf 67f9 873f 885f 833f 1fe2 38bf
000003f0: 0c07 d63e f034 6b3f bb1a 44bf b680 323f

layers.1.gcn_1.bias f4 [7]
0.27788067 -0.4754295 -0.45961544 -0.118230455 -0.0016254837 0.51414275 -0.011211186
00000000: 6046 8e3e 7f6b f3be b752 ebbe cf22 f2bd
00000010: 2f0e d5ba dc9e 033f 1faf 37bc
