cache/pretrained/pretrained_117.pt (torch_old, 130085 bytes, 4 tensors)

layers.0.gcn_0.weight f4 [500, 64]
000000 28 01 26 3e d7 4b f7 bc e3 9f 0f bd ac 71 e4 bd
       0.16211379 -0.03018753 -0.03506459 -0.11154494
000010 f4 a7 36 3e 9d 69 b0 bd ae 91 e1 bb 16 08 79 bd
       0.17837507 -0.08613894 -0.0068838215 -0.060798727
000020 5d 8c 7a bd 76 17 d8 bd 88 2c 2c 3e 16 ee e4 bd
       -0.061169017 -0.1055135 0.16813862 -0.11178224
000030 73 c7 0d be 45 50 c9 bd f8 85 f3 3d 7d 18 de 3d
       -0.13845615 -0.09829763 0.11890787 0.108445145
000040 93 a6 45 3e 65 3a c6 bd 5b 00 ec 3d a2 72 2d 3e
       0.19301824 -0.096791066 0.11523505 0.1693826
000050 a4 29 11 bd 56 9f fc bc f1 56 1b bd 80 ef 41 3e
       -0.035440102 -0.030837696 -0.03792471 0.18939018
000060 52 a7 1f bd 6b 00 fb bb b2 83 e9 bd 8f 71 2e 3e
       -0.03897793 -0.007659962 -0.11402072 0.17035507
000070 69 35 bb 3d b3 1d 0f 3e 39 06 0d 35 80 17 e5 bd
       0.091410466 0.13976173 5.253565e-07 -0.11186123
000080 ca b1 af 3d b5 73 19 bd f9 99 b9 bd 9b 36 18 3e
       0.085788324 -0.037463862 -0.09062571 0.1486458
000090 19 97 ac 3d 38 af fd 3d c2 f4 cd bd 5e 39 04 bd
       0.08427257 0.12386936 -0.100564495 -0.032281272
0000a0 0c 92 1d bd 40 af f6 bc 94 88 12 be 0e b6 0d bc
       -0.03846936 -0.030112863 -0.14309913 -0.008649362
0000b0 e2 ef ac 3d d8 df 1a 3e 9b ad 39 bd d0 6b 89 bd
       0.084441915 0.15124452 -0.04533158 -0.06710017
0000c0 d4 42 9d bd e4 8c c1 3d ef d7 df bd e8 77 23 3e
       -0.07678762 0.09450701 -0.10929858 0.1596371
0000d0 28 3e f3 bd 5f a4 05 3e 25 8a 1c bd 25 7c 83 b9
       -0.1187709 0.13050984 -0.038217682 -0.00025078762
0000e0 a5 78 42 3e 64 ad 00 3e f3 66 5e bd 11 15 61 bd
       0.18991335 0.12566143 -0.0542974 -0.05495173
0000f0 4c 3a 33 3e 89 f4 d7 bd f0 02 04 3e 8e 24 06 be
       0.17502707 -0.10544688 0.12891746 -0.13099882
000100 65 81 1a bb 6b 85 c3 3c 54 bb 2f 3c 37 da 47 3c
       -0.002357566 0.02386733 0.010725815 0.012198023
000110 10 24 65 bc b3 ea 67 3c cd 28 12 3b 17 ef ff 3c
       -0.013985649 0.014155078 0.0022302151 0.031241937
000120 85 b9 48 3d 4e 41 81 bd 04 65 d1 bc 46 83 d9 3c
       0.04900505 -0.06311284 -0.025560863 0.026551854
000130 bc e2 86 3d 16 98 b6 3c d1 6c 19 3c 28 45 d8 bb
       0.06586215 0.022289317 0.009364323 -0.006600041
000140 69 5d dd bc 27 9c 31 3b 62 ca 5d bc 7c c5 14 bd
       -0.02702208 0.002710113 -0.013537021 -0.03632115
000150 11 c1 77 3c d3 6c c3 3c 45 e2 e5 3c 13 59 59 bc
       0.015121714 0.023855602 0.028061995 -0.013265866
000160 c6 7b 25 3d cf d0 ca bb 1a 9d 1e 3c b5 51 ef bb
       0.040401243 -0.0061894427 0.009681011 -0.0073034414
000170 39 34 fd bc cd 73 76 3b 7b 99 13 35 a7 c9 79 3b
       -0.03090869 0.0037605644 5.498511e-07 0.003811458
000180 4e 6c ac b9 68 27 99 39 94 30 c6 3a f8 16 0c bd
       -0.0003288709 0.00029211794 0.0015120679 -0.034201592
000190 3c 00 eb bc af d1 c9 3c 85 38 e8 3c 97 73 c9 3c
       -0.028686635 0.024636118 0.028347263 0.02459125
0001a0 69 03 9c bc de b4 a2 3c e3 71 93 3c 02 1e c7 3a
       -0.019044595 0.019861635 0.017998641 0.0015191438
0001b0 24 4a 95 3c cb f3 18 bd 90 92 be 3c 93 84 23 3d
       0.01822383 -0.037341874 0.023263246 0.039921355
0001c0 3e 65 17 bd 60 f4 58 bd ea c4 a6 3c 6c 91 82 bc
       -0.036961786 -0.05296743 0.020357568 -0.015938483
0001d0 fb 78 80 bc 41 cf 1b 3d 11 35 67 3d 0a 65 82 39
       -0.015682688 0.03803945 0.056447092 0.00024870812
0001e0 56 fc 14 bd e7 10 f6 3b f5 48 e6 3c c5 ef d1 bc
       -0.03637346 0.007509339 0.02811096 -0.025627026
0001f0 21 78 a9 bc 0f c8 ea bc 5b 87 f5 3b fd 65 ce 3c
       -0.020687165 -0.028659848 0.0074929423 0.025195116
000200 55 41 59 bb 76 a9 7d ba 99 98 a7 3b 1a e6 b6 3c
       -0.0033150513 -0.0009676436 0.0051146266 0.022326518
000210 a0 42 4d 3c 15 93 8e bc d5 7f 9c bb 7e a9 f4 3c
       0.012528092 -0.017404119 -0.004775981 0.029865976
000220 dd 8e b2 bb 74 a0 cf 3c c8 f0 4a 3d 1b 6d 66 3c
       -0.0054491595 0.025345065 0.049546033 0.014064099
000230 a1 ce 4c 3c 02 ba 3f b9 95 37 a6 3c 5e 44 8b 3d
       0.012500436 -0.00018284473 0.020290175 0.068001494
000240 d3 fe a6 3c 06 aa c5 3c 0b 2f ae 3c 86 e4 a2 3c
       0.020385182 0.024128925 0.021262666 0.01988436
000250 d1 c4 a9 bc 65 c1 c1 bc a6 f4 76 bc c4 69 46 3d
       -0.020723732 -0.023651788 -0.015072977 0.04844071
000260 fc 40 f8 bc be fa 85 3d b5 9f 85 bc ac ab a6 3b
       -0.030304424 0.06541966 -0.016311506 0.005086383
000270 8f c4 6e 3d 01 14 19 3c 71 87 20 b5 c1 6d 0b bb
       0.05829292 0.009343148 -5.980174e-07 -0.0021275135
000280 c6 2e fd 3b 2a 87 db 3c 74 a1 96 3c 13 0b be 3c
       0.007726523 0.02679785 0.018387534 0.02319864
000290 7d fe 6d 3c a5 b9 70 bb e2 28 ee b9 12 53 0a 3b
       0.014526007 -0.0036731747 -0.00045425358 0.0021106643
0002a0 3b 36 bd 3c a9 f1 bd bc de 32 15 3c 51 f1 cf 3b
       0.023097148 -0.023186522 0.009106366 0.006345906
0002b0 83 61 b8 3a 6f ba e7 3c 3d d1 c7 bc 82 4e 49 bc
       0.0014067147 0.02828714 -0.024391765 -0.012286784
0002c0 e7 f8 83 3c 7d d6 68 3d 99 be 8f 3c 6f 63 82 3c
       0.016109897 0.056845177 0.017546939 0.015916554
0002d0 a1 71 47 bc cc 61 70 3c 62 91 03 bc 97 7a 42 39
       -0.012173087 0.014671754 -0.008030267 0.0001854695
0002e0 12 2d f8 3c 2c 89 b8 3c 35 c8 49 ba 28 4a 45 3d
       0.030294929 0.022526346 -0.00076973747 0.048166424
0002f0 48 7f d2 3c b7 13 3e 3d e5 39 77 3c 61 05 d1 3b
       0.025695458 0.04640552 0.015089487 0.006378815
000300 45 f8 19 3d b4 4c 9d 3c 42 5c 86 3c e9 83 11 3b
       0.037590284 0.019201614 0.016401414 0.0022203869
000310 bd 34 90 3c 11 b6 dd 3b ac 2b 4f bc eb 79 7c bc
       0.017603273 0.006766089 -0.0126446895 -0.015409927
000320 e9 92 49 3c 0d c9 3a 3c 1d d3 c2 3c 3f a5 13 bb
       0.0123030925 0.011400473 0.023782307 -0.0022528914
000330 57 d7 c4 ba f3 72 03 bc 1a 96 22 3c 1b 65 0e 3c
       -0.001501779 -0.0080230115 0.009923482 0.008691098
000340 00 cb b8 3c 7b ba c4 ba b3 e5 85 3c 85 45 16 3d
       0.022557735 -0.0015009189 0.01634488 0.036687393
000350 a5 90 10 3d 9f 56 a8 3c b2 18 50 3c 90 3d d7 3c
       0.035294194 0.020549117 0.0127012 0.026274472
000360 26 75 64 3b 94 24 b3 bb e7 20 52 bb 7d 70 f8 3c
       0.0034859865 -0.005467007 -0.0032063068 0.030327076
000370 6c 51 85 3c 6e ed 9c 3c 91 a0 11 b4 f5 43 71 bc
       0.016274177 0.019156184 -1.3562591e-07 -0.014725675
000380 1d d0 1d 3d cf 17 19 3c cd 06 9d bc 8a 2b be 3c
       0.03852855 0.009344055 -0.019168282 0.02321412
000390 e7 1b 70 bc 1e 2e f6 ba b8 be 9f bc 87 ad 8a 3b
       -0.01465509 -0.0018782055 -0.019500121 0.004232112
0003a0 17 ff 5f bc e4 67 9b 3c 81 80 e3 bc c2 11 92 3a
       -0.013671658 0.018970437 -0.027771236 0.0011144208
0003b0 38 d0 fa 3c cb 55 0a 3d 99 d8 36 3d 76 1f 03 bd
       0.030616865 0.033773225 0.044640157 -0.032012425
0003c0 db 5b 91 bc 4a d8 b8 3c c5 10 a0 ba e6 22 af 3c
       -0.017743995 0.022564072 -0.0012212029 0.021378946
0003d0 40 90 c6 ba 8f 49 1a 3d 26 e9 30 3c 13 ab 8d 39
       -0.0015149191 0.037667807 0.010797774 0.00027021076
0003e0 8b d0 84 3c 8d ec 37 3d 95 65 d9 3c 63 b5 08 3c
       0.016212722 0.044903327 0.026537696 0.008344027
0003f0 38 2e 37 3c 74 ea ae bb 77 f4 8a 3c 40 bd bd bc
       0.011180453 -0.0053380076 0.016962273 -0.02316153

layers.0.gcn_0.bias f4 [64]
000000 88 16 1d 3d 86 c5 a1 3c 1c 8f 48 ba 55 8b b0 3d
       0.038351566 0.019747507 -0.00076507195 0.086203255
000010 a5 24 41 3d ad a2 97 3d dc 3a dc 3d a3 fb 86 3c
       0.047154088 0.07404075 0.10753414 0.016477412
000020 73 25 75 bb 7d eb de 3d 34 29 5e 3d 3c ca 73 3d
       -0.0037406355 0.108847596 0.054238513 0.059519038
000030 80 25 b4 3d 9f 6f 96 3d 72 ff f6 3d 26 c2 d7 3d
       0.08796215 0.07345509 0.12060441 0.10535078
000040 79 af 39 3d d6 43 b8 3d 90 1c da 3c 34 72 4b 3d
       0.04533336 0.08997314 0.026624948 0.04966946
000050 96 26 9c bc 8a b0 49 bc fa 4f 3d bc e1 e2 76 3d
       -0.019061368 -0.012310157 -0.011554712 0.060274962
000060 66 ed 43 bc 9a 81 0e 3e 35 a0 c1 3d 76 5c 32 3d
       -0.011958456 0.13916627 0.09454385 0.04354521
000070 8a 28 fe 3d 41 1e 26 3d a9 d9 31 b8 89 98 b0 3d
       0.12410076 0.040556196 -4.24028e-05 0.08622844
000080 c2 e3 2d 3d 88 c4 92 3c 9d 70 ad 3d cb e0 48 3d
       0.042453535 0.017915979 0.08468745 0.049042504
000090 af 27 d6 3d d7 7d 93 3c 0c 7b bd 3d 5a 8f a8 bb
       0.10456788 0.018004341 0.09251985 -0.005144042
0000a0 46 85 d2 3d 1f 95 21 38 07 af 95 3d 79 02 d5 bc
       0.10279326 3.852427e-05 0.073087744 -0.026002156
0000b0 09 e9 40 3d ae 98 20 3d 99 ef df bb 6b f1 7b 3c
       0.04709724 0.039208107 -0.006833982 0.015377383
0000c0 43 d5 d1 3d 74 4a f2 3d 3c 8f 83 3d 7c 95 68 3d
       0.102457546 0.11830607 0.06423804 0.056783184
0000d0 97 71 b4 3d be e0 25 3d 01 3d 43 bb 5c 23 20 bc
       0.08810728 0.040497534 -0.0029791 -0.009774055
0000e0 60 b4 43 3d 5d e0 37 3d e9 32 69 3c 2e 08 bc 3d
       0.04777944 0.044891704 0.014233329 0.09181248
0000f0 72 50 81 3d 5a 70 c6 3d 3d 47 4a 3d e7 88 91 3d
       0.06314172 0.09689398 0.049384344 0.0710619

layers.1.gcn_1.weight f4 [64, 3]
000000 f3 8e 86 3e 11 1c 3b 3e d2 86 d5 be 69 5d 60 bd
       0.26280937 0.18272425 -0.41704422 -0.054776583
000010 ec 5c ca 3e 2b 8f 65 be c8 cd 01 be 3e 49 cd 3e
       0.3952402 -0.22417895 -0.12676156 0.40094942
000020 b1 19 64 be 04 79 ab be 5c e8 f1 3d 4d 73 88 3e
       -0.22275425 -0.33490765 0.11811897 0.26650468
000030 d2 54 c7 3e b3 b9 39 be 50 f7 30 be 0b a4 7b be
       0.389319 -0.18137245 -0.17281842 -0.24574296
000040 2d 18 53 bd 1a 7c c8 3e b1 1f 15 3d fc 5a ca be
       -0.051536728 0.39157182 0.036407176 -0.3952254
000050 9c 29 95 3e 65 74 f4 bd ed 62 a2 3e a2 a7 40 be
       0.29133308 -0.11936263 0.317161 -0.18813947
000060 8c 4e 74 be 45 36 da 3e d0 09 9b be fc 5b 40 be
       -0.23858088 0.4261953 -0.30280924 -0.18785089
000070 30 4b 8e be 29 bd db 3e 02 14 a6 3e 06 ad 77 be
       -0.2779174 0.42917755 0.3243714 -0.24187097
000080 51 3f 8c be 8f fa be be 0b 56 26 3e be b1 2e 3e
       -0.27392057 -0.37300536 0.1624376 0.17059991
000090 0f 2a ad be 66 a6 8e 3e b6 dc 79 3e 67 3c c3 be
       -0.3382115 0.27861327 0.24400601 -0.3813202
0000a0 c0 e4 20 3e 2e 9d 7b 3e 4a 84 67 3e 68 c0 e9 be
       0.15712261 0.24571678 0.22609058 -0.45654607
0000b0 e1 01 37 3e d7 86 98 3e 66 66 c6 be a5 c4 12 3e
       0.1787181 0.29790375 -0.3875 0.14332826
0000c0 c3 50 be 3e 36 cf 4c be 73 09 51 be 46 a2 ac be
       0.3717099 -0.2000092 -0.20413761 -0.33717555
0000d0 17 48 2c be a1 72 2d 3e 41 af 14 3e dc 5e 62 3e
       -0.16824375 0.16938259 0.14519979 0.22106498
0000e0 fc bd b6 be 32 48 9f 3e c5 5d 84 be 29 00 41 be
       -0.35691822 0.31109768 -0.2585279 -0.18847717
0000f0 02 55 06 be f3 fa c3 3e 2f a4 18 be 03 2e 31 be
       -0.13118365 0.38277397 -0.14906381 -0.17302708
000100 22 dd c2 3e 93 51 7d be c1 a3 0c be a1 9e d4 3e
       0.38059336 -0.2473815 -0.13734342 0.41527274
000110 5d 43 38 be a5 1e b8 3e ec d4 21 be 08 c3 55 be
       -0.17994447 0.3596088 -0.1580388 -0.2087518
000120 de 51 d9 bc 33 c2 b3 3e 1d 03 9f bd 0d a5 cc 3c
       -0.026528295 0.351091 -0.07764266 0.024981046
000130 55 a9 db be 48 2c 80 3e 01 90 1d be 68 87 9a be
       -0.42902628 0.25033784 -0.15386964 -0.30181432
000140 d9 60 de 3e a6 1d a5 3e c5 25 0f be 83 a9 6b be
       0.43433264 0.32249182 -0.13979252 -0.23013882
000150 75 4c 24 3e 3f 25 9d be 20 31 be 3d a7 4f b8 3e
       0.16044791 -0.3069248 0.092867136 0.3599827
000160 a9 68 db bd 52 b0 8c be 59 12 d7 bb 01 d2 0c b8
       -0.10713322 -0.27478272 -0.0065634665 -3.3574182e-05
000170 2a f5 91 bb d7 c4 97 be c8 b7 72 be e3 05 6f 3e
       -0.0044542747 -0.29642364 -0.2370292 0.2334209
000180 10 cf e5 3d 90 a0 57 3e 74 16 c9 be 36 1b be bd
       0.11221135 0.21057343 -0.39274943 -0.09282534
000190 93 39 8a 3e d1 80 81 be b9 04 8f be 2a 7b 59 be
       0.2699705 -0.25293592 -0.2793329 -0.2123839
0001a0 40 99 e0 3e fa d7 84 3e 6f 09 cd bd 92 17 04 be
       0.4386692 0.25946027 -0.10011565 -0.12899616
0001b0 69 5b 73 3e 2a 78 8f be 0c 09 94 3e 66 bf 88 3e
       0.23765339 -0.28021365 0.28913152 0.26708525
0001c0 84 94 4c 3e fe 32 72 be 39 e4 62 be 54 87 b0 be
       0.19978529 -0.23652264 -0.22157373 -0.34478247
0001d0 f1 35 bd 3e 04 8a 2e be 07 62 87 3e e5 60 9f be
       0.36955217 -0.17044836 0.26441976 -0.31128612
0001e0 bc ab a6 3d 84 3f a9 be a8 be af 3e 09 76 12 be
       0.081382245 -0.3305627 0.34325147 -0.1430284
0001f0 f0 74 a6 3e 28 cb 76 be bd 2f ca be 05 e5 7c 3d
       0.3251109 -0.24100935 -0.39489546 0.061741848
000200 04 53 41 3e f6 0e d7 bc 07 29 ad 35 31 ce cb 3b
       0.18879324 -0.026252251 1.2901445e-06 0.0062196483
000210 93 08 1a 3e c7 fe a1 3e ba dd b6 be 66 ff 9b 3e
       0.15042333 0.31639692 -0.3571604 0.3046829
000220 46 57 0e be 48 f4 0b be 1a 71 31 be dc 6b d6 3e
       -0.1390048 -0.13667405 -0.17328301 0.41879165
000230 5f e1 99 be ae c6 76 be 8e e6 52 3e a4 08 20 bd
       -0.30054757 -0.24099228 0.20595762 -0.03907074
000240 ad 9f 7b ba 92 d9 41 be 18 bd e0 3e d1 ea 9e 3e
       -0.00095986837 -0.18930653 0.43894267 0.31038526
000250 7a 05 d8 be 83 98 06 3e 82 75 97 be d5 3c 5d 3e
       -0.42191678 0.13144116 -0.2958184 0.21605237
000260 8a 95 83 3e 95 04 c3 3e 05 a3 77 be fb c5 1f be
       0.25700027 0.38089433 -0.24183281 -0.15602867
000270 e1 d4 96 be b8 74 69 3d bd 9a b5 3e f5 d9 7e 3e
       -0.2945929 0.056996077 0.35469618 0.24887832
000280 2b 19 88 3e 96 c3 c7 be 56 9a 45 be 2a a4 c4 3e
       0.26581702 -0.39016408 -0.19297156 0.38406497
000290 c7 8d 39 be 28 f4 01 b3 75 19 5d 3c 02 f4 10 3b
       -0.1812049 -3.0257212e-08 0.013494839 0.0022118096
0002a0 14 d1 aa 3e 1c 2f 82 be 4e 06 95 be d6 13 99 3e
       0.3336264 -0.25426567 -0.29106373 0.29897946
0002b0 e8 8c 42 3e c5 ee a3 be f5 ef 14 be 6f a9 94 3e
       0.18999064 -0.32018104 -0.14544661 0.29035518
0002c0 ca 2c 33 be 1d 06 90 be 87 19 16 be b6 f9 e4 3e
       -0.17497554 -0.28129664 -0.14658175 0.44721764
0002d0 01 ec a8 3e b1 b9 2e be 54 49 42 be e2 2e 88 be
       0.32992557 -0.17063023 -0.18973285 -0.2659827
0002e0 e3 91 64 be ae b9 95 3e 74 71 8d 3e ba 20 e3 bd
       -0.22321276 0.29243225 0.2762562 -0.110902265
0002f0 eb d5 b3 be f3 56 91 be 9e 86 98 3e b0 5f a2 3e
       -0.35124144 -0.2838665 0.29790205 0.3171363

layers.1.gcn_1.bias f4 [3]
000000 eb 61 13 3d f5 80 1b be 92 b2 0f 3e
       0.035982054 -0.15185912 0.14032963
