cache/pretrained/pretrained_109.pt (torch_old, 130085 bytes, 4 tensors)

layers.0.gcn_0.weight f4 [500, 64]
0	0xbc0c5c84	-0.008566979
1	0x3c008e30	0.0078464
2	0xbcf3caf3	-0.02975986
3	0xbcdabf3c	-0.026702516
4	0xbd59e111	-0.053193156
5	0xbcd1d689	-0.025614994
6	0x3d62f649	0.055410657
7	0x3d127bd2	0.035762616
8	0xbd44f599	-0.048085783
9	0xbc1df409	-0.009640702
10	0xbd97cd29	-0.07412178
11	0xbd6b2812	-0.05741126
12	0xbd25868f	-0.04041153
13	0xbdd60282	-0.10449697
14	0x3c718820	0.014741927
15	0xbd1f147f	-0.038837906
16	0xbbbf9a33	-0.0058472394
17	0x3c980414	0.018556632
18	0xbc96c130	-0.018402666
19	0xbdbc7207	-0.092014365
20	0x3dbb82e0	0.09155822
21	0x3d1cb6ff	0.038260456
22	0xbd94980f	-0.072555654
23	0x3e07c49a	0.13258591
24	0xbd8a7f70	-0.06762588
25	0x3d86ac1e	0.065757975
26	0x3e14cbe2	0.145309
27	0xbd3633c0	-0.044482946
28	0xbddc5b96	-0.10759656
29	0xbd98d3c3	-0.07462265
30	0xbdb9776d	-0.09055982
31	0x3df93405	0.12168125
32	0xbc4a1027	-0.012332953
33	0xbd89d503	-0.06730082
34	0xbdb13d98	-0.08654326
35	0xbd3a5103	-0.045487415
36	0xbddfb5cc	-0.10923347
37	0x3d46067d	0.04834603
38	0x3dc8e99f	0.09810185
39	0x3c3cbc2b	0.011519472
40	0x3d6ae7ec	0.057350084
41	0xbb2f16e0	-0.0026716515
42	0xbc38e23a	-0.011284405
43	0xbdac3a59	-0.084095664
44	0xbd94337e	-0.07236384
45	0xbb036165	-0.0020047065
46	0x3cddf312	0.027093444
47	0x3d5682a8	0.052370697
48	0xbd4ccd25	-0.05000033
49	0x3d50cae6	0.05097475
50	0x3d74431a	0.059634306
51	0x3e2146e0	0.15749693
52	0x3dbb6dcd	0.09151802
53	0xba75798d	-0.0009364121
54	0x3e0035a9	0.1252047
55	0xbde16bbd	-0.110068776
56	0xbc880078	-0.016601786
57	0xbd372efd	-0.044722546
58	0xbc83eac9	-0.016103165
59	0xbdb4744f	-0.088112466
60	0x3dd6cab2	0.1048788
61	0x3dc54171	0.096316226
62	0xbdcd2f91	-0.10018838
63	0x3da95506	0.0826817
64	0x3cb14991	0.021641525
65	0x3d1517ee	0.036399774
66	0xbc59c58f	-0.013291731
67	0xbb947e2c	-0.0045316424
68	0x3cd6c38f	0.026216296
69	0x3dccfc7e	0.100090966
70	0xbcc28fc9	-0.023750203
71	0x3c707980	0.014677405
72	0x3dbba12b	0.091616
73	0x3d684962	0.05671061
74	0x3e0abbee	0.13548252
75	0x3e090614	0.13381225
76	0x3d7182cc	0.05896263
77	0xbd25ad7e	-0.04044866
78	0x3d67b02d	0.0565645
79	0xbc5ab7bb	-0.013349469
80	0xbdc53a6c	-0.09630284
81	0x3d55de52	0.052213974
82	0x3d0ee597	0.034886923
83	0xbdd169d9	-0.10225267
84	0x3d90192d	0.07036052
85	0xbc99d614	-0.018778838
86	0x3d14bc92	0.036312647
87	0xbdb97a76	-0.09056561
88	0x3db6a106	0.089174315
89	0xbdd6ccd6	-0.10488288
90	0x3c8798b9	0.016552316
91	0x3c93ec40	0.018056989
92	0x3df78cd8	0.12087411
93	0x3d5e3dda	0.054258205
94	0xbd40591e	-0.04695999
95	0xbdce4c37	-0.100731306
96	0x3b6ad0f2	0.0035830108
97	0xbc64d3a8	-0.013966478
98	0xbde5236b	-0.11188396
99	0xbdcfed37	-0.10152667
100	0x3e147e64	0.14501339
101	0x3decf7f0	0.11570728
102	0xbd49f627	-0.049307015
103	0xbd747e3d	-0.059690703
104	0xbd9058bf	-0.07048177
105	0xbd0ad1df	-0.033891555
106	0xbd04ec9a	-0.032452203
107	0xbdf82e98	-0.12118262
108	0xbcd858ae	-0.026409473
109	0xbc9818d4	-0.018566526
110	0xbda81dd1	-0.08208812
111	0x3db90db1	0.090358146
112	0xbd7a9487	-0.061176803
113	0x3d4019c7	0.046899583
114	0x3d990d47	0.074732356
115	0xbdcb67a8	-0.0993188
116	0xbd5566f2	-0.05210013
117	0xbccc25a5	-0.024920294
118	0xbd218f6d	-0.039443422
119	0x3d8c1c15	0.06841294
120	0x3bfcef71	0.0077189733
121	0xbd1093b2	-0.035297103
122	0xbdbdad2e	-0.09261547
123	0x3db67a76	0.08910076
124	0xbd4092e8	-0.0470151
125	0xbdd1232e	-0.10211788
126	0x3cfc1abf	0.030774472
127	0xbdc4fb88	-0.09618288
128	0xbd20ef3c	-0.03929065
129	0xbd017a8a	-0.031611003
130	0xbd4a204f	-0.049347218
131	0x3ba930fe	0.005163311
132	0xbd220002	-0.03955079
133	0xbcea0433	-0.028566455
134	0x3da64f38	0.081205785
135	0xbd056ece	-0.032576375
136	0x3d225202	0.03962899
137	0x3d486950	0.04892856
138	0x3d7b9995	0.061425764
139	0x3d2e20d3	0.042511772
140	0x3d985cc0	0.07439566
141	0x3de799e1	0.11308647
142	0x3db381d6	0.087649986
143	0xbba7305d	-0.005102201
144	0xbd49a105	-0.049225826
145	0xbd92460d	-0.071422674
146	0x3db7cf78	0.089751184
147	0x3d21a28e	0.039461665
148	0x3b496c12	0.003073458
149	0xbd31ddd6	-0.04342445
150	0xbd1ec7f1	-0.038764898
151	0xbd122ac3	-0.035685312
152	0x3d06ea67	0.032938387
153	0x3dbfcbdf	0.09365057
154	0x3d1358b2	0.03597326
155	0xbd837ac0	-0.06419897
156	0x3d9684a3	0.07349517
157	0xbd8d2097	-0.06890982
158	0xbc841382	-0.016122583
159	0xbd5ff576	-0.05467745
160	0x3cf2a979	0.029621826
161	0x3d01c9e0	0.031686664
162	0xbe00472c	-0.1252715
163	0xbdbe8ebd	-0.09304569
164	0xbb7f6cd3	-0.0038974776
165	0x3d5317c0	0.05153632
166	0xbcc01775	-0.023448685
167	0x3db50cee	0.08840357
168	0xbde6cf96	-0.112700626
169	0xbbdaf4f0	-0.006682031
170	0x3e0c30bc	0.13690466
171	0xbd251e7b	-0.04031227
172	0x3dd4166e	0.103558406
173	0x3ade86bc	0.001697741
174	0xbd5f39d7	-0.05449852
175	0x3d74206a	0.059601225
176	0xbd55bed4	-0.05218394
177	0xbd25b096	-0.04045161
178	0x3de02330	0.109442115
179	0xbd85adc8	-0.06527287
180	0xbc5eb472	-0.013592826
181	0xbd2a759c	-0.041616067
182	0x3df22804	0.118240386
183	0x3d7548fc	0.059884056
184	0x3ccf2265	0.025284955
185	0xbb3be1a4	-0.0028668428
186	0xbd28d8ee	-0.041222505
187	0x3cd12112	0.025528464
188	0xbced8375	-0.028993348
189	0x3c909de9	0.017653422
190	0x3de4c390	0.11170113
191	0x3d4055cd	0.046956826
192	0xbdd8fc2e	-0.105949745
193	0x3d7173d9	0.05894837
194	0xbd472fec	-0.048629686
195	0xbdafaf28	-0.0857833
196	0xbdb84d4a	-0.08999117
197	0x3d2a8eab	0.041639965
198	0xbd0d689c	-0.03452359
199	0x3d4b8880	0.049690723
200	0x3c42c2cd	0.011887264
201	0x3d5644e4	0.052311793
202	0xbdb88f9b	-0.090117656
203	0xbc9aaba9	-0.018880682
204	0xbd8c31e0	-0.068454504
205	0x3d20069f	0.039068814
206	0xbce85c08	-0.028364196
207	0x3d9b81df	0.0759313
208	0x3da1493e	0.07875298
209	0xbcbe2249	-0.023209708
210	0xbd5e25c8	-0.05423525
211	0xbc246c37	-0.010035566
212	0x3d8bc098	0.06823844
213	0xbd9542d6	-0.072881386
214	0x3d615308	0.055010825
215	0xbca2e5bb	-0.019884935
216	0xbd702efc	-0.058638558
217	0xbd1484c5	-0.03625943
218	0x3d84c40e	0.06482707
219	0xbde2bcb5	-0.11071149
220	0xbd3afd36	-0.045651637
221	0x3d8bcd62	0.06826283
222	0x3d8872e4	0.06662539
223	0xbc93f15f	-0.01805943
224	0xbdbe9e9b	-0.09307595
225	0x3cc8716c	0.024468146
226	0xbdca9e9c	-0.098935336
227	0xbcdce21e	-0.02696329
228	0x3c854762	0.01626939
229	0x3d2cf894	0.04222925
230	0xbd64ca21	-0.055856828
231	0x3d4b7ce1	0.04967964
232	0x3d6a3256	0.05717691
233	0x3d839467	0.0642479
234	0x3d320c88	0.043468982
235	0xbd647dda	-0.055784084
236	0x3dd39006	0.10330205
237	0xbdc8b7b6	-0.09800665
238	0xbd4a9479	-0.049458
239	0x3d9d4014	0.076782376
240	0x3dac584e	0.0841528
241	0x3dd3d0dc	0.10342571
242	0x3cc913ce	0.024545576
243	0xbcdbab2e	-0.026815023
244	0x3dd3d042	0.103424564
245	0xbe170146	-0.1474658
246	0x3dc5dc1f	0.096611254
247	0xbd1979f3	-0.037469815
248	0xbb28be75	-0.0025748287
249	0x3d107059	0.035263393
250	0xbd8f45da	-0.06995745
251	0x3d806100	0.06268501
252	0x3d63aaf8	0.05558297
253	0xbd95750e	-0.07297717
254	0xbb3c7410	-0.0028755702
255	0xbb85ca43	-0.0040829494

layers.0.gcn_0.bias f4 [64]
0	0xbd024b09	-0.03180984
1	0x3cfc2fbf	0.030784486
2	0x3c871805	0.016490946
3	0xbcaa9621	-0.02082354
4	0x3cf90d7f	0.030401943
5	0xbc9bd007	-0.019020094
6	0x3c7bb975	0.015364041
7	0xbd1a1206	-0.037614845
8	0xbaf3a4b7	-0.0018588518
9	0xbcf20741	-0.029544475
10	0xbb6bf306	-0.0036003008
11	0xbb232140	-0.0024891645
12	0x3c83defe	0.016097542
13	0xbc347068	-0.011013128
14	0x3d58d7cc	0.052940175
15	0xbd0699f7	-0.032861676
16	0x3c1f617e	0.009727834
17	0xbb39de13	-0.0028361126
18	0x3d10254b	0.035191815
19	0x3cdec734	0.027194597
20	0x3d0f772d	0.035025764
21	0x3c5c120a	0.013432035
22	0x3d024d57	0.03181204
23	0x3d5e8439	0.054325316
24	0x3acc1499	0.0015570103
25	0x3d5d99a7	0.054101612
26	0xbc1bd03d	-0.009510097
27	0x3c6c9606	0.014440065
28	0xbc870ad7	-0.016484661
29	0x3bba8de1	0.005693183
30	0xbc272b9b	-0.010203267
31	0x3d0ae869	0.03391305
32	0x3d62e041	0.055389646
33	0xbcc0ec30	-0.023550123
34	0xbd02e1dd	-0.03195368
35	0x3cc28ba0	0.023748219
36	0x38b310b5	8.538497e-05
37	0xba6a614a	-0.0008940889
38	0x3c82d415	0.01597027
39	0xbc7a446c	-0.015275102
40	0xbcb8cc26	-0.022558283
41	0xbbb84924	-0.0056239534
42	0x3b9cb16a	0.0047818916
43	0x3b3ba5db	0.0028632793
44	0xbc180993	-0.009279626
45	0xbc8ce4f5	-0.017199019
46	0xba2b671c	-0.0006538497
47	0x3c5d2fb1	0.01350014
48	0xbcf3906e	-0.029731955
49	0x3d102923	0.03519548
50	0x3c4fda53	0.01268633
51	0x3b676e42	0.0035313522
52	0x3a33af6b	0.00068544474
53	0xbc45aa2b	-0.012064497
54	0x3d616f59	0.05503783
55	0x3c2653df	0.010151832
56	0xbcf253c0	-0.02958095
57	0xbc247be6	-0.010039305
58	0x3d61411a	0.054993726
59	0xbbd9d97e	-0.0066482415
60	0x3d6067e1	0.054786567
61	0x3ca03a52	0.01955906
62	0x3cd523c3	0.02601803
63	0x3d13e2d9	0.03610501

layers.1.gcn_1.weight f4 [64, 3]
0	0xbe0d4676	-0.1379641
1	0x3ea54c59	0.3228481
2	0xbe8e43a3	-0.27785978
3	0xbe832eda	-0.25621682
4	0x3d25b3b2	0.040454574
5	0x3d1a6327	0.037692215
6	0xbd8ec95b	-0.06971999
7	0xbd403cc0	-0.046932936
8	0xbe50eff2	-0.20404032
9	0x3e83b25f	0.25722024
10	0x3e716c5e	0.23576495
11	0xbdef0e16	-0.116726086
12	0x3d0469b6	0.032327376
13	0xbea42542	-0.32059675
14	0x3e989c01	0.29806522
15	0xbe4a1274	-0.19733602
16	0xbdf44d6b	-0.11928829
17	0xbe292d97	-0.16521297
18	0x3dd83267	0.105564885
19	0x3dbbaaa8	0.091634095
20	0xbe99a515	-0.3000876
21	0xbd8f0430	-0.069832206
22	0x3e0ff939	0.14059915
23	0x3d2ec95d	0.042672504
24	0xbe9333b2	-0.28750378
25	0x3e5b9399	0.21443023
26	0x3e481381	0.1953869
27	0x3abaf9ea	0.0014265154
28	0x3e8e82ef	0.2783427
29	0x3e2fee4d	0.17180748
30	0xbe900ee6	-0.28136367
31	0xbde96cbe	-0.11397694
32	0x3e8c3994	0.2738768
33	0xbe100dcf	-0.14067768
34	0x3e901521	0.2814112
35	0xbe4ab3c4	-0.19795138
36	0x3e7b4367	0.2453743
37	0x3d967570	0.07346618
38	0xbe79cdba	-0.24394885
39	0xbe739419	-0.23786964
40	0xbe71bc22	-0.23606923
41	0x3e7981ac	0.24365872
42	0x3e07dc81	0.1326771
43	0x3da4c47d	0.0804529
44	0xbdf18162	-0.11792256
45	0xbe7ae9a8	-0.24503195
46	0x3e54e7e7	0.20791589
47	0xbdfad581	-0.12247754
48	0xbc94da0b	-0.018170377
49	0xbda0ea52	-0.07857193
50	0x3e99a5e0	0.30009365
51	0x3df90caa	0.121606186
52	0xbcdac67c	-0.026705973
53	0x3e7e008b	0.24804895
54	0x3e9e8ca7	0.30966684
55	0xbd8ae71c	-0.06782362
56	0x3e6c519d	0.23078008
57	0xbe055256	-0.1301969
58	0xbea34b13	-0.31893215
59	0x3e8b8857	0.27252457
60	0xbae32265	-0.0017328976
61	0xbbc956e3	-0.006144391
62	0xbe5c73aa	-0.21528497
63	0xbe17fb08	-0.14841855
64	0xbe53b124	-0.20673043
65	0x3d060c7d	0.032726754
66	0xbe9f5798	-0.31121516
67	0x3e42504f	0.18975948
68	0x3d5b9855	0.053612072
69	0x3cb15718	0.021647975
70	0xbe7265d9	-0.23671664
71	0xbea6c0a7	-0.32568857
72	0xbe44f05c	-0.19232315
73	0x3e3c06d3	0.18361978
74	0x3e823ff4	0.25439417
75	0x3e1f5900	0.15561295
76	0xbe125e9d	-0.14293905
77	0xbe159a9a	-0.14609757
78	0x3de0037a	0.10938163
79	0xbe93685e	-0.28790563
80	0x3e0f7e3d	0.14013
81	0x3e8afa90	0.2714429
82	0x3d89471a	0.06703015
83	0x3e7e9e41	0.24865057
84	0xbe93789d	-0.28802958
85	0xbd9109ee	-0.07081972
86	0x3d757d4c	0.059933946
87	0xbe005d67	-0.1253563
88	0xbd51e8d3	-0.05124743
89	0x3e9925f0	0.29911757
90	0xbe8db81b	-0.27679524
91	0x3e26271d	0.16225858
92	0x3d5527d6	0.052039944
93	0x3e14f371	0.1454599
94	0xbea29197	-0.317517
95	0x3e51d99a	0.20493165
96	0x3e9912b0	0.2989707
97	0xbe80c10c	-0.25147283
98	0xbe79e27c	-0.24402803
99	0x3dc4c068	0.09607011
100	0x3e14ffe6	0.14550743
101	0x3e1b82ca	0.15186611
102	0x3bfe0a34	0.007752681
103	0xbd8c73f9	-0.068580575
104	0x3e154635	0.14577563
105	0x3d8e24d2	0.06940617
106	0xbe2faad5	-0.17155011
107	0xbe8113bc	-0.2521037
108	0xbe8adf7b	-0.27123627
109	0x3deb2a9a	0.11482735
110	0x3ccd24df	0.025041996
111	0xbd82c256	-0.06384723
112	0x3e458c9b	0.19291918
113	0x3dec4291	0.11536134
114	0x3de64745	0.11244062
115	0xbe80d38d	-0.251614
116	0x3d9a1a33	0.07524528
117	0x3c6b924e	0.0143781435
118	0x3c741ebc	0.014899906
119	0x3e8e5f22	0.27806956
120	0x3e3b7def	0.18309759
121	0xbdae51df	-0.085117094
122	0xbe5cc0ff	-0.21557997
123	0x3e8cac0e	0.27475017
124	0xbe16e630	-0.14736247
125	0x3e9087b1	0.28228524
126	0xbc80a811	-0.01570514
127	0xbe0fde47	-0.14049636
128	0x3d6778af	0.056511577
129	0x3d10b766	0.035331152
130	0xbe510090	-0.20410371
131	0x3e9115fa	0.2833708
132	0x3d40c9d5	0.047067482
133	0x3e921299	0.28529814
134	0xbd0c2e8b	-0.034224074
135	0xbcb25869	-0.021770673
136	0xbe6898fe	-0.22714612
137	0xbe7f9e2d	-0.24962683
138	0xbe340660	-0.17580557
139	0x3d4702c9	0.04858664
140	0x3e9f2d75	0.31089368
141	0xbc9bcd32	-0.019018743
142	0x3ea1244a	0.31473
143	0xbe833476	-0.25625962
144	0x3d1f3a56	0.038873993
145	0x3ccba9df	0.024861274
146	0xbe159893	-0.14608984
147	0x3e2b56f8	0.16732395
148	0xba853a51	-0.0010164474
149	0xbdf08db4	-0.11745778
150	0xbe0a80cc	-0.13525695
151	0x3e669fd3	0.22521906
152	0xbe983044	-0.29724324
153	0x3e58b3fc	0.21162409
154	0x3e2094a2	0.15681699
155	0xbdd02c6e	-0.10164724
156	0x3e022493	0.12709264
157	0xbde26cae	-0.11055885
158	0xbea7ecf1	-0.3279796
159	0x3de4a76a	0.11164744
160	0xbe2aac50	-0.16667295
161	0x3e5f8e04	0.21831518
162	0x3e672653	0.22573213
163	0xbd82769f	-0.063702814
164	0xbe06dc9e	-0.13170096
165	0xbe50b0da	-0.20379964
166	0x3d14d63a	0.036337115
167	0x3d04438d	0.032290984
168	0xbe289342	-0.16462424
169	0xbd901a1b	-0.07036229
170	0x3db555c8	0.08854252
171	0xbd402f7e	-0.046920292
172	0x3e93a776	0.288387
173	0xbdce3599	-0.10068817
174	0x3da43103	0.08017161
175	0xbe37d5e3	-0.17952685
176	0xbe52dcb0	-0.20591998
177	0xbeb16c7e	-0.34653085
178	0xbddb02b3	-0.10693874
179	0x3e15076f	0.14553617
180	0x3e7b1199	0.24518432
181	0xbdb2f466	-0.087380216
182	0x3d90e92e	0.070757255
183	0x3df78637	0.12086146
184	0xbd8563c5	-0.0651317
185	0xbd699d9b	-0.05703507
186	0xbe4adde3	-0.19811206
187	0xba9744e1	-0.0011540913
188	0xbde1c423	-0.11023738
189	0x3dc63386	0.09677796
190	0xbd833366	-0.06406288
191	0xbe9f453c	-0.3110751

layers.1.gcn_1.bias f4 [3]
0	0x3d678b40	0.056529284
1	0xbbe75e22	-0.007060782
2	0xbc820f13	-0.015876329
