cache/pretrained/pretrained_66.pt (torch_old, 740152 bytes, 4 tensors)

layers.0.gcn_0.weight f4 [2879, 64]
00000000: f3fc 13bc dd7b 86bb 083f 343c fa22 80bb
00000010: fa3c 063b 5f14 703b 71b1 383c 3b9f f83b
00000020: f0fc 0ebc 9ddb 1cbc 41f5 f63a 2065 06bc
00000030: 1704 3cbc 9b79 9139 c0a9 af3b 50a2 dc3b
00000040: bef0 c53b fd27 e1bb 9a32 06bc 2353 c7ba
00000050: 2185 833c b574 0abb 66f1 9fba 3183 9d3c
00000060: 55da edbb 7f21 153c 3e2d d1bb a65b 1d3a
00000070: 95c4 0a3b 28f7 de39 3c80 7ebb 91d9 553b
00000080: cfca 0b3c aa8a 5ebb a8f8 03ba 8d1a 0dbb
00000090: c3b0 26bb 1955 ea3b 4f22 063a 1985 a23b
000000a0: 5a76 fdbb 1fcf 1f3c 6e5b dc3a cc3d d039
000000b0: 0f23 573c 19b7 373a 6813 b1b9 01be b3b9
000000c0: 801f 8dbb b8b0 c63b 35d4 c53a b205 373c
000000d0: 7088 c8ba 37eb 9b3b 0c92 edbb 46fb 113c
000000e0: 95e0 babb 2344 33ae b3f7 f23a 87b2 36bc
000000f0: 0005 1c30 1380 d6ba d495 33bb e149 15bc
00000100: a28f 11bb 92ec 843b ea7e 2d3d fdac fcbc
00000110: 4bf9 233d f3e0 303d 40ce 72bb d649 863c
00000120: a2e6 20bc ff10 bf3c 913c 873b 62a1 2a3c
00000130: 86eb ed3b f4cf a2bc 6646 0d3d 8fa5 5b3c
00000140: 43e3 0fbc 33b9 403c 5796 c53c 5fc4 e03c
00000150: d546 55bb 638e bdbc 925d 59bc 4ef1 5e3c
00000160: 3dc7 e63c f345 59bc 6f65 eb3c c208 f63c
00000170: 7e77 dabc ca00 9dbc a297 c53b 37ed b83c
00000180: 4b12 23bc 402f 77b9 bf49 e73b 8577 22ba
00000190: bf49 953c f431 7dbc 7bed e2bc f25b bb3b
000001a0: 6c5f e83b 4a13 7dbb 7130 0c3d 12b3 973c
000001b0: 71b8 ecb9 a4e2 a8bc 2a2b 9c3c 40fc bd3c
000001c0: 0afc 413c b29a 8dbc 9531 303d edc6 b4bb
000001d0: c6db 9a3c ca36 143c 67b9 cebc 1dd7 aaba
000001e0: f5c0 b33c 7eb4 1f2f a25c 5bbc 8485 6f3c
000001f0: 2fed a1b0 eb68 5bbc 83e9 a8bc a010 dfbc
00000200: ee9b a9bb 1267 a239 81ea c23a da05 14bc
00000210: d4e6 353c 84a1 13bb cede 393a 1098 6239
00000220: adad 013b 1de5 21bc 65a7 d73b 2ee8 cd3b
00000230: 345c 623b 1d03 243c c98b 003c fd91 ac3b
00000240: ad1b 5c3c adad a43b 44b8 19bc 5389 d9ba
00000250: 9a79 2d3c 4f62 0cbb 0f45 3abc 8abd 5d3c
00000260: 68c3 0cbb e0ea 053c ebdc 9f39 dc8e 203c
00000270: 1578 1b3c a4c5 0f3c fc9e 1bbc 7bc4 57bb
00000280: 49d2 66bc 27c0 363c 04fc b63b 7025 f83b
00000290: c890 533a 5235 e93b d6e4 40bc 044c 10bc
000002a0: 42c8 053c eccd 2abc 1d88 a53b 2408 5939
000002b0: e7c4 7f3b 96fa 84bb 5f96 95bb a997 2b3c
000002c0: ffcc 403c 4cf4 a43a bc2d 4bbb 592a 85bb
000002d0: 3e64 8d3b 2405 99bb 2a88 1bbb 25e7 d5bb
000002e0: 97ba 3e3c bd4e afaf 2efb 9cbb 87b9 1fbc
000002f0: 6cae 96af 1134 2dbc bddb 99bb a0d2 e5bb
00000300: edba fb3c fe60 203c 8ef6 3ebc 3f5a dc3b
00000310: 02cd bfba 261e 5f3c 749e 69bc c755 afbc
00000320: c37d 83ba d871 553c 5472 463b 2c55 a83c
00000330: ce56 b63c 8a81 933c 0205 913b 8952 01bd
00000340: 4817 3f3a 3d43 e23b faa0 cf3c d796 b63b
00000350: 406c b1bc ff14 debb 57fa 993c 5d56 44bc
00000360: b169 563c 8950 c03a 3d58 3b3b bcba ffba
00000370: 17a2 e2bb ca4a abbb dc4a 0d3c b42d 0b3b
00000380: db7e 96bc ba82 4b3c 08c6 213c 5829 83bc
00000390: 3476 b83b 92d4 e0bc c8d8 7a3c 1f4f a13b
000003a0: 5590 5b3c 7c03 d23b 16eb 95bb 04dd 28bc
000003b0: cda7 35bc 68fc d6b9 f423 b23c 323e be3b
000003c0: 5df6 1e3c b5b5 a2bb 14ac ccbb 2e73 a0bb
000003d0: 8f4b 2f3a ff08 83b9 7ebe acbb 3d27 4a3c
000003e0: 1425 873c 21ec 17b0 dedd 1bbc 4c42 bd3c
000003f0: 9927 5330 cb27 fd3b 45be 31bb a6d2 713c
-0.009032476 -0.004104121 0.011001356 -0.0039104195 0.0020483122 0.0036633236 0.011272774 0.007587341
-0.008727297 -0.009573844 0.0018841402 -0.008202821 -0.0114755845 0.00027747158 0.005360812 0.0067332163
0.0060406616 -0.006871222 -0.008190775 -0.0015207272 0.016054692 -0.0021126692 -0.001220268 0.019227596
-0.007258693 0.009102224 -0.006383567 0.00060027314 0.00211743 0.00042527285 -0.0038833758 0.00326309
0.00853224 -0.0033957162 -0.0005034306 -0.0021530718 -0.0025434948 0.0071512577 0.0005116807 0.004959714
-0.007735056 0.009753971 0.0016811916 0.00039718894 0.013130917 0.00070081797 -0.0003377453 -0.00034283104
-0.0043067336 0.006063547 0.001509315 0.011170791 -0.0015299451 0.0047582644 -0.007250076 0.008910006
-0.005703042 -4.0760405e-11 0.0018536955 -0.011150963 5.6759575e-10 -0.0016365073 -0.0027402537 -0.009111852
-0.0022210856 0.0040565217 0.042357363 -0.030844206 0.040032666 0.04318328 -0.0037049204 0.01639263
-0.009820612 0.023323534 0.004127093 0.010414453 0.0072607426 -0.01987455 0.034490965 0.013406171
-0.008782211 0.011762905 0.02411954 0.027437387 -0.003254344 -0.023139184 -0.013266938 0.013607336
0.028171176 -0.013261306 0.02873489 0.030033473 -0.026668306 -0.019165415 0.006030039 0.02257405
-0.009953092 -0.00023573358 0.0070583518 -0.00061976194 0.018223641 -0.015453804 -0.02770113 0.005717748
0.0070914533 -0.0038616234 0.034225885 0.018518005 -0.00045150847 -0.020615883 0.019063551 0.023191571
0.011839876 -0.017285679 0.043016035 -0.005516878 0.018903624 0.009046266 -0.025234891 -0.001303408
0.021942595 1.452509e-10 -0.013388785 0.014619235 -1.1781703e-09 -0.013391714 -0.02061916 -0.027229607
-0.005176059 0.0003097584 0.0014870913 -0.009034598 0.011102397 -0.002252669 0.00070903904 0.00021609687
0.0019787357 -0.009881285 0.0065812343 0.0062837815 0.003453982 0.010010508 0.007845827 0.0052664266
0.013434333 0.0050255866 -0.009382311 -0.0016596712 0.010588074 -0.0021420901 -0.011369004 0.013533959
-0.0021478776 0.008173674 0.0003049144 0.009799685 0.009489079 0.008775149 -0.009498354 -0.0032923508
-0.014088222 0.011154211 0.005584242 0.0075728223 0.00080705853 0.007116952 -0.011773309 -0.008807186
0.008165421 -0.010425072 0.0050516264 0.00020697765 0.0039027275 -0.0040581925 -0.004565045 0.01047317
0.011767625 0.0012585013 -0.0031002602 -0.004063886 0.0043149283 -0.0046698023 -0.0023732283 -0.0065277987
0.011641166 -3.1888261e-10 -0.004790685 -0.009748823 -2.7408775e-10 -0.010571496 -0.0046953843 -0.007013634
0.030728782 0.00978875 -0.011655463 0.0067246254 -0.0014633241 0.013618028 -0.01425897 -0.021403207
-0.0010031987 0.013027631 0.0030280547 0.020548426 0.022258189 0.018006105 0.004425646 -0.031572852
0.0007289541 0.006904988 0.025345314 0.0055721807 -0.021658063 -0.0067774053 0.01879613 -0.011983481
0.013086722 0.0014672439 0.002858653 -0.0019510607 -0.0069162953 -0.0052274214 0.008623805 0.0021236958
-0.018371036 0.012421304 0.0098738745 -0.016010925 0.0056293253 -0.027445111 0.015310474 0.004922762
0.013401111 0.006409107 -0.0045751436 -0.0103066005 -0.01108737 -0.00041005318 0.02174566 0.005805754
0.009702292 -0.004965509 -0.0062460992 -0.004896543 0.00066869793 -0.0002499297 -0.005271732 0.012338457
0.016497172 -5.526904e-10 -0.0095133465 0.023102902 7.6817624e-10 0.007725691 -0.0027121466 0.014759695

layers.0.gcn_0.bias f4 [64]
00000000: 6df9 5a3d d8b8 693d 2dc8 8f3d 8035 963d
00000010: 3353 9b3d edc2 833d 3399 c13d 7e70 593d
00000020: b9d6 c83d fe02 633d 90f4 a33d f20c c63c
00000030: 63e6 2c3d df27 473d 61ac c53d 3f69 653d
00000040: 7342 713d 6b9c 1d3d 67af 833d 0ffb 5a3d
00000050: 1b72 ba3d a7e7 803d 5e79 2e3d 52c9 ad3d
00000060: d545 933d 96bb 613d 1abe d23d 507e ab3d
00000070: 737f 663d 2c07 683d a5f5 2f3d 8882 ce3d
00000080: 6052 773d 4384 353d 3e75 213d d148 823d
00000090: 122e ae3d 354a 813d c239 993d 986d 693d
000000a0: 7493 873d 452d 363d 2c7a a93d ab68 9d3d
000000b0: 9c6f bb3d 7fa8 8c3d debe 313d cf2f a33d
000000c0: 7929 633d 9446 e93c bd94 a83d b5ef 9c3d
000000d0: b31b c93d 415f e43d 785e e03c 95cb 863d
000000e0: 42dd 493d 514f d8bc 926e 513d 3799 3a3d
000000f0: 54e6 afbb 6cce 053d b7e9 513d f1ab 863d
0.053460527 0.057061046 0.070206024 0.07334423 0.07584228 0.064336635 0.094530486 0.053085797
0.0980658 0.055422775 0.08005631 0.024176095 0.0422119 0.04862201 0.09652019 0.056008574
0.05890126 0.03847925 0.0642994 0.053462084 0.09103795 0.06294184 0.042596214 0.084856644
0.07191054 0.055110537 0.10290165 0.083737016 0.05627389 0.056647465 0.042958874 0.100834906
0.060381293 0.044315588 0.03941845 0.06361545 0.08504881 0.06312982 0.074817196 0.056989282
0.06619921 0.044476766 0.082752556 0.076859795 0.09152147 0.068680756 0.043394916 0.07968103
0.055459473 0.028476037 0.082314946 0.07662908 0.09819736 0.11150981 0.027388796 0.06581799
0.049283274 -0.026405009 0.05113084 0.045556273 -0.0053680334 0.032667562 0.05124828 0.06575764

layers.1.gcn_1.weight f4 [64, 7]
00000000: bae4 453f 05de 4fbf eb8e ff3e 6241 1fbf
00000010: 49f3 7fbf 2265 253f 1bf8 ef3e 7957 3e3f
00000020: 50b6 583f 8657 433f 2262 35bf a9db 3cbf
00000030: 36f3 ccbe b18b 47bf 990f 19bf 8ca2 263f
00000040: a913 323f 9a7e 423f ef7d e9be 4ebf 39bf
00000050: 88d6 0bbf dff6 793f 6bb0 f6be 870f 3cbf
00000060: 7a76 bcbe c896 203f 06f3 283f e39b 48bf
00000070: 8582 44bf 5023 673f 72ba 633f 6be9 adbe
00000080: 58b1 4b3f a5a5 54bf fd81 3bbf 0bac 5c3f
00000090: b7ab 5dbf f30d 573f 6dfd 733f f114 3bbf
000000a0: bb2e 3abf d084 06bf 4a7b 71bf 33b6 393f
000000b0: 2d28 55bf c256 1d3f b7ff 3a3f f0e8 093f
000000c0: c897 54bf 423e acbe c6be 5c3f 95f2 68bf
000000d0: ca71 8a3f 1cf4 4ebf 6f07 87bf 27de 8e3f
000000e0: cedb 81bf cb56 043f daa8 cc3e b6bf 79bf
000000f0: 93d6 2d3f 8756 163f 553c 5c3d f77a 5c3f
00000100: 2fb8 743f 097f 343f 8141 61bf ec78 81bf
00000110: b25e 2e3e 9e63 7abf 210b 533f c2a9 64bf
00000120: 2c12 6fbf 761f 5f3f 5b0e d03e fe67 74bf
00000130: 5d2c 2c3f edaf 6f3f cc07 25bf e71f 353f
00000140: 91df 16bf 1535 45bf dc28 15bf cedf 473f
00000150: 0310 3a3f 049a 4dbf 3add 663f 0b04 2ebf
00000160: 762c 51bf dea0 1ebf b0e8 7d3f 45a0 553f
00000170: 6ab4 43bf d6e9 42bf dd65 12bf 74cd 413f
00000180: 4b1d aebe 8d61 5d3f 6e45 32bf f8b1 37bf
00000190: c2bf 243f c131 163f 8a94 513f 35e8 81bf
000001a0: be6c cf3e 9c9e 13bf f510 6d3f 3147 42bf
000001b0: 16da 643f 9f01 44bf 91fa 45bf d92a 313f
000001c0: b136 653f d5d5 f4bd dc80 15bf 7422 c8be
000001d0: b782 813f 3453 48bf 006d 8bbe 81ee 41bf
000001e0: 2b21 513f 2de9 4e3f 5b66 64bf 8642 04bf
000001f0: 8623 17bf aecc 543f 95c9 403f df99 3c3f
00000200: a995 343f 1b39 5bbf cfd5 80bf 108e 183f
00000210: 6699 6bbf 3370 6a3f 9847 8c3f 88c6 543f
00000220: fe7b 46bf 0381 48bf 1cb9 1cbf bc88 31bf
00000230: 700d 26bf c7f8 7c3f 1719 34bf 8646 153f
00000240: 945f 753f 98f4 81bf 72e0 07bf e0ed 38bf
00000250: c106 813f 28b8 34bf 71ef 33bf 0fe1 533f
00000260: fd4c 213f 98be 3ebf fb58 8f3f 4ceb 6ebf
00000270: 2886 6ebf 5863 053e 8ca5 98bf 6efc 353f
00000280: 8da9 843f 73fb 20bf b185 f33e 53b0 f1be
00000290: aeb2 653f fdc3 503f 7e67 69bf 6bd3 c6be
000002a0: 3ba9 143f 39b2 55bf 8a0d 0b3f 12d7 373f
000002b0: f386 42bf ae1c 4cbf dbbd 433f 7954 f43e
000002c0: f74b 393f baf6 50bf b632 3fbf d4de 2b3f
000002d0: aa43 68bf 7c48 273f 89ff 54bf 89f8 43bf
000002e0: 5a93 583f 0219 293f d877 243f 875e d73d
000002f0: 346e 21bf dc27 24bf cac7 1bbf 57de 2f3f
00000300: 8f0a 5a3f 912e 353f 6e79 3dbf 6cae d4be
00000310: 0dd8 f53e 5ad2 263f 73e5 53bf d7d2 40bf
00000320: cca1 583f 1d2e 6bbf 4e23 3b3f 1ffc e13e
00000330: 57fa 563f e275 4fbf b1f2 3fbf 0ac2 473f
00000340: b418 77bf c848 4c3f c01e 68bf 39d7 483f
00000350: e224 203f cf55 7ebf df76 71bf 0d3c 473f
00000360: 8c92 303f c869 5abf 72a1 46bf f9f3 343f
00000370: c901 233f 52c5 1f3f 42d3 ea3e 06fb 1dbf
00000380: 974d 20bf c53a 833f 51dd 47bf b87f 443f
00000390: d5a8 58bf 02a8 793f 4712 55bf 2fbc 2abf
000003a0: f7ff 27bf 0b41 443f fe56 3abf 3452 503f
000003b0: 9d76 0abf f3dd 4e3f 0494 493f 4dcb 403f
000003c0: 2247 f23e b656 3abf 1c08 51bf e250 3dbf
000003d0: 3ac6 153f aa62 1abf 4f9a 883f 32b1 0ebf
000003e0: b02d 3cbf 794c 843f bfa6 bbbe 1d1e 03bf
000003f0: 8ead 66bf 40f6 60bd fd73 623f 4f32 4abf
0.77302134 -0.8119815 0.49913725 -0.6220914 -0.999806 0.6460744 0.46868977 0.7435222
0.84653187 0.76305425 -0.70852864 -0.73772675 -0.40029305 -0.7794753 -0.59789425 0.65091777
0.6956125 0.7597443 -0.45603892 -0.7255753 -0.54624224 0.9764232 -0.4818147 -0.7346119
-0.3680914 0.62730074 0.65995824 -0.78362864 -0.76761657 0.9028826 0.8895637 -0.33967146
0.7956748 -0.83065253 -0.7324522 0.86200017 -0.8659014 0.8400566 0.9530857 -0.7307883
-0.72727555 -0.52546406 -0.9432875 0.7254364 -0.8326443 0.61460507 0.7304644 0.5387106
-0.830441 -0.3364125 0.862286 -0.9099515 1.0815976 -0.8084123 -1.0549144 1.1161546
-1.0145204 0.51694936 0.39972574 -0.9755815 0.6790554 0.5872578 0.053768475 0.8612513
0.9559354 0.7050634 -0.87990576 -1.0115027 0.17028311 -0.97808254 0.82438856 -0.8932153
-0.93387103 0.8715738 0.40635952 -0.9547118 0.67255193 0.93627816 -0.6446502 0.70751804
-0.58934885 -0.7703412 -0.5826547 0.78075874 0.7268068 -0.80313134 0.90181315 -0.6797492
-0.81708467 -0.61964214 0.9918318 0.83447677 -0.76447165 -0.76138055 -0.5718668 0.7570412
-0.34006724 0.86476976 -0.6963719 -0.71755934 0.643551 0.5866967 0.8186728 -1.0148989
0.4051265 -0.57663894 0.92604 -0.7588988 0.8939527 -0.76564974 -0.7733546 0.69206005
0.8953658 -0.11954848 -0.5839975 -0.39088786 1.0118016 -0.7825196 -0.27231598 -0.75754553
0.81691235 0.8082455 -0.8921868 -0.51664007 -0.5903858 0.83124816 0.7530759 0.7367229
0.70540863 -0.8563401 -1.0065249 0.5959177 -0.9203094 0.9157745 1.0959349 0.83115435
-0.7753295 -0.78321856 -0.61219954 -0.69349265 -0.64864254 0.98817104 -0.70350784 0.58310735
0.95848966 -1.0152769 -0.5307685 -0.7223797 1.0080186 -0.705935 -0.70287234 0.8276529
0.630081 -0.74509573 1.119903 -0.93327785 -0.93173456 0.13026178 -1.1925521 0.710883
1.0364243 -0.6288368 0.47562936 -0.47204837 0.8972577 0.81549054 -0.9117354 -0.38833174
0.58070725 -0.8347507 0.54317534 0.71812546 -0.75987166 -0.7973126 0.7646157 0.47720698
0.7238154 -0.81626475 -0.74686754 0.67136884 -0.9072825 0.6534498 -0.83202416 -0.7655111
0.8459984 0.66053784 0.6424537 0.105160765 -0.6305878 -0.6412332 -0.6085173 0.6869864
0.8517236 0.7077418 -0.7401341 -0.41539323 0.48016396 0.6516472 -0.82771987 -0.75321716
0.8462188 -0.9186724 0.73100746 0.44137666 0.8397574 -0.8103925 -0.7497969 0.78030455
-0.9652207 0.79798555 -0.9067192 0.78453404 0.6255628 -0.99349684 -0.9432201 0.77826005
0.6897361 -0.8531766 -0.77590096 0.7068477 0.636746 0.6241046 0.45864302 -0.61711156
-0.6261839 1.025231 -0.7807208 0.76757383 -0.8463262 0.97521985 -0.83231014 -0.66693395
-0.65624946 0.7666175 -0.7278899 0.8137543 -0.5408724 0.8080742 0.7874148 0.7531021
0.47319895 -0.7278856 -0.81653 -0.7395154 0.58505595 -0.603068 1.0672091 -0.5573913
-0.73507214 1.0335838 -0.36650655 -0.51217824 -0.90108573 -0.054922342 0.88458234 -0.78983015

layers.1.gcn_1.bias f4 [7]
00000000: 3700 c63d 6671 33bf ce8c 333d 9ba7 fc3b
00000010: 84e5 243d b456 4b3f 9fd3 7bbe
0.0966801 -0.7009491 0.043835454 0.00771041 0.040257946 0.79429173 -0.24592446
