cache/pretrained/pretrained_25.pt (torch_old, 740152 bytes, 4 tensors)

layers.0.gcn_0.weight f4 [2879, 64]
0.0020865514 0.00096770807 -0.0013285427 0.0027667745 0.0013702139 -0.0017781322 -0.0043604057 0.0021725744
-0.006340662 -0.0013851286 0.0063798754 0.0058331727 0.008946205 0.0063783447 0.0025257473 -0.002424831
-0.0039409674 0.007317615 0.009331146 0.00857552 0.0033048487 -0.0035746885 0.01030034 0.0017171786
0.0035715585 0.0033657944 0.0038455068 0.002292638 0.00020480844 0.0018798946 -0.00018927122 0.0074933693
0.0042937254 -0.0074685453 0.0020431508 0.0088168075 -0.009087173 -0.0019011918 -0.0019000061 -0.0045141913
-0.00615525 0.002351085 0.002213539 0.0032544944 0.0004367637 -0.004829818 -0.008919886 0.0015169368
-0.0027789865 0.008135572 -0.0033221792 0.004951197 -0.0009198052 0.00025537977 0.0073239882 0.0068647587
-0.0010785038 0.0066361395 0.0047693625 -0.009647445 -0.003615998 0.0039988793 0.00082026626 0.0005820629
-0.05767711 0.01853812 -0.039074738 -0.002728189 -0.0083338395 0.008985853 0.015556477 -0.0056558135
-0.00038648766 0.012320746 -0.027018726 -0.014441535 -0.00021819497 0.010109045 -0.00492052 0.008938
0.025969239 -0.0086914515 -0.002369893 -0.047918513 -0.017544633 -0.004788913 -0.042241406 0.0012613452
0.032244746 -0.0055021425 -0.046833187 -0.035682507 0.040925033 0.018513316 0.00041383583 -0.049676716
0.013950633 0.035250444 0.0071792505 -0.079316005 0.06331994 0.0058059297 -0.0052505294 0.04959841
0.009542705 -0.0066294316 -0.0088832015 0.019415647 -0.04838885 -0.007713806 0.016833559 0.04823173
-0.09653862 -0.054132823 0.011862512 -0.013900296 0.03929824 -0.02387756 -0.03499341 0.0018118082
0.019359257 -0.00848436 0.025253914 0.0053135934 0.003224802 -0.057781048 0.016568342 -0.029055208
0.00070912036 0.0018737904 0.0020685762 0.00037540786 0.0002048291 -0.0020715815 -0.0003778447 0.002520188
-0.0011220799 0.0028875102 0.002908759 0.0024058684 0.0014229328 0.00066548417 0.0007501937 -0.002206384
-0.0018607354 0.003787712 -0.00087654527 0.0003839579 0.0011550838 0.00055667316 0.001273243 0.0038885681
-0.002300329 0.0014404205 -0.0028580402 -2.1940235e-05 -0.0009838245 -0.00040584608 -0.0001590495 0.00024012345
0.0005805248 0.00019507739 0.00015197597 7.523308e-05 0.0017260215 -0.0008517711 0.000781164 -0.0022231562
-0.0008314362 0.0014640035 0.0014582623 -0.0029413109 0.0003088909 0.00039723082 0.0013383469 -0.00026631646
0.0012959553 -0.00074265705 0.0011333869 -5.250408e-05 -3.0646395e-05 0.0046892054 0.0012703529 0.0003820021
-0.0009718747 -0.00018164178 0.000119464436 0.0005880079 -0.0023552033 -5.07983e-05 0.0005750489 0.00040154354
0.0021898812 -0.0013813851 0.004210139 0.00062635244 0.0018827259 0.0015600005 0.0011950582 -0.0077362168
-0.010004345 5.5867193e-05 0.009012224 -0.0046588453 0.0033445833 -0.005029316 0.0026153813 -0.00017554642
0.004013742 0.01000255 0.016809195 0.008961544 0.0031189227 0.000281358 -4.847853e-05 0.005618048
-0.00013936183 -0.00029547288 0.00936176 -0.0019836214 0.0009561506 0.00045633325 -0.00012289656 0.0056141885
0.0062412918 -0.0150351925 -0.001842994 0.00095787714 -0.0016826995 -0.007584331 0.0028385124 -0.005975777
-0.004243635 0.011072898 -0.0018888811 -0.011352972 0.0047732363 -0.0070015136 -0.0050458475 -0.005261196
0.0053245206 -0.0026555532 -0.003157948 0.0025585897 -0.0050912895 0.007336888 0.008199853 0.004494772
0.0049182223 -0.00022335212 0.0031676542 -0.0036909375 -0.01240713 0.0015582872 -0.00094627554 0.003677469
00000000: 86be 083b caad 7d3a 7f22 aeba c652 353b
00000010: c098 b33a 3710 e9ba bce1 8ebb c061 0e3b
00000020: 54c5 cfbb 348d b5ba 460e d13b 3324 bf3b
00000030: 1a93 123c 6f01 d13b 0287 253b eae9 1ebb
00000040: 3b23 81bb 9bc8 ef3b aae1 183c 5680 0c3c
00000050: 2996 583b 5245 6abb c2c2 283c f412 e13a
00000060: cf10 6a3b a994 5c3b e604 7c3b 1540 163b
00000070: d9c1 5639 cc66 f63a 1b77 46b9 f08a f53b
00000080: 61b2 8c3b b3ba f4bb 62e6 053b 5f74 103c
00000090: 5ee2 14bc 6931 f9ba a009 f9ba c8eb 93bb
000000a0: fbb1 c9bb a914 1a3b 0611 113b 5b49 553b
000000b0: 6efd e439 7343 9ebb b724 12bc f4d3 c63a
000000c0: a81f 36bb 104b 053c ebb8 59bb a73d a23b
000000d0: 151f 71ba 7ee4 8539 11fe ef3b c5f1 e03b
000000e0: 955c 8dba f973 d93b 5048 9c3b 5110 1ebc
000000f0: 61fa 6cbb 0809 833b 2307 573a 9495 183a
00000100: d53e 6cbd 41dd 973c d50c 20bd 6bcb 32bb
00000110: a88a 08bc 6639 133c 98e0 7e3c 6754 b9bb
00000120: 7fa1 cab9 f4dc 493c 6056 ddbc 309c 6cbc
00000130: 44cb 64b9 68a0 253c 503c a1bb b070 123c
00000140: 71bd d43c 9766 0ebc 3550 1bbb 3446 44bd
00000150: c3b9 8fbc 50ec 9cbb 5305 2dbd b953 a53a
00000160: 1113 043d 514b b4bb 28d4 3fbd d227 12bd
00000170: 02a1 273d 3da9 973c 1bf8 d839 d079 4bbd
00000180: 3291 643c c562 103d eb3f eb3b 6e70 a2bd
00000190: e2ad 813d ab3f be3b a20c acbb b427 4b3d
000001a0: 0159 1c3c b43b d9bb d98a 11bc 900d 9f3c
000001b0: 6333 46bd 18c4 fcbb 88e6 893c a28e 453d
000001c0: 0ab6 c5bd 61ba 5dbd fb5a 423c 11be 63bc
000001d0: 31f7 203d df9a c3bc 4055 0fbd 327a ed3a
000001e0: 4e97 9e3c fc01 0bbc 4ce1 ce3c a71d ae3b
000001f0: 3357 533b d2ab 6cbd 55ba 873c 3005 eebc
00000200: 43e4 393a f999 f53a f390 073b 64d2 c439
00000210: 65c7 5639 5fc3 07bb 7519 c6b9 bd29 253b
00000220: c112 93ba 623c 3d3b e1a0 3e3b c6ab 1d3b
00000230: b481 ba3a e373 2e3a a6a8 443a fb98 10bb
00000240: ebe3 f3ba 433b 783b f5c7 65ba f54d c939
00000250: 2e66 973a b4ed 113a f2e2 a63a 59d7 7e3b
00000260: 1ec1 16bb 7ecc bc3a f54d 3bbb 4c0c b8b7
00000270: acf3 80ba bdc7 d4b9 86c6 26b9 a6c9 7b39
00000280: 5c2e 183a b08d 4c39 bd5b 1f39 74c6 9d38
00000290: ac3b e23a 6449 5fba 07c7 4c3a 5fb2 11bb
000002a0: bdf4 59ba cee3 bf3a 2a23 bf3a 02c3 40bb
000002b0: a3f2 a139 6b43 d039 786b af3a 64a0 8bb9
000002c0: 0bdd a93a dfae 42ba 278e 943a d437 5cb8
000002d0: 518a 00b8 e8a7 993b f881 a63a 7447 c839
000002e0: 68c5 7eba 1877 3eb9 fb88 fa38 8b24 1a3a
000002f0: c159 1abb 4210 55b8 e1be 163a 4386 d239
00000300: 1c84 0f3b 980f b5ba 35f5 893b cd31 243a
00000310: ccc5 f63a ee78 cc3a 80a3 9c3a 1780 fdbb
00000320: 44e9 23bc f152 6a38 02a8 133c 3aa9 98bb
00000330: cc30 5b3b f6cc a4bb d166 2b3b e212 38b9
00000340: b585 833b bce1 233c 70b3 893c 71d3 123c
00000350: d766 4c3b 3b83 9339 6d55 4bb8 9a17 b83b
00000360: a821 12b9 b3e9 9ab9 1162 193c a5ff 01bb
00000370: 2ea6 7a3a 0340 ef39 cbdd 00b9 3af7 b73b
00000380: c083 cc3b 2b56 76bc 9e90 f1ba 0c1a 7b3a
00000390: 078e dcba fb85 f8bb 5606 3a3b 73d0 c3bb
000003a0: 310e 8bbb 1a6b 353c 5594 f7ba d101 3abc
000003b0: cf68 9c3b f46c e5bb a357 a5bb 1c66 acbb
000003c0: 5179 ae3b ca08 2ebb 93f5 4ebb 03ae 273b
000003d0: d5d4 a6bb 476a f03b ad58 063c e148 933b
000003e0: 0a29 a13b a133 6ab9 6b98 4f3b a8e3 71bb
000003f0: 4647 4bbc 713f cc3a 7a0f 78ba b101 713b

layers.0.gcn_0.bias f4 [64]
0.10438018 0.12766512 0.10222823 0.09192826 0.0768799 0.13990729 0.13625665 0.055778153
0.061066147 0.14854114 0.13973115 0.08080077 0.039493185 0.048321497 0.045461375 0.12039857
0.11478163 0.08376175 0.13113764 0.07134407 0.09113119 0.10350025 0.09713147 0.1696215
0.13972433 0.047954913 0.118691765 0.121467225 0.065557055 0.09301155 -0.025160717 0.103732675
0.13817771 0.067361176 0.08875585 0.033277668 0.11898111 0.12690623 0.06250852 0.06676106
0.0885052 0.120231956 0.11798353 0.069793485 0.14050102 0.08698143 0.11702261 0.05444462
0.10115047 0.029742554 0.08038714 0.087315336 0.058035493 0.13205324 0.07819527 0.07939891
0.07995693 0.0918329 0.10850308 0.10832967 0.057270512 0.115112886 0.11083223 0.07471431
00000000: 47c5 d53d a5ba 023e 095d d13d e244 bc3d
00000010: 3673 9d3d db43 0f3e dd86 0b3e a277 643d
00000020: 7f20 7a3d 2b1b 183e af15 0f3e e07a a53d
00000030: 9bc3 213d c3ec 453d b535 3a3d 8793 f63d
00000040: a212 eb3d 488b ab3d f248 063e d71c 923d
00000050: fda2 ba3d f0f7 d33d ddec c63d 42b1 2d3e
00000060: e513 0f3e 5f6c 443d ab14 f33d cfc3 f83d
00000070: c742 863d d77c be3d d91d cebc cc71 d43d
00000080: 757e 0d3e a8f4 893d a1c5 b53d 2a4e 083d
00000090: 5eac f33d b5f3 013e 7804 803d 06ba 883d
000000a0: 3742 b53d 2c3c f63d 59a1 f13d e3ef 8e3d
000000b0: 80df 0f3e 5223 b23d 8da9 ef3d 5201 5f3d
000000c0: fa27 cf3d a8a6 f33c 03a2 a43d 62d2 b23d
000000d0: a0b6 6d3d f738 073e d724 a03d e59b a23d
000000e0: 75c0 a33d e312 bc3d dd36 de3d f2db dd3d
000000f0: 7c94 6a3d 4ec0 eb3d 02fc e23d d103 993d

layers.1.gcn_1.weight f4 [64, 7]
0.17738579 0.39710703 -0.41178876 0.3995339 -0.35003614 -0.4380652 0.23278213 -0.29843605
0.43698427 0.4056179 0.3015629 -0.2746205 -0.38046664 -0.28669164 -0.48589495 0.3031844
0.25761154 0.37370574 0.085945405 -0.06992768 -0.39216936 -0.3500936 -0.3392919 0.09069011
0.43223214 0.30541474 -0.1982987 0.42198646 0.06399341 0.32755956 -0.36708745 0.052943923
-0.19854058 0.32518587 -0.19913162 0.1433294 0.1861935 -0.4881213 0.15331213 -0.42702317
0.24748002 0.2395291 0.08010923 -0.37487915 0.29789218 0.40051717 -0.3515981 -0.3962919
0.42225945 -0.3390349 -0.25530002 0.05012004 -0.18941973 0.4365711 0.3802911 0.42704183
-0.1171287 0.364623 0.37415442 -0.32406008 -0.26904467 0.30913597 -0.21632347 0.039796937
0.36271453 0.31296992 0.32290384 -0.30679446 -0.420013 -0.34239686 0.43682885 -0.24730441
-0.30719173 0.23572056 0.41755652 -0.25612792 -0.21775533 -0.43675867 -0.30346408 -0.3245294
0.17918728 0.40205044 0.38424307 0.39229685 -0.021061994 0.39357877 -0.3753163 -0.08216495
0.445839 -0.38757423 -0.25053787 -0.23301916 0.4198121 0.20742235 -0.33553514 0.27278745
-0.3101574 -0.21985689 -0.4004929 0.29639536 -0.36362872 -0.34140128 -0.009933217 0.40972385
0.3393175 0.27230182 -0.27450755 0.3494756 0.3465171 -0.29292512 0.37569758 -0.43847096
0.3962373 -0.19104736 0.35437715 -0.29078048 -0.25862086 -0.29728585 0.37215647 -0.2162032
-0.30895507 -0.2257463 0.3184053 0.44892278 -0.14474586 -0.25894064 0.3614376 -0.3488655
-0.37517324 0.31035635 0.3678214 -0.30138922 -0.25930646 0.42239976 0.34837675 -0.27148372
-0.42420372 0.39399993 -0.3996591 -0.3296544 -0.4558226 -0.47198054 -0.3349883 0.3816303
0.13781957 0.35047576 0.3989408 0.29212937 0.15002567 -0.40643525 0.3515968 -0.44535232
0.065490164 -0.25094944 0.37392414 0.21670665 -0.36729938 -0.055780288 -0.3229996 0.36382782
-0.30689132 0.37610507 -0.29889026 -0.39755243 0.25217885 0.31175762 -0.39639363 0.25468045
0.2254062 0.12785262 0.27718022 -0.4697839 -0.1744382 -0.37622207 0.2932365 -0.27712283
0.3118707 0.39877534 -0.40455222 0.39126313 -0.330188 -0.23835002 0.24883544 0.28282315
0.14487486 -0.48851612 0.14797285 -0.39854026 -0.38973156 0.38339296 0.1380548 0.34925145
-0.46569327 -0.3754825 0.21976683 -0.3908678 -0.45320684 0.3282192 0.26704508 -0.14008102
0.067636795 0.35017288 -0.4091144 -0.20139585 -0.30062202 0.37119737 -0.014914088 0.13566297
-0.14510441 0.3713562 -3.0438263e-05 -9.131524e-06 -1.7506982e-05 7.5177246e-05 0.00086664234 3.3159136e-05
2.3087783e-05 0.31663138 -0.46083373 0.1214456 -0.45275685 0.39022484 0.2695542 -0.27431306
0.3214837 -0.37683785 0.1543481 -0.45734987 0.25996056 -0.37041458 0.22977972 -0.37518227
-0.3345544 0.35612145 -0.2621959 -0.29785421 0.33747742 0.3585847 -0.3915824 0.32776013
0.27414286 0.08641628 0.32586804 -0.39038408 -0.2908051 -0.38928938 0.063335896 -0.21639375
-0.23576553 0.40252757 0.3803357 -0.3344205 0.30409893 0.27414697 -0.07447758 0.28051972
00000000: 9fa4 353e 9d51 cb3e fad5 d2be b58f cc3e
00000010: f037 b3be 154a e0be 705e 6e3e 9ccc 98be
00000020: 67bc df3e 26ad cf3e 7466 9a3e 0f9b 8cbe
00000030: 86cc c2be 3fc9 92be 39c7 f8be fc3a 9b3e
00000040: a9e5 833e 5c56 bf3e 2504 b03d 3e36 8fbd
00000050: 6cca c8be 783f b3be abb7 adbe bdbb b93d
00000060: 884d dd3e 525f 9c3e d00e 4bbe 9c0e d83e
00000070: fa0e 833d e3b5 a73e e3f2 bbbe badb 583d
00000080: 394e 4bbe c37e a63e 29e9 4bbe f1c4 123e
00000090: 82a9 3e3e 09eb f9be dbfd 1c3e c8a2 dabe
000000a0: 676b 7d3e 1e47 753e 4f10 a43d 29f0 bfbe
000000b0: 5385 983e 9610 cd3e ab04 b4be c6e6 cabe
000000c0: 6432 d83e fb95 adbe afb6 82be ac4a 4d3d
000000d0: 3ff7 41be 3f86 df3e 84b5 c23e 3aa5 da3e
000000e0: 2ce1 efbd deaf ba3e 2b91 bf3e 34eb a5be
000000f0: 39c0 89be 1247 9e3e e683 5dbe 1d02 233d
00000100: b8b5 b93e 983d a03e a753 a53e 2a14 9dbe
00000110: f20b d7be a44e afbe 08a8 df3e 5e3d 7dbe
00000120: 3c48 9dbe bb60 713e f8c9 d53e 3323 83be
00000130: 41fb 5ebe d59e dfbe a55f 9bbe b828 a6be
00000140: df7c 373e 8ed9 cd3e 82bb c43e 22db c83e
00000150: 348a acbc 2883 c93e 7529 c0be 1946 a8bd
00000160: 0245 e43e 2170 c6be 8046 80be 939c 6ebe
00000170: 9df1 d63e 8666 543e 43cb abbe ccaa 8b3e
00000180: f3cc 9ebe 2a22 61be 680d cdbe 22c1 973e
00000190: 8b2d babe 26cc aebe efbe 22bc 53c7 d13e
000001a0: 06bb ad3e 256b 8b3e 418c 8cbe 77ee b23e
000001b0: b06a b13e 48fa 95be 6f5b c03e 447f e0be
000001c0: 9edf ca3e eba1 43be ec70 b53e 2ee1 94be
000001d0: f469 84be da35 98be 4b8b be3e 5f64 5dbe
000001e0: 5c2f 9ebe 0a2a 67be 0506 a33e 35d9 e53e
000001f0: 4238 14be de93 84be 590e b93e 809e b2be
00000200: b516 c0be 07e7 9e3e 1653 bc3e b04f 9abe
00000210: d1c3 84be c844 d83e 705e b23e eaff 8abe
00000220: 3b31 d9be 5cba c93e 1ea0 ccbe 76c8 a8be
00000230: 9461 e9be 6fa7 f1be 9683 abbe 0c65 c33e
00000240: 9320 0d3e 8f71 b33e f841 cc3e fb91 953e
00000250: 54a0 193e 4818 d0be 7f04 b43e 3805 e4be
00000260: b51f 863d 727c 80be fc72 bf3e 59e8 5d3e
00000270: aa0e bcbe df79 64bd 3460 a5be a447 ba3e
00000280: dc20 9dbe d890 c03e 2508 99be fe8b cbbe
00000290: 961d 813e b29e 9f3e 1bf4 cabe 7a65 823e
000002a0: e2d0 663e cceb 023e 91ea 8d3e 8487 f0be
000002b0: ed9f 32be 2ea0 c0be 1823 963e 0be3 8dbe
000002c0: 84ad 9f3e 482c cc3e 7821 cfbe a453 c83e
000002d0: 670e a9be 0712 74be b8ce 7e3e 32ce 903e
000002e0: 135a 143e c91e fabe 3286 173e 780d ccbe
000002f0: e58a c7be 154c c43e 3d5e 0d3e 16d1 b23e
00000300: 596f eebe 3e3f c0be 8e0a 613e d31f c8be
00000310: ba0a e8be 590c a83e 22ba 883e 6671 0fbe
00000320: 2985 8a3d dc49 b33e 7177 d1be b73a 4ebe
00000330: 21eb 99be 950d be3e 385a 74bc 3ceb 0a3e
00000340: 4096 14be 6622 be3e ac55 ffb7 9933 19b7
00000350: f5db 92b7 7aa8 9d38 622f 633a 5a14 0b38
00000360: a3ac c137 821d a23e 66f2 ebbe 79b8 f83d
00000370: bfcf e7be 8dcb c73e 0203 8a3e c372 8cbe
00000380: 8399 a43e e4f0 c0be 6e0d 1e3e c329 eabe
00000390: 8d19 853e fba6 bdbe 604b 6b3e e417 c0be
000003a0: b74a abbe 8d55 b63e 8a3e 86be 5980 98be
000003b0: d7c9 ac3e 6a98 b73e 7d7d c8be 2dd0 a73e
000003c0: 745c 8c3e 05fb b03d 2dd8 a63e 6ce0 c7be
000003d0: 68e4 94be f050 c7be 40b6 813d 5396 5dbe
000003e0: 856c 71be 1818 ce3e 5cbb c23e 2a39 abbe
000003f0: dbb2 9b3e fe5c 8c3e b487 98bd 48a0 8f3e

layers.1.gcn_1.bias f4 [7]
0.13383256 -0.118367545 0.052079916 -0.029807013 -0.14070658 0.10741706 0.02687323
00000000: 670b 093e af6a f2bd c051 553d d62d f4bc
00000010: 6315 10be 7afd db3d 3f25 dc3c
