cache/pretrained/pretrained_1.pt (torch_old, 740152 bytes, 4 tensors)

layers.0.gcn_0.weight f4 [2879, 64]
000000 0e 94 a2 3a 6d 38 c2 ba 7b f7 f8 3a a9 37 ef bb
       0.0012403743 -0.0014817842 0.0018994653 -0.0073003364
000010 42 60 db 3a 66 21 5a 3b b8 36 b5 bb 7c 3b 3e 3c
       0.0016737061 0.0033284067 -0.0055302046 0.011610862
000020 8e 65 b6 ba a4 25 93 3b 5d 61 b5 3a ac 20 64 3b
       -0.0013915764 0.004490571 0.0013838221 0.0034809513
000030 68 da a7 3b 86 2f 62 3a a0 78 29 3b 9f 01 34 3c
       0.0051224716 0.00086282974 0.0025859252 0.010986715
000040 dd 92 86 ba a5 64 73 3c 19 a8 06 bb e4 b7 81 3b
       -0.0010267157 0.0148555385 -0.0020546971 0.003958689
000050 71 1c 99 bb 24 c3 11 bb d3 5c fd 3b a5 c0 9b bb
       -0.00467258 -0.0022241557 0.007732013 -0.0047531896
000060 3b 9e 96 3b 62 f1 10 3c 3a af 0a bc 5f 28 1d bc
       0.0045964993 0.008846613 -0.008464629 -0.009592145
000070 fc 03 22 3a 21 47 9b 39 ea 1c 25 3c 51 fd 4b bc
       0.0006180403 0.000296169 0.010077694 -0.012450532
000080 8c e8 a1 3b 48 c5 c8 bb bc 57 e6 3b 8e fc 6e 3b
       0.004941052 -0.0061270334 0.0070295017 0.0036466452
000090 fd a3 3f bc ac e0 7b 3b ee 3d d3 ba 62 13 68 36
       -0.011696813 0.0038433475 -0.0016116479 3.4581976e-06
0000a0 de b7 41 ba e1 26 f2 3b f4 65 46 bb e3 85 4f 3c
       -0.0007389764 0.0073898886 -0.003027317 0.012666198
0000b0 6e ae 3c b6 7a 98 b4 bb 46 4a 70 3b df 00 b2 bb
       -2.8115714e-06 -0.0055113407 0.0036665364 -0.0054322327
0000c0 32 15 09 bc b1 e6 00 3c 92 ab 80 ba 53 35 3d 3c
       -0.00836687 0.007867501 -0.0009816757 0.011548358
0000d0 5c 3d 3a bc f5 12 0e bc 5b 52 75 3b 81 59 64 bb
       -0.011367168 -0.008671512 0.003743312 -0.0034843388
0000e0 3e 3f 05 39 01 15 b3 36 74 3f 2c 3a 3a e3 01 bc
       0.00012707428 5.337061e-06 0.00065707345 -0.00792771
0000f0 45 93 a0 bb 35 62 43 3c 22 a6 0b 3c b6 d3 59 bc
       -0.0049003684 0.01192527 0.008523496 -0.013295105
000100 04 4d a3 39 d8 8e 74 b8 ee a4 9d 3c e3 19 68 bc
       0.00031147164 -5.8307167e-05 0.019243684 -0.014166328
000110 8f 51 05 3c f7 8e 41 bc ad 18 a5 3c 6b e4 e2 3b
       0.008137121 -0.011813871 0.020153368 0.006924202
000120 d1 ae d0 3b 8c d2 f5 3b 7a a0 b8 bc 00 29 51 bc
       0.006368496 0.007501906 -0.022537459 -0.012766123
000130 aa 87 27 bc 70 54 56 bc 02 7b 2a 3c 39 ac 7d 3c
       -0.010225216 -0.013081655 0.010405304 0.015482956
000140 23 01 8d bc 88 6b 9c 3c 1f cd 72 ba 00 3b 65 3b
       -0.017212456 0.019094244 -0.0009262133 0.0034977794
000150 79 78 b7 3b 01 ef 7b 3c 06 50 83 bc cc 14 22 3b
       0.0055990783 0.015376807 -0.01602937 0.0024731634
000160 7f a2 cd bc 78 cc 0e bc c8 d2 b5 bb 47 55 4f 3b
       -0.025101898 -0.008715741 -0.0055488087 0.0031636523
000170 93 92 8a bc 81 44 29 bc 25 3a bd 3c 7b b1 28 3c
       -0.016915595 -0.010331274 0.023099015 0.010296221
000180 e4 71 4b 3d 9f 7e 2e 3b cd 01 19 3b 9d ce 9c ba
       0.04966916 0.0026625765 0.002334702 -0.0011963431
000190 57 5d 55 3c 68 35 79 3c e5 20 b7 3a 9d 9e 27 37
       0.013022742 0.015210487 0.0013971595 9.990906e-06
0001a0 e8 a7 06 bd da 05 95 3c 71 56 50 3a 00 60 78 3c
       -0.03287497 0.018191267 0.0007947451 0.015159607
0001b0 fd 1f 0d b7 b4 d7 74 3c 81 b3 04 3c 3c 54 9f bb
       -8.411703e-06 0.014944006 0.008099438 -0.0048623364
0001c0 d1 00 1e bc 12 94 f9 bb 39 96 a8 3c fe 34 e1 3b
       -0.009643749 -0.0076165283 0.020579444 0.0068727722
0001d0 3f 6e 97 bc 0a 8e cf 3b 17 11 89 3c 8d 56 8b bb
       -0.018485187 0.006334071 0.016731782 -0.004252261
0001e0 78 16 20 bc c7 78 40 b6 96 db e2 3c 4c e4 c6 3b
       -0.009770982 -2.8680531e-06 0.027692597 0.0060696956
0001f0 14 47 15 3c c9 b2 8b 3c 53 a5 1c 3c e6 04 93 bc
       0.009111185 0.017053025 0.009560901 -0.017946672
000200 43 af 98 3a 9a 1d 00 3b 18 8a ed 3a 47 f7 bf bb
       0.0011648912 0.0019548894 0.001812282 -0.005858335
000210 d8 f4 05 ba 60 eb 96 3b 31 7f 4a b9 fe 91 22 3b
       -0.0005110032 0.0046056956 -0.00019311604 0.0024806256
000220 88 0c b3 ba e4 b8 12 3b 9c b3 4b 3b e7 2f 80 39
       -0.0013660351 0.0022388035 0.0031082397 0.00024449753
000230 6c 3e 24 bb 23 58 ea 39 35 e8 99 3b c9 5e f2 3a
       -0.002506162 0.00044697625 0.0046968707 0.0018491383
000240 19 05 e3 ba 88 53 7f 3b 9b 79 4a bb 06 0c ce b9
       -0.0017320245 0.00389597 -0.0030895236 -0.0003930034
000250 31 7d bc 38 79 0f a2 bb c2 94 1e 3a 79 ba bc 3a
       8.987857e-05 -0.004945692 0.00060493883 0.0014398835
000260 4a 5a 8a 39 e6 35 ac 3b f0 1e 35 ba 46 89 4a 39
       0.00026388682 0.0052554486 -0.0006909212 0.0001931536
000270 eb 15 60 3a 13 a6 10 3b c9 6a f8 3a e7 a5 3f ba
       0.0008548188 0.0022071644 0.0018952723 -0.0007310793
000280 4e b4 2b bb 8b 2d 0a 3a 2a 5c d5 ba b6 33 99 3a
       -0.00262 0.00052710687 -0.0016278077 0.0011688385
000290 6f a9 64 3b b8 04 11 3b 22 72 63 b8 39 67 84 b6
       0.003489103 0.0022128057 -5.4227312e-05 -3.9459233e-06
0002a0 71 ef 80 3a 9a 5d 14 3a fb e5 20 3b c9 03 32 3b
       0.0009836984 0.00056596997 0.0024551142 0.00271629
0002b0 17 ef 15 37 b4 9b a3 39 74 57 aa 3a fa b9 66 3b
       8.9367595e-06 0.0003120579 0.0012996034 0.0035206066
0002c0 ca 4d a7 3b dd 11 82 3b a9 ea fe ba 04 48 bc ba
       0.0051057087 0.0039694146 -0.0019448596 -0.0014364724
0002d0 6b 8a f8 ba 7b 77 cf ba 62 5b 0f ba 7f 6f 3c ba
       -0.001896215 -0.0015828455 -0.0005468634 -0.0007188245
0002e0 05 3f 48 3b 9b ca 16 36 ff 89 a0 39 b5 d8 43 ba
       0.003055514 2.2469674e-06 0.00030620393 -0.00074709515
0002f0 0a c6 24 3a 9a db 2c bb d4 26 12 3a 79 c9 d3 ba
       0.00062856136 -0.002637601 0.0005575244 -0.0016158066
000300 c7 ef 36 3c ab 8d 0f 3c 74 b0 c9 3b 11 b6 ae 39
       0.011165566 0.008761804 0.006155068 0.00033323516
000310 80 4f 6b bc d8 ee c4 3b 58 53 da bb 2a 34 38 bc
       -0.014362216 0.0060099177 -0.0066627674 -0.011242906
000320 26 0d f5 bb f0 9b 30 3c 87 8e 56 bc 15 c9 02 3c
       -0.007478374 0.010779366 -0.013095505 0.007982512
000330 9a 2d 04 3c 4c ce 6e 3b 1c 63 c1 39 c5 b9 07 bc
       0.008067513 0.003643888 0.0003688567 -0.008284037
000340 50 ae 8a 3c cf 90 55 3b 5c 37 88 3c 1d 8d 5b 3c
       0.016928822 0.0032587533 0.01662796 0.013400343
000350 ba f2 64 bc 7a 35 28 39 e4 3e 91 3c ae 3b 7c bc
       -0.013973886 0.0001604165 0.017730184 -0.015395088
000360 bb 80 01 3c f9 a1 22 3b f1 9c 84 3a 1c 53 75 3b
       0.007904227 0.0024815782 0.0010117573 0.003743357
000370 99 ab ec 3b 98 b1 2f 3c 33 57 71 bb 4b 84 5a bb
       0.0072226045 0.010723494 -0.0036825656 -0.0033343013
000380 45 55 bc b9 f6 96 c3 3b 10 74 6d 3c d4 e4 6b bc
       -0.00035921685 0.0059689237 0.0144930035 -0.014397819
000390 ae 2f 77 bc c7 c4 f2 ba a9 1c 99 3b d1 1a b1 36
       -0.015087051 -0.0018521779 0.004672606 5.278133e-06
0003a0 d9 bd 85 3c b8 1c c8 ba 28 d9 63 bc ee e8 51 bc
       0.016325878 -0.0015267348 -0.013906755 -0.012811882
0003b0 e4 a8 d4 36 2f bb 2c bb e0 e9 d3 3b 7a 22 12 bc
       6.337754e-06 -0.0026356687 0.006467089 -0.008919353
0003c0 d9 f0 d7 3b 15 94 06 3c 09 52 5e 3b 8f 4f ec bb
       0.0065899906 0.008214016 0.0033923408 -0.0072116326
0003d0 24 c8 28 bc d2 c8 0d bb 9d 1a 79 3b 6f ee c9 3b
       -0.0103016235 -0.002163459 0.0038010248 0.0061624567
0003e0 bd a4 c6 3b 9b 3c 36 b7 e5 a3 27 3b 11 36 3a 3c
       0.006062119 -1.0862156e-05 0.0025579866 0.0113654295
0003f0 f0 ad a2 3b 1e 23 b1 3b 79 92 f3 3b 30 77 0d 3b
       0.0049645826 0.0054057976 0.0074332324 0.0021585934

layers.0.gcn_0.bias f4 [64]
000000 df 5f cf 3d b6 3b b0 3d e3 49 10 3e 80 71 0e 3e
       0.10125708 0.08605139 0.14090686 0.13910484
000010 e7 68 1a 3e 1f 02 eb 3d 32 d7 c0 3d 42 90 d5 3d
       0.1507908 0.11475014 0.09416045 0.104279056
000020 bc eb ac 3d a3 55 cc 3d 67 4b c0 3d b5 67 84 3d
       0.084434 0.099772714 0.09389382 0.06465093
000030 e7 66 b0 3c 0a 3b 72 3d 41 b8 a0 3d 7f 23 c8 3d
       0.021533443 0.059138335 0.07847644 0.09772395
000040 09 3e b2 3d 41 85 48 3d e9 f1 d5 3d 43 78 be 3d
       0.087032385 0.048955206 0.10446531 0.09300282
000050 68 15 d1 3d 5b 89 9a 3d 24 91 d9 3d 74 55 e8 3d
       0.10209161 0.0754573 0.106233865 0.11344424
000060 6e 4d 1b 3e 78 68 f6 3d 88 f4 d9 3d 2e 36 ce 3d
       0.15166256 0.120316446 0.10642344 0.10068928
000070 a3 0f e7 3d 0b 21 c3 3d 0a 03 35 3d 62 86 d0 3d
       0.11282279 0.09527787 0.04419235 0.101818815
000080 2b 54 c6 3d 76 84 db 3c 2c 90 d0 3d a6 ed d5 3d
       0.096840225 0.02679656 0.101837486 0.104457185
000090 4e f2 c9 3d ec 4c d6 3d fe 27 e0 3d b9 48 8e bc
       0.09860669 0.104638904 0.10945128 -0.017368661
0000a0 8a f0 e7 3d 90 dc bc 3d ce a9 c5 3d bd b4 cb 3d
       0.11325176 0.092217565 0.09651528 0.099465825
0000b0 9a d9 ef bc ef 3c e3 3d 16 71 09 3d 1b de 9c 3d
       -0.029278565 0.110956065 0.033555113 0.07659551
0000c0 7f 7e 15 3d fc 2e a2 3d 90 d2 f4 3d f7 f6 28 3e
       0.03649759 0.07919118 0.11954224 0.1650046
0000d0 1e 32 12 3e 3b 20 98 3d 1d 44 92 3d 12 1d d0 3d
       0.1427693 0.074280225 0.07141898 0.10161795
0000e0 bb 37 05 3d e1 11 0e bd 85 70 cb 3d 9f 45 85 3d
       0.03252385 -0.03468502 0.09933571 0.0650742
0000f0 da f8 44 3d 10 aa 39 3d d4 14 aa 3d 5a 02 ab 3d
       0.048088886 0.0453282 0.08304754 0.08350058

layers.1.gcn_1.weight f4 [64, 7]
000000 1f 17 94 3e 8f fd 74 be 06 17 6d 3d 42 a7 8c be
       0.2892389 -0.2392485 0.057883285 -0.27471358
000010 50 b7 eb be f6 39 80 3e 92 c2 2a bd 18 0c 99 3e
       -0.46038294 0.2504422 -0.041689463 0.2989204
000020 81 79 c5 3e d3 7b c7 3e ac f1 ce be 7d 6e f9 bd
       0.38569263 0.38961658 -0.40418756 -0.12179277
000030 70 68 a6 be 1b 1a e2 be 3e cd 3e be de 43 8d 3e
       -0.32501554 -0.44160542 -0.18632981 0.2759084
000040 fa ce 90 3e 3a 5a 92 3e fb 88 29 be b9 e6 ee be
       0.2828291 0.28584462 -0.1655616 -0.46660402
000050 8b bc a8 be b7 08 d9 3e 93 06 88 be b4 7e 8e be
       -0.32956347 0.4238946 -0.26567516 -0.27831042
000060 e3 5a 91 bc 1a 18 ca 3e 9b 53 bd 3e fa 1e ec be
       -0.017743533 0.39471513 0.36977848 -0.46117383
000070 23 37 28 be f8 2e 01 3f 90 32 bb 3e 68 e2 70 bd
       -0.16427283 0.50462294 0.36562014 -0.058809668
000080 fc 0c e6 3e df 35 08 bf 58 ea f0 be a3 2c e8 3e
       0.4493178 -0.532072 -0.4705379 0.45346555
000090 dd 1c d9 be f4 b9 eb 3e ce 43 23 3f 4d 02 bb be
       -0.42404833 0.46040308 0.63775337 -0.36525193
0000a0 2c d5 04 bf b1 fc 98 be b8 57 c1 be 31 94 01 3d
       -0.51887774 -0.29880288 -0.37762237 0.031635467
0000b0 33 fd c2 be 31 b9 9b 3e 11 42 d3 3d b2 f9 e7 3e
       -0.380838 0.30414727 0.103153355 0.4530769
0000c0 f0 cb cb be 58 71 b4 bd 7a ec 35 3e 03 cd c7 be
       -0.3980403 -0.08810681 0.1776599 -0.390236
0000d0 7a fd 0a 3f b2 da 68 be 29 07 db be 42 4d 00 3f
       0.54293025 -0.22739676 -0.427789 0.50117886
0000e0 56 b3 02 bf 35 f3 e0 bc d7 7a d6 3d 7d 8c f3 be
       -0.51054895 -0.02745972 0.104726486 -0.47568122
0000f0 63 80 73 3e 7c 1f 0e 3f 38 34 1a 3c d4 ff d5 3e
       0.23779444 0.5551679 0.009411864 0.41796744
000100 c0 42 12 3f 1f cc db 3e ef b2 ec be 1c 8e b4 be
       0.571331 0.4292917 -0.46230265 -0.3526467
000110 e2 a0 97 be aa 09 f1 be ad 26 cf 3e f0 b5 e8 be
       -0.2961493 -0.47077686 0.40459195 -0.45451307
000120 28 2b 03 bf 8c 71 f1 3e e1 37 21 3e 27 09 d9 be
       -0.51237726 0.47156942 0.15743972 -0.42389795
000130 7c 46 50 3e 09 e7 8e 3e d2 db a8 be d5 11 9c 3e
       0.20339388 0.2791064 -0.3298021 0.30482355
000140 8b 6d 61 bd b0 79 8b be e8 e9 a2 be 1f 9a 93 3e
       -0.05503611 -0.27241278 -0.3181908 0.28828523
000150 a5 37 4a 3e 50 40 c5 be 59 8d ea 3e e9 14 a9 be
       0.19747789 -0.3852563 0.45810965 -0.33023766
000160 98 31 c5 be f0 da 5d be 6e b9 00 3f aa da bc 3e
       -0.385144 -0.2166555 0.50282943 0.36885577
000170 be d1 05 bf c3 53 5b be 75 11 3a be e5 f1 e7 3d
       -0.52273166 -0.21418671 -0.18170722 0.113254346
000180 37 a8 91 3e fe 92 dc 3e 83 7e af be 58 10 b3 be
       0.2844865 0.43080896 -0.34276208 -0.34973407
000190 c6 35 d3 3e 1b 2b de 3e fa 7e e5 bc 71 c7 61 be
       0.41251963 0.43392262 -0.028014649 -0.22048737
0001a0 6d 09 a1 bc 38 97 9d be 67 9d e7 3e e3 9c 7c be
       -0.019657815 -0.30779433 0.45237276 -0.24669223
0001b0 58 cb 12 3f 13 03 f8 be d3 e7 cb be 9b 20 c6 bd
       0.5734153 -0.48439845 -0.39825305 -0.09674188
0001c0 9a ee 02 3f 3d d9 87 bd 3f 14 ab be 63 3c a9 be
       0.5114533 -0.06633232 -0.33413884 -0.33053884
0001d0 5e 7f f6 3e b0 96 9a be bf 08 52 bd 3c e1 dd be
       0.48144048 -0.3019309 -0.051277872 -0.43335903
0001e0 06 eb d8 3e 67 de af 3e 61 ed 01 bf 23 a9 76 be
       0.4236681 0.34349367 -0.50752836 -0.24087958
0001f0 ed bd c2 be 68 87 e8 3e bd 82 d7 3e a0 e7 44 3e
       -0.38035527 0.45415807 0.42091933 0.19228983
000200 1e 91 b1 3e f4 f2 f4 be 6b 88 04 bf 15 02 77 3e
       0.34681028 -0.4784161 -0.5177066 0.24121888
000210 b5 cc 00 bf e7 1d c8 3e 25 a6 a7 3e d0 74 d8 3e
       -0.5031236 0.39085314 0.32743946 0.4227662
000220 5d 78 da be b6 53 05 be 8e d8 aa be 4d c0 38 3e
       -0.42669955 -0.13020214 -0.33368343 0.18042107
000230 65 d5 81 be 70 8a 06 3f 94 8b 9c be 6c ed d0 bc
       -0.2535812 0.5255499 -0.3057524 -0.025503837
000240 94 b2 02 3f 39 a4 fe be a9 fe 9e be 38 60 b2 be
       0.5105374 -0.49734667 -0.31053665 -0.34839034
000250 1c 2a 24 3e de ee ca be ca 0d c6 be d0 a1 3f 3e
       0.16031688 -0.39635366 -0.38682395 0.1871407
000260 04 0b f8 3e 94 bd 41 be b9 ef 21 3f 2d a1 fc be
       0.48445904 -0.18919975 0.6325641 -0.49341717
000270 c1 48 cd be 57 4d 35 bd ed aa 0f bf ad c8 be 3e
       -0.4009457 -0.04426321 -0.5612019 0.37262478
000280 e9 fa da 3d dc 02 b1 be da 98 34 be cf b0 65 be
       0.106923886 -0.34572494 -0.17636433 -0.22430728
000290 2f a8 0a 3f b5 cb a9 3e b2 ae e7 be 21 c8 18 be
       0.5416288 0.3316323 -0.4525047 -0.14920093
0002a0 bf ca 9e 3e dc 3c 63 be e5 1d 1a 3e 16 9b 04 3f
       0.31014058 -0.22191185 0.15050466 0.5179914
0002b0 65 8b 61 be 3d d0 0a bf c0 31 b1 3e 9e b7 53 3e
       -0.22025831 -0.54223996 0.3460827 0.20675513
0002c0 ff c5 5f 3e 95 ed a4 be 41 27 cd be 0e 1e 88 3e
       0.21852873 -0.3221251 -0.4006901 0.2658543
0002d0 61 fd d1 be 7e f4 a0 3e f9 61 b7 be 5f 4e bd be
       -0.41013625 0.31436533 -0.35816935 -0.36973855
0002e0 df b9 d7 3e 3b e9 af 3e 53 53 ad 3e ae fd b4 bc
       0.42133996 0.34357628 0.33852634 -0.02209362
0002f0 25 6d ac be 2d 5f b3 be ba af a1 be 6a 10 b1 3e
       -0.3367702 -0.3503355 -0.3157938 0.34582835
000300 83 70 21 3e 46 d3 be 3e 8f 01 b3 be d5 e5 92 be
       0.15765576 0.37270564 -0.34962127 -0.28690973
000310 6e b7 9a 3e 4c 8a 24 3e a7 6b e5 be 15 32 81 be
       0.3021807 0.16068381 -0.44808695 -0.25233522
000320 18 d2 cb 3e 71 a2 ae be 9d 17 a2 3e a2 41 b5 3e
       0.39808726 -0.34108308 0.3165864 0.35401636
000330 01 3e fc 3d af 97 b9 be 97 5e a7 be db 3f ef 3e
       0.12316514 -0.36248538 -0.32689354 0.46728405
000340 e3 34 b8 be 43 37 ed 3e 88 c3 ee be 61 df 1f 3e
       -0.3597785 0.46331224 -0.46633554 0.15612556
000350 22 d2 f3 3d 39 51 8e be aa 98 f4 be a1 c3 ab 3e
       0.11905314 -0.27796343 -0.47772723 0.3354769
000360 ce 87 be 3e 2c d4 cc be e2 bf a3 be 9e 60 cc 3e
       0.37212986 -0.40005624 -0.31982332 0.39917463
000370 85 a6 a5 3e e1 7f 3b 3e 5b 65 eb 3e 5c 7c 8d be
       0.32353607 0.183105 0.45975766 -0.2763394
000380 26 ba cf be f4 7b 92 3e 73 d0 c5 be 4f 5b ba 3e
       -0.40571707 0.28610194 -0.38635597 0.36397788
000390 8a bf d2 be 15 dc f6 3e b2 0f 8c be 63 d9 47 be
       -0.41161758 0.48214784 -0.27355725 -0.1951652
0003a0 08 ad d5 be 68 e0 ab 3e c6 41 c1 be c7 24 e5 3b
       -0.41733575 0.33569646 -0.37745494 0.0069929096
0003b0 df 6f 6a 3e f2 45 ce 3e c3 d9 ed 3e c5 a6 f1 3e
       0.22894238 0.4028774 0.46455202 0.47197548
0003c0 f8 c9 7c 3e fd 8b bb be 16 7e 8f be 72 29 8d bd
       0.2468642 -0.3663024 -0.28025883 -0.06892671
0003d0 50 5c 16 3d 5f bb 12 be 51 a8 0b 3f a1 33 90 be
       0.03670913 -0.14329289 0.54553705 -0.2816439
0003e0 ea 73 f7 be bc 15 e0 3e 27 a8 aa be 40 36 a8 be
       -0.48330623 0.43766582 -0.33331415 -0.3285389
0003f0 82 e5 cc be fb ae 46 be 63 1e a6 3e bb 77 ba be
       -0.4001885 -0.19402687 0.32445058 -0.36419472

layers.1.gcn_1.bias f4 [7]
000000 7f 0a bf 3d a8 14 69 be d4 3e fd bd d2 3d 1c 3e
       0.09328174 -0.22761786 -0.12365499 0.15257958
000010 02 96 d7 bd bb 12 8a 3e b6 2a 5b be
       -0.105266586 0.26967415 -0.21403012
