cache/pretrained/pretrained_48.pt (torch_old, 950836 bytes, 4 tensors)

layers.0.gcn_0.weight f4 [3703, 64]
000000 70 d7 02 3d 37 40 71 bd d7 1d fc bb 9a f9 d5 bb
       0.03194374 -0.05889913 -0.007693987 -0.006529999
000010 7c dc a0 3c 73 92 3c 3c 39 1f f2 3b f2 ad 02 3b
       0.019636385 0.011509526 0.007388976 0.0019940105
000020 24 2f 62 bd c6 78 9c 3c b6 fa 1e bc 52 c9 60 3c
       -0.055220738 0.019100558 -0.009703329 0.0137198735
000030 de 7b 81 bd cd 4a 78 3c 07 39 4d 3d 78 d0 4c 3d
       -0.06322454 0.015154553 0.050103214 0.0500035
000040 d3 50 96 3c ea 0e 6b 3d e9 2b b1 bc 67 a5 fb 3c
       0.018349087 0.05738727 -0.021627383 0.030718518
000050 1a ed 71 3d f8 76 8b 3c bc a5 06 ba 17 1b 32 3c
       0.05906401 0.017024502 -0.00051363907 0.010870717
000060 7a cd 2e 3d fa 68 80 3c 36 9b 05 3d e9 6a 7d 3d
       0.042676426 0.015675057 0.032618724 0.061869536
000070 2b b2 53 bc b0 fc 36 bc 60 f4 10 bd f6 ff 8f 3a
       -0.0129208965 -0.011168644 -0.035389304 0.0010986316
000080 30 08 97 bc bc f6 37 bd ac b7 45 3a 89 63 50 3d
       -0.018436521 -0.04491304 0.0007542323 0.050876174
000090 e6 00 80 3b 0c 97 89 bc f3 5b 2b 3d 27 1a cd 3b
       0.003906357 -0.016795658 0.041835736 0.006259221
0000a0 64 0d 07 bd 1e f3 13 bd 25 9a 03 3c ab ae 78 3d
       -0.032971755 -0.036120526 0.008032356 0.06071345
0000b0 5a 69 2a 3d e5 42 7f 3d 42 94 39 3d b7 81 0c bd
       0.041604377 0.062319655 0.045307405 -0.034303393
0000c0 48 71 c8 3c b2 dd dc bb b1 0c 78 3d 4a de 58 3c
       0.02446808 -0.0067402953 0.06055898 0.013236592
0000d0 55 e0 38 3c eb 80 d1 3c f9 68 39 3b 9c 6c 2a 3d
       0.011283954 0.025574168 0.0028291328 0.041607484
0000e0 15 e9 46 3d 50 21 8e bd 8f f6 1a 3b db 39 9a 3d
       0.048562128 -0.069399476 0.0023645496 0.07530566
0000f0 14 28 be 3c 62 f2 b8 bc 31 83 04 3d 62 ea 4a ba
       0.02321247 -0.022576515 0.032351676 -0.0007740614
000100 b1 3f 4b ba ac 88 43 3d 2c f9 22 bd 31 48 8e 3c
       -0.0007753326 0.047737762 -0.03978841 0.017368408
000110 72 b4 52 3d 4f 89 bf bb f5 b7 11 3b d7 41 b4 3c
       0.051441617 -0.005845226 0.002223489 0.022004051
000120 86 e1 fc bc 8c 96 34 3c 6d bf 50 3d 4b 85 31 3d
       -0.030869257 0.011022221 0.050963808 0.04334001
000130 81 21 2f 3d 5a 4c 57 3c 9e 9c f4 3c 37 2a 39 3d
       0.04275656 0.013140762 0.029859837 0.045206275
000140 17 29 b1 bb 68 2f 43 bd ba 15 0b bd 14 11 ce 3c
       -0.0054065096 -0.047652632 -0.033956267 0.025154628
000150 42 ed 77 bc 18 e2 4e bd c7 eb 52 bc c1 55 13 bd
       -0.01513225 -0.05050859 -0.0128735965 -0.035970453
000160 ed fb a4 bc c0 be fd 3c 64 b1 b3 3c c9 38 22 3d
       -0.020139659 0.030974746 0.021935172 0.039604936
000170 ab 50 98 3b 4a fa 01 bc db 52 86 3c 0d 72 17 3d
       0.0046482882 -0.007933209 0.01639693 0.036974
000180 39 44 0d bb 46 87 1c 3d 7c 4e 06 3d 8f 09 62 3c
       -0.0021555556 0.038214944 0.032789692 0.013796224
000190 f3 57 15 bd ee 4f 4c bd cc 6e 5c 3c 41 6d 62 bd
       -0.036460828 -0.049880914 0.01345415 -0.055279974
0001a0 66 ba a8 bc 68 50 68 bd 01 ea a7 3c 45 31 57 3d
       -0.020596694 -0.056717306 0.020497324 0.05253722
0001b0 0e 92 44 3d 25 55 4e 3c 36 e8 e9 3c 15 fe 14 3d
       0.04799085 0.012593542 0.02855311 0.036375124
0001c0 4f 3b a6 bd c0 be 3f 3d f2 76 14 3d 64 ba 70 3d
       -0.08116781 0.046812773 0.036246248 0.058771506
0001d0 e8 30 91 bd 2f 0b 27 3d d2 4c 9f 3d 88 5a 4e 3d
       -0.07089406 0.04078215 0.07778324 0.050379306
0001e0 03 9f 51 3d 4c 7a ba 3c 81 17 9b 3d 10 cf ba 3c
       0.051177036 0.022763394 0.075728424 0.022803813
0001f0 76 ee b4 3c 8f 7d 06 3c 12 39 5e 3d 3f 66 ed bb
       0.022086363 0.008208646 0.054253645 -0.0072448547
000200 87 5d ba 3a 12 fd 0c 3d e4 f4 7d bd ee 62 6b bc
       0.0014218547 0.034421034 -0.062001124 -0.014366848
000210 43 c5 85 b9 d9 60 1a 3c de 7b 77 3b 27 1e d4 3c
       -0.00025514708 0.009422504 0.003776304 0.025893284
000220 25 b9 80 bc 4e 20 2d bd f5 f7 6f 3c 9f 0a 8f 3c
       -0.015713284 -0.042267136 0.01464652 0.01746112
000230 40 36 5b 3c 1c 36 03 3a d9 dd e5 3c ad b3 af 3c
       0.013379633 0.00050053163 0.028059887 0.02144798
000240 6b 70 21 3c 53 c9 5b bc ce 84 0f bd 94 bd 24 bd
       0.009853463 -0.013414699 -0.03503876 -0.04021986
000250 61 dd 19 bd 0c 44 8a ba 8a e7 1a bc 6a ef ac bc
       -0.03756464 -0.0010548844 -0.009454617 -0.021110255
000260 36 5d db bc 16 30 69 3d 1a 17 08 3d 25 6d 93 3b
       -0.026777845 0.056930624 0.033225156 0.004499095
000270 c0 cf 03 3d fd 78 82 bd 50 a9 09 3d f8 7c 63 3d
       0.032180548 -0.06370733 0.033608735 0.0555391
000280 18 33 1c bc 1b a0 8b ba 0a 4a a9 3c 3b c1 61 bc
       -0.009533666 -0.0010652574 0.020665187 -0.01377898
000290 63 8b 33 3b 7a 98 24 bd b5 c7 e2 bb c5 5e b8 b9
       0.0027396313 -0.040184475 -0.0069207796 -0.00035165824
0002a0 18 59 2e 3d f6 a5 0a bc 12 11 6c 3c 68 a7 99 3d
       0.042565435 -0.00846242 0.014408367 0.07502633
0002b0 09 91 4f 3d 21 5e 0d 3d 92 e5 cd 3b b8 0b f1 3b
       0.050675426 0.034513596 0.0062834704 0.0073561333
0002c0 dc cc da bc da b5 57 3b 07 9f 96 3c 74 22 ef bc
       -0.026709013 0.0032914788 0.018386377 -0.029191233
0002d0 bc 43 61 bd 82 e3 a8 3b d0 d0 13 3d c9 8c 16 3c
       -0.054996237 0.005154074 0.03608781 0.009188839
0002e0 ff fb e1 3c 9c 0f 1c 3d e1 c4 52 3d e9 f5 83 3b
       0.027585981 0.038100824 0.05145729 0.0040271175
0002f0 09 ac 7b 3d c2 56 a0 bc d0 a9 b4 3c 99 b1 e9 bc
       0.061443362 -0.01957262 0.02205363 -0.028527068
000300 da e5 bd 3c a2 91 0e 3d 34 ae 80 3c b0 6a 30 3c
       0.02318089 0.034806855 0.015708067 0.010767624
000310 62 c1 ce 3c c7 b8 73 3c bf 13 04 3d 45 c9 a2 3b
       0.025238696 0.014875597 0.032245394 0.004967841
000320 18 e7 44 bc 61 93 5f bc f8 10 69 bd d6 2c 02 3c
       -0.012017988 -0.013645978 -0.05690095 0.00794526
000330 20 12 91 3d 56 5f 09 3d e6 53 2c 3c 9f e2 87 3d
       0.07083535 0.033538185 0.01051805 0.066350214
000340 39 a5 cf 3c 54 53 c3 bc fe ed 16 bc f7 b0 97 3c
       0.025347339 -0.023843445 -0.009212015 0.018517
000350 07 c0 4e bd c7 59 50 bc 80 ac 01 3c 7a 43 20 3c
       -0.0504761 -0.012716717 0.007914662 0.009781713
000360 c1 42 0f 3c c8 0e 82 ba 85 5d 8b b9 14 f6 29 3d
       0.008743943 -0.0009922618 -0.00026581823 0.041494444
000370 39 c6 07 3d 8c c7 64 bc f0 8c fc 3b 30 02 8c 3d
       0.033148024 -0.013963591 0.0077072307 0.06836355
000380 80 f6 52 3d af bf 4a 3d 8b f3 dd bc ba 3b 9a b8
       0.051504612 0.04949921 -0.02709367 -7.354417e-05
000390 b0 e5 8d bc 58 88 82 3d 1b 91 22 bd be 0d 85 bb
       -0.017321438 0.06373662 -0.039689165 -0.004060476
0003a0 be bf 83 3c 2f 30 f2 3c 80 ba 18 3c 73 98 e7 3c
       0.01608264 0.029563991 0.009321809 0.028270936
0003b0 52 12 57 3c 15 15 17 3d df c4 f6 3c 89 f8 1b 3d
       0.0131269265 0.03688534 0.030123172 0.03807882
0003c0 e0 25 9e bb c4 3f 45 3d c9 df fa 3b 54 7f 47 3d
       -0.0048262924 0.048156515 0.007656072 0.048705414
0003d0 48 63 db bc 38 71 17 3d 4d eb 01 3d e7 0b 15 3d
       -0.02678074 0.03697321 0.03171854 0.036388304
0003e0 45 b7 e0 3c 70 27 fb 3b c2 f9 c5 3c 12 a0 65 bb
       0.02743114 0.0076646134 0.024166945 -0.0035038036
0003f0 9d b8 a3 3c c7 42 d5 bc a2 d1 49 3d 0d 90 a6 3b
       0.019985491 -0.026032818 0.049272187 0.00508309

layers.0.gcn_0.bias f4 [64]
000000 ba 0c 1a 3d ff 36 9f 3c ba f0 3d 3d 73 8a 7c 3c
       0.037609793 0.019435404 0.046372153 0.015413868
000010 67 e1 87 3c f1 93 36 3d 2a 01 42 bc eb 38 92 3c
       0.016586972 0.04457468 -0.011841098 0.017849406
000020 b3 26 11 3d 89 6b 3b 3d 78 dc 36 3c 99 a0 51 bb
       0.035437297 0.04575685 0.011160962 -0.0031986593
000030 3e 09 76 3c f9 83 a0 3c b9 c0 57 3c be ec 2a 3d
       0.015016852 0.01959418 0.013168507 0.04172968
000040 0a 88 30 3d 9d d6 ae 3c 65 1f bb 3c 9e 1b a0 3c
       0.043098487 0.02134257 0.022842119 0.019544419
000050 fe f6 3c 3d 8a 6a 38 3d ac 0e a6 3c e1 45 19 3c
       0.046133988 0.04502348 0.020270668 0.009355039
000060 b6 c3 7e 3c 88 8f 34 3d 32 e6 30 3d af 61 32 3d
       0.015549591 0.044082195 0.04318828 0.04355019
000070 f2 33 d3 3b c9 ce 26 3d f9 74 91 3c 33 20 95 3c
       0.0064454013 0.04072455 0.017755972 0.01820383
000080 0d d3 85 3c be bc 8f 3c fc af 75 3c 81 97 44 3c
       0.016335988 0.017546054 0.014995571 0.011999012
000090 6b 3f 75 bc 7a 83 33 3d cd ee 33 3d 0e f1 30 3d
       -0.014968733 0.043826558 0.04392891 0.043198638
0000a0 b3 f0 45 3d 16 f2 18 3d 4a e7 2f 3d 63 00 8a 3c
       0.04832525 0.037340246 0.042945184 0.016845888
0000b0 5d 2c 2b 3d c4 91 96 3c 72 26 37 3d 48 9d 89 3c
       0.041790355 0.018380053 0.0447144 0.01679863
0000c0 08 4a 8f 3c be bd 73 3c 3d 23 99 3c c7 db 26 3d
       0.017491356 0.014876781 0.01869356 0.04073694
0000d0 5b 48 ac 3c 9e f7 2d 3d 88 bf 79 3c 32 13 7c 3c
       0.021030596 0.042472474 0.0152434185 0.015385436
0000e0 88 39 0d 3c 0f 4d 34 3d 11 7e 72 3c 57 71 a6 3c
       0.008619674 0.0440188 0.014800564 0.020317717
0000f0 12 d1 24 3d 62 28 28 3d 8e 5b 23 3d 63 68 96 3c
       0.040238447 0.041054137 0.039882235 0.018360322

layers.1.gcn_1.weight f4 [64, 6]
000000 33 ad 4d 3e 38 d9 36 3e 24 69 87 3e cf 31 9c be
       0.20085602 0.178563 0.26447403 -0.3050675
000010 71 76 83 be 26 e5 62 3c 34 5e 83 bd 6f 66 b4 bd
       -0.256763 0.013848579 -0.06414452 -0.088086
000020 fe a3 1c 3e b9 dd 24 3e 4e b5 48 3e a1 f8 ea 3d
       0.15296933 0.16100205 0.19600412 0.114732035
000030 4a 65 53 be 1a 3b 42 3e 72 a3 44 be 4a 05 9c 3e
       -0.20644107 0.18967858 -0.19202974 0.30472785
000040 1f 97 79 3e f2 9a 53 be 3a 82 9b bd c6 2c 37 be
       0.24374054 -0.20664576 -0.07593198 -0.17888173
000050 f2 9d ee 3d 32 df 63 3e 78 35 8b bd fc 8b 8b bc
       0.116512194 0.22253111 -0.06797308 -0.017034523
000060 5f 41 5c be 8f 27 e5 3d ad 89 9a be 23 5e 86 3d
       -0.21509312 0.11189186 -0.30183163 0.06560924
000070 b8 1b 07 3e 15 53 ae 3d ed e9 08 bc 00 73 a4 3d
       0.13194168 0.085119404 -0.0083565535 0.08029747
000080 00 61 2a be 2d bd 03 be 0f 6e 1a 3e c9 34 85 3b
       -0.16638565 -0.12865134 0.15081047 0.0040651304
000090 b7 f5 dc bd 10 13 a2 bd 93 f5 45 3e 73 fb d4 3d
       -0.10789054 -0.07913792 0.1933196 0.10399523
0000a0 30 1d 6b bd 45 e7 93 3e 29 91 b7 3d f9 a7 4f 3e
       -0.057400882 0.28887382 0.08963234 0.2027892
0000b0 09 cc 2c 3e e0 bb 25 be 42 13 2e 3e ce ad a1 3e
       0.16874708 -0.1618495 0.16999534 0.31577915
0000c0 78 11 71 be 71 ee a0 3e 83 64 9a 3e d2 9a 9d 3d
       -0.2354182 0.31431916 0.3015481 0.07695545
0000d0 af 22 09 bd 5f e6 20 be 9a 76 99 3e 6c bb 73 be
       -0.033480342 -0.1571288 0.29973298 -0.23801965
0000e0 f6 4d 4e 3e f9 73 74 3e 78 d0 79 3e 79 88 7a bd
       0.20146927 0.23872365 0.24395931 -0.061165307
0000f0 a7 67 0b 3e ec d0 16 bd a0 a3 41 be 1d c8 5e be
       0.13613759 -0.036820337 -0.18910074 -0.21756025
000100 6b a3 48 3e a4 72 36 be 02 70 74 bd da a9 a9 bd
       0.19593589 -0.1781717 -0.05967713 -0.0828435
000110 42 d1 22 be 90 ce 84 be db 51 35 3e 44 04 01 3e
       -0.15900138 -0.25938845 0.17707007 0.12599283
000120 ee 5a 86 be 6d 47 8c bd af ad 6c 3d cf 4a 1e be
       -0.2624125 -0.06849561 0.057782825 -0.15458225
000130 b2 7c 87 3e ab 45 81 3e b2 13 18 3b ed 8f 18 be
       0.26462322 0.25248465 0.0023205099 -0.14898653
000140 8f 9c f8 bd 26 a1 9e 3e 21 a1 2e 3e 81 1e 9f be
       -0.12139236 0.30982322 0.17053653 -0.3107796
000150 8e d2 1d be 2e 1a 19 be 79 af d0 bd e1 9e 1a be
       -0.15412351 -0.14951393 -0.10189719 -0.1509967
000160 b9 b1 88 be 94 44 89 3e e1 1d 1a 3e 04 be 67 3e
       -0.26698092 0.26810133 0.1505046 0.22631079
000170 13 b3 52 be 2c f3 f7 3d f0 d5 4a be 6a c0 ab 3e
       -0.20576124 0.12106928 -0.19808173 0.33545238
000180 f1 b9 63 be ab 1f 26 be 6d 5c 61 be 29 1a 8a 3e
       -0.222389 -0.16223018 -0.22007914 0.26973084
000190 b8 70 4c bc 8d 7d 85 3d 34 a8 22 3e 90 c6 7b 3e
       -0.012478046 0.065180875 0.15884477 0.24587464
0001a0 89 15 57 3e 4c be 2a be 39 5f 34 be 44 98 23 be
       0.21004309 -0.16674155 -0.1761445 -0.15976053
0001b0 26 e4 1e bc d1 95 24 be 4a 42 6c bd e5 99 12 bd
       -0.0096979495 -0.16072775 -0.057680406 -0.035791297
0001c0 d0 9d b1 3b 94 b6 85 be 11 e9 aa 3d e5 4d 89 3e
       0.005420424 -0.2611586 0.08345235 0.2681724
0001d0 a5 f5 a0 be 48 ac 84 3e 7d 59 5f bc fc 80 93 bd
       -0.31437412 0.2591269 -0.0136321755 -0.07202336
0001e0 07 1e 14 3e bf d9 97 3e f0 ea 5c 3e 9c 8b 3c be
       0.1446458 0.29658315 0.21573997 -0.18412632
0001f0 2a 6e 27 3c df 14 86 be 2a 38 bd 3c 06 82 9c be
       0.010219136 -0.26187798 0.02309807 -0.3056795
000200 e3 f6 ab 3e bd c4 a3 be c6 b1 5a 3e f0 74 a9 bd
       0.33586797 -0.31986037 0.21356878 -0.08274257
000210 94 d0 a2 3d 0a 47 8a be 0c a2 8a be 77 82 01 3e
       0.07949939 -0.27007324 -0.27076757 0.12647425
000220 7f 61 cf 3d d8 a6 66 be f1 cc ee 3d 6a 6a 81 3c
       0.10126018 -0.22524583 0.11660183 0.015797812
000230 b5 6b 6c be 63 61 09 3e fc db 1a 3e 3b 19 89 be
       -0.23087962 0.13416056 0.1512298 -0.26777062
000240 72 97 c1 3d f9 f7 e7 bd 43 48 86 3e 87 0b 5e 3e
       0.09452714 -0.11326594 0.26227006 0.21684085
000250 66 36 32 be 80 04 a5 be c4 68 5e 3e 08 1f 99 bd
       -0.17403564 -0.32229996 0.21719652 -0.07476622
000260 91 76 9f be b7 28 05 be 12 28 7d be d3 9a 75 3d
       -0.31145146 -0.13003813 -0.24722317 0.059962105
000270 1a f8 e2 3d 5a a0 ca bd 72 e4 60 bd 72 8a 84 3e
       0.11082478 -0.09893866 -0.054905362 0.25886875
000280 de 68 b7 bd 76 14 aa 3d 5f 26 13 3e 01 d4 84 bd
       -0.08955549 0.08304684 0.14370106 -0.06485749
000290 24 02 89 be c2 f2 3b bd 6d 07 43 bd 2c b0 26 3e
       -0.26759446 -0.04588581 -0.047614504 0.16278142
0002a0 bd e3 7c be 39 35 6d 3e f9 d6 b8 bc cd e6 33 bd
       -0.2469625 0.23164834 -0.022563444 -0.04392128
0002b0 62 1f a1 bc 7e f0 14 3e 0c b7 eb bd b3 68 a8 be
       -0.019668285 0.14544865 -0.11509523 -0.3289238
0002c0 3d fa 66 3d 7a 5c f3 bd 77 0d a7 3e 02 4d 85 be
       0.05639099 -0.11882873 0.3262746 -0.26035315
0002d0 a4 79 e8 bd d9 f8 1c be d4 1a 38 3e e5 17 39 be
       -0.11351326 -0.15329303 0.17978984 -0.18075521
0002e0 56 1e 8c bd 99 e3 ea 3d dd 1a fe bd a1 f9 91 3d
       -0.068417236 0.11469192 -0.124074675 0.07127691
0002f0 01 9b 5b 3d 38 09 7d be 7d f4 81 be ec 3f fa 3d
       0.05361462 -0.24710548 -0.25381842 0.122192234
000300 37 13 8f be ad 4b 0a bd 22 88 38 3e 02 d2 02 be
       -0.27944347 -0.033763576 0.1802068 -0.12775424
000310 3b dc 14 3e d3 7e 54 3e 19 37 88 be 02 89 d5 bd
       0.14537136 0.20751505 -0.26604536 -0.10426523
000320 2c d2 a5 3e ee e4 23 be 57 e9 4d be 9a 99 69 3d
       0.3238691 -0.16005298 -0.20108543 0.05703125
000330 d8 e8 bd bd 81 c8 e3 bd 03 7a df 3d 33 c7 dc bc
       -0.09272927 -0.111222275 0.10911944 -0.026950454
000340 91 b8 97 3e 9e 86 12 3e 23 cb 7a 3c a3 55 84 be
       0.29633 0.14309165 0.015307221 -0.25846586
000350 5b 34 3e 3c a4 a0 8c 3e 0f d9 81 3e 6c 3b 39 be
       0.011609162 0.2746631 0.25360915 -0.18089074
000360 3d e8 89 be 5b 31 4e be 4f 1c 8c bd b7 f6 6c be
       -0.26934996 -0.20136015 -0.06841337 -0.23140989
000370 f9 f8 9b be 5a 9c 95 bd cb 54 7e 3e f0 f5 60 3d
       -0.3046339 -0.07305212 0.24837033 0.054922044
000380 0b c2 33 3d 30 1d a9 be e9 91 86 3d a1 6b 2b be
       0.043886226 -0.3303008 0.06570799 -0.16740276
000390 ca bf 83 3e 19 41 70 bd 6c dd 14 be 56 42 a1 3d
       0.2573226 -0.058655832 -0.1453759 0.07873981
0003a0 ef ed 28 3c 0a d8 ac bd 8d 6c 77 3e d5 fb d8 bd
       0.010310634 -0.08439644 0.24162503 -0.10594908
0003b0 dd bb a7 3c b2 3a 6e 3e 7a fe 93 3e 55 ff ce bd
       0.020475322 0.23264578 0.28905088 -0.101072945
0003c0 45 64 c9 bd b3 cf 9f be 3f 38 b6 3d 5c 21 8b be
       -0.09833578 -0.3121315 0.08897447 -0.2717389
0003d0 5a f6 57 3e bc 88 0d bd 52 0a 6e be a6 7d 88 be
       0.2109007 -0.03455423 -0.23246124 -0.26658362
0003e0 33 d3 4e 3e b8 59 e1 3d 28 fc 1a 3d 2d fe 8d be
       0.20197754 0.110034406 0.03783813 -0.27732983
0003f0 e3 59 78 3e 7a 94 7c 3e 90 69 d7 38 31 75 ea 3d
       0.24253039 0.24666014 0.000102716614 0.11448134

layers.1.gcn_1.bias f4 [6]
000000 74 fe 42 3d 49 0f b4 bc 06 15 32 bd 9f cc 37 bd
       0.047605947 -0.021979945 -0.04347708 -0.044872876
000010 13 60 42 3d ad a6 f7 3b
       0.047454905 0.007557711
