cache/pretrained/pretrained_77.pt (torch_old, 950836 bytes, 4 tensors)

layers.0.gcn_0.weight f4 [3703, 64]
0	0xba9b4764	-0.0011846838
1	0x3dbd8261	0.092533834
2	0xbda28831	-0.07936133
3	0x3d589806	0.052879356
4	0x3d736d0c	0.059430167
5	0xbd84b924	-0.06480625
6	0xbcc972fb	-0.02459096
7	0x3dcd7b7d	0.10033319
8	0x3cf4d248	0.029885426
9	0xbd85cb9e	-0.065329775
10	0x3cb11a0e	0.02161887
11	0x3d7d3d5b	0.06182609
12	0x3d08fc00	0.03344345
13	0x3d38898e	0.045053057
14	0xbd9143eb	-0.070930324
15	0xbcc28eb1	-0.023749681
16	0x3da34fda	0.07974215
17	0x3d87b725	0.06626729
18	0x3c8eca4d	0.017430449
19	0x3d4a3c70	0.049374044
20	0xbd2b19bf	-0.0417726
21	0x3c30fcf4	0.010802496
22	0x3d10f4c3	0.035389673
23	0x3b8c830b	0.0042880825
24	0x3d8b3e09	0.06798942
25	0x3d8684cd	0.065682985
26	0x3de302c5	0.110845126
27	0xbda7ba53	-0.081898354
28	0x3a20469f	0.0006114039
29	0x3c8b7954	0.017025627
30	0xbd3ac55b	-0.04559837
31	0xbcee8fb5	-0.02912126
32	0xbd415dfb	-0.047208767
33	0x3d88e38c	0.06684026
34	0x3d4009f4	0.046884492
35	0xbdcb0cf9	-0.09914584
36	0xbd3fadb3	-0.04679651
37	0xbc94de94	-0.01817254
38	0x3dcf40d3	0.10119786
39	0xbce8f2cf	-0.028436093
40	0x3da698a4	0.08134583
41	0x3d5abcb8	0.053402632
42	0x3dab8c76	0.083764
43	0xbde51b0b	-0.11186799
44	0x3cd1a9c0	0.025593638
45	0xbdafc2cc	-0.085820764
46	0x3b37e363	0.0028059117
47	0xbd3c6897	-0.045998182
48	0x3ca672be	0.020318385
49	0xbda4e9db	-0.08052417
50	0x3da19cef	0.07891261
51	0x3e0131ce	0.12616655
52	0xbd20923e	-0.039201967
53	0x3d1b4cf7	0.037915196
54	0x3dd0f598	0.10203093
55	0xbd60e129	-0.05490223
56	0xbd2c326f	-0.042040285
57	0x3d3c2d31	0.045941535
58	0x3d0f0b0a	0.034922637
59	0xbd38f5f6	-0.04515644
60	0xbc9c4d39	-0.019079791
61	0x3dabd4cc	0.08390197
62	0xbda7f28e	-0.082005605
63	0xbd06aa1b	-0.03287707
64	0x3c190d94	0.009341616
65	0x3d803beb	0.062614284
66	0x3d9856be	0.0743842
67	0x3d91a4de	0.07111524
68	0x3c786590	0.015160933
69	0x3de1175a	0.10990782
70	0xbc2d3b58	-0.010573231
71	0x3c3f04d3	0.011658865
72	0x3b29328a	0.0025817477
73	0xbc880f3b	-0.016608825
74	0x3dcba9a2	0.09944464
75	0x3db44fb1	0.088042624
76	0x3d3e0051	0.04638702
77	0xbc3b493d	-0.011431036
78	0x3d358483	0.044315826
79	0x3d3537c5	0.04424264
80	0xbd52254c	-0.0513051
81	0xbbd08a68	-0.0063641556
82	0xbbe28ae3	-0.0069135292
83	0xba956c60	-0.0011400096
84	0xbd0e0c76	-0.034679852
85	0x3d477c81	0.04870272
86	0xbd9bc5b8	-0.07606071
87	0x3d6db134	0.058030322
88	0x3d3936bd	0.045218218
89	0xbd53f45e	-0.05174672
90	0x3d4a33e4	0.049365893
91	0x3ae6a45c	0.001759659
92	0x3cdb1eb9	0.026748048
93	0x3daaf8a8	0.08348209
94	0x3cf6b85b	0.030117204
95	0x3d4f7062	0.050644286
96	0xbbb437d8	-0.005499821
97	0xbd704165	-0.058656115
98	0xbc70a0b3	-0.014686751
99	0xbd8346a1	-0.06409956
100	0x3b54e105	0.0032482755
101	0x3d30f0f7	0.043198552
102	0x3d5f7bf2	0.054561563
103	0xbc801b72	-0.015638087
104	0xbdbd7080	-0.09249973
105	0x3c98d9c2	0.018658523
106	0xbc8e50c3	-0.017372495
107	0xbccbf7e7	-0.024898482
108	0x3d770147	0.060303953
109	0x3d3b49ee	0.0457248
110	0x3cdd34a8	0.027002648
111	0x3dd76724	0.105177194
112	0xbc5a352a	-0.013318339
113	0xbc899816	-0.016796153
114	0x3d1601d4	0.036622837
115	0x3b00f1e5	0.001967543
116	0x3c89e12c	0.016831003
117	0x3b997ec7	0.0046843025
118	0xbc3451c5	-0.0110058235
119	0x3da8f898	0.082505405
120	0xbd436554	-0.047704056
121	0x3d7d900b	0.06190495
122	0x3d48ab34	0.048991397
123	0x3d8400ea	0.06445487
124	0xbcdceb81	-0.026967766
125	0x3d118285	0.035524864
126	0xbd89e862	-0.06733777
127	0xbda67d48	-0.08129364
128	0x3d2309f7	0.039804425
129	0xb9aa1813	-0.00032442863
130	0xbd21a39c	-0.03946267
131	0x3c50e26c	0.012749296
132	0x3cf7d5d6	0.030253332
133	0xbd34e61f	-0.044164773
134	0xbc2efdbd	-0.010680613
135	0x3d7d0676	0.06177374
136	0x3d812785	0.06306366
137	0xbd35a4fd	-0.0443468
138	0x3ba6f006	0.005094531
139	0xbbc8b263	-0.006124781
140	0x3d35e941	0.0444119
141	0xbb6518de	-0.003495745
142	0x3b8f467f	0.0043724175
143	0xbc633414	-0.013867397
144	0x3c8fa735	0.017535785
145	0x3d27b3cc	0.040942952
146	0x3da411ac	0.08011183
147	0x3d479a28	0.048731
148	0xbd7f3cc6	-0.062313817
149	0xbb8b10cc	-0.0042439457
150	0xbcdfaada	-0.027303148
151	0xbc6d2d7b	-0.014476175
152	0x3cf8f880	0.030391932
153	0x3da8fe1a	0.08251591
154	0x3c22b0e7	0.009929872
155	0xbd878992	-0.06618036
156	0x3da74cba	0.08168931
157	0xbaa86c4f	-0.0012849661
158	0xbca972ae	-0.020684566
159	0xbcd4b670	-0.0259659
160	0xbcc81e00	-0.024428368
161	0x3d3c70e0	0.046006083
162	0x3d10a776	0.035315953
163	0xbd537e9d	-0.05163442
164	0xbcd869ae	-0.02641758
165	0xbcf07fd1	-0.029357823
166	0x3d2c6446	0.042087816
167	0xbba46a42	-0.0050175497
168	0x3d0e0997	0.034677114
169	0x3ce6bfce	0.028167631
170	0x3d41c566	0.047307394
171	0xbc534990	-0.012895957
172	0x3dd09568	0.10184747
173	0xbd5ef644	-0.054434076
174	0x3b37cfff	0.002804756
175	0xbc74a6b8	-0.014932327
176	0xbba0f8c7	-0.004912469
177	0xbd8e70c9	-0.06955106
178	0x3dac286b	0.084061466
179	0x3c2af4e6	0.010434365
180	0xbcf59b32	-0.02998123
181	0x3d740748	0.059577256
182	0x3d8bb931	0.06822432
183	0xbd228323	-0.039675843
184	0xbca85ed5	-0.020553032
185	0x3cac21e4	0.021012254
186	0x3c536c9f	0.012904315
187	0xbce9db4e	-0.028546955
188	0xbd60befb	-0.054869633
189	0x3da1beb9	0.078977056
190	0xbcd3300d	-0.025779748
191	0xbb2540e6	-0.0025215684
192	0xbc42bda3	-0.011886033
193	0x3d7b3292	0.061327524
194	0x3ce5b5d0	0.028040797
195	0x3c313b89	0.010817417
196	0x3be6c846	0.0070429174
197	0x3d954cb9	0.07290024
198	0xbd401bcd	-0.046901513
199	0xbbff1b89	-0.007785265
200	0xbcf495d4	-0.0298566
201	0x3d8fe07f	0.07025241
202	0x3d35ee7e	0.044416897
203	0x3c97f129	0.018547611
204	0xbda68eb4	-0.08132687
205	0x3d3d2854	0.046181038
206	0xbd4b1e82	-0.04958964
207	0xbd1c2e72	-0.03813023
208	0x3da1fd34	0.07909623
209	0x3d2e3284	0.042528644
210	0xbd15d428	-0.03657928
211	0xbc59170c	-0.013250124
212	0x3d82fd37	0.06395953
213	0xbd4e2d1c	-0.05033599
214	0xbc36e2ac	-0.011162441
215	0x3d4c9c51	0.049953762
216	0x3d170294	0.036867693
217	0xbd9445dd	-0.07239888
218	0xbc805a68	-0.015668109
219	0x3d23f38a	0.04002718
220	0x3d23521c	0.039873227
221	0x3c8b2f86	0.016990434
222	0x3d817002	0.06320192
223	0x3d816fab	0.06320127
224	0xbd4e7ef9	-0.05041406
225	0x3b70f9f4	0.0036770077
226	0xbd0f763a	-0.03502486
227	0x3d077cc5	0.033077974
228	0xbc9b9c7b	-0.018995514
229	0x3ceca150	0.028885514
230	0x3d54c026	0.05194106
231	0x3c0662ea	0.008202294
232	0xbcfcd921	-0.030865254
233	0xbcef00bf	-0.02917516
234	0xbc068797	-0.008211038
235	0x3d394ca4	0.045239106
236	0x3dac9a4f	0.084278695
237	0x3d0ef3fa	0.034900643
238	0x3d1e3035	0.038620193
239	0x3d875ede	0.06609891
240	0x3d6e48ad	0.058174778
241	0x3d6045b7	0.054753985
242	0x3d0e289e	0.034706704
243	0x3cc600d9	0.024170326
244	0x3d9e886c	0.07740864
245	0xbd7b075a	-0.061286308
246	0x3d665dc4	0.056241766
247	0x3cd8e22f	0.02647504
248	0x3d1fbd25	0.03899874
249	0xbc9569ac	-0.018238865
250	0xbc9967f9	-0.018726336
251	0x3d811e8e	0.06304656
252	0xb993cbbc	-0.0002818982
253	0x3cb0e77b	0.021594753
254	0x3d5b6be8	0.053569704
255	0xbd9b22dc	-0.07575008

layers.0.gcn_0.bias f4 [64]
0	0x3ce65981	0.02811885
1	0x3d0b77e2	0.034049876
2	0x3d3748ae	0.044747047
3	0x3ce614ee	0.028086152
4	0x3d94eda8	0.07271892
5	0x3d87bbdf	0.066276304
6	0x3d9d3743	0.07676556
7	0x3ce2f11c	0.02770286
8	0x3d172aed	0.03690617
9	0x3d8230df	0.06356978
10	0x3d233fca	0.039855756
11	0x3d322bc3	0.043498766
12	0x3d82bccd	0.06383667
13	0x3d08fc89	0.03344396
14	0x3d7ae21f	0.061250802
15	0x3d7ffea6	0.06249871
16	0x3d4081e7	0.046998885
17	0x3d2fb673	0.042898607
18	0x3d84a972	0.06477632
19	0x3d1b86ad	0.037970234
20	0x3d0dbbdc	0.034602985
21	0x3d098267	0.033571627
22	0x3d73581c	0.0594102
23	0x3d6e8a8e	0.058237605
24	0x3c38906e	0.0112649035
25	0x3d8da534	0.069162756
26	0x3d8cd0c7	0.068757586
27	0x3d559dce	0.052152447
28	0x3d03b02b	0.03215043
29	0x3d10d7f3	0.035362195
30	0x3d6dc972	0.05805344
31	0x3d7c02f4	0.061526254
32	0x3d1fe499	0.039036367
33	0x3d18b140	0.037278414
34	0x3d480a1d	0.04883777
35	0x3ceb8c4c	0.028753422
36	0x3d3cf51b	0.04613219
37	0x3cd4720f	0.025933294
38	0x3d1bb91c	0.03801833
39	0x3d82df9e	0.06390308
40	0x3d0aac75	0.033855874
41	0x3d68838c	0.056766078
42	0x3d1ffacc	0.039057538
43	0x3d8d0836	0.06886332
44	0x3d063983	0.03276969
45	0x3d618e38	0.05506727
46	0x3d8c0502	0.06836893
47	0x3d93178c	0.071822256
48	0x3d4fa92c	0.050698444
49	0x3d10826d	0.035280634
50	0x3d2ba9d0	0.041909993
51	0x3ce5604d	0.028000021
52	0x3d193e5f	0.037412997
53	0x3ce6a771	0.028156014
54	0x3cde666c	0.027148448
55	0x3d1acaef	0.03779119
56	0x3d0feee8	0.035139948
57	0x3d013ba2	0.03155101
58	0x3d727366	0.059192084
59	0x3d19c1df	0.037538406
60	0x3cd06ccf	0.025442509
61	0x3d7a86a8	0.061163574
62	0x3d87a607	0.06623464
63	0x3d8cae72	0.0686921

layers.1.gcn_1.weight f4 [64, 6]
0	0x3e8c99f1	0.27461198
1	0xbea99b6e	-0.33126396
2	0x3e316d68	0.17326891
3	0x3e182bbc	0.14860433
4	0xbe0a689f	-0.13516472
5	0xbe4eb95d	-0.20187898
6	0x3e3a3ddb	0.18187658
7	0xbcb03309	-0.02150871
8	0xbe8c7b42	-0.27437788
9	0x3e37673f	0.17910479
10	0xbce45e71	-0.027877064
11	0x3e99412a	0.2993253
12	0xbeb1e43a	-0.34744436
13	0xbb1ee20c	-0.002424362
14	0x3db8bba3	0.09020164
15	0x3e954a48	0.29158235
16	0x3e960aeb	0.29305205
17	0x3e58ec64	0.21183926
18	0x3e5bb69b	0.21456377
19	0x3c38eeb6	0.011287382
20	0xbea11729	-0.31462982
21	0xbe5705ee	-0.20998356
22	0xbea87c03	-0.32907113
23	0x3e45a3b5	0.1930073
24	0x3e81033a	0.25197774
25	0xbd6ca220	-0.057771802
26	0xbcb2aaea	-0.021810014
27	0xbe6ff2f3	-0.23432522
28	0xbe9c15b3	-0.30485305
29	0x3cd71d72	0.026259158
30	0xbe8a47e1	-0.27007964
31	0x3e2531a2	0.16132215
32	0xbe8972df	-0.26845452
33	0xbebb33fe	-0.36563104
34	0xbe834d7e	-0.2564506
35	0x3e015c54	0.12632877
36	0xbe5a8802	-0.21340945
37	0x3e0d13b2	0.13777044
38	0x3e6bb3e6	0.23017845
39	0x3e9c3fa8	0.30517316
40	0x3e763e38	0.24047172
41	0xbdd82600	-0.10554123
42	0x3e6c6076	0.23083672
43	0xbea16404	-0.31521618
44	0xbe935a16	-0.28779668
45	0xbe28a68c	-0.16469783
46	0xbe602d37	-0.21892248
47	0x3e3639ce	0.17795488
48	0x3e59b82e	0.21261665
49	0x3de29666	0.110638425
50	0x3da3883f	0.07984971
51	0xbe4678f0	-0.19382071
52	0xbe0acfe7	-0.13555871
53	0xbe48c57f	-0.19606589
54	0xbebb8a49	-0.3662894
55	0x3ea42924	0.32062638
56	0x3e5f2899	0.2179283
57	0xbe4119a5	-0.18857439
58	0xbe99568a	-0.29948837
59	0x3d200b99	0.03907356
60	0xbe03c817	-0.12869297
61	0xbe7a0674	-0.24416524
62	0x3db5e707	0.088819556
63	0xbe1025c6	-0.1407691
64	0x3df4e682	0.119580284
65	0x3d161f10	0.036650717
66	0x3e74ff6c	0.2392556
67	0xbebb5909	-0.36591366
68	0xbe9c76ce	-0.3055939
69	0x3eb5f4f7	0.35538456
70	0xbe1eeb4d	-0.15519448
71	0x3e903a5f	0.28169534
72	0x3e9496be	0.29021257
73	0x3ca91b70	0.020642966
74	0xbea4ac53	-0.32162723
75	0x3beb2242	0.0071757147
76	0xbea9c552	-0.33158356
77	0xbe41e31d	-0.18934293
78	0x3d438919	0.04773817
79	0xbe7f42ea	-0.2492787
80	0xbe4dda6c	-0.20102853
81	0x3e77bb32	0.24192503
82	0x3e78a48b	0.24281518
83	0x3eb2012f	0.34766528
84	0xbeace080	-0.3376503
85	0x3dcfe0b8	0.101502836
86	0xbebc848e	-0.3681988
87	0x3ea0bc96	0.3139388
88	0xbe0ec1f6	-0.13941178
89	0xbe98cb6b	-0.29842696
90	0xbdf827a5	-0.121169366
91	0x3d9f4da1	0.077784784
92	0xbe910e97	-0.28331444
93	0x3e0e299b	0.13883059
94	0x3e9d570f	0.30730483
95	0xbe554cbf	-0.20830058
96	0x3e5eeb87	0.21769534
97	0xbe00afff	-0.12567137
98	0x3e5f14af	0.21785234
99	0x3dcc4c3f	0.0997548
100	0xbe574fc0	-0.21026516
101	0x3e880288	0.2656443
102	0x3dc8ce96	0.09805028
103	0x3e915eb0	0.28392553
104	0x3e0a18cb	0.1348602
105	0xbe9f1552	-0.31070954
106	0xbe9b1c03	-0.3029481
107	0xbd85eb71	-0.065390475
108	0x3e83f8de	0.25775808
109	0x3e1e9a4c	0.15488547
110	0x3e827a38	0.2548387
111	0x3de11fd9	0.109924026
112	0xbe7e83d2	-0.24854973
113	0xbe50cf8b	-0.20391671
114	0x3e61c1ba	0.22046557
115	0x3ea653fa	0.32485944
116	0xbead21f1	-0.33814958
117	0x3e357d5b	0.177236
118	0xbe22b8f5	-0.15890868
119	0xbd10f354	-0.035388306
120	0xbe52629e	-0.20545432
121	0xbe876d8d	-0.26450768
122	0x3cd68681	0.026187183
123	0xbea6e4ce	-0.3259644
124	0xbe4109d0	-0.188514
125	0x3e916f54	0.2840525
126	0xbe9f99cb	-0.31172022
127	0x3db84cec	0.08999047
128	0xbebdd717	-0.37078163
129	0x3e7512f2	0.23933008
130	0x3e6e5037	0.23272787
131	0xbe94c902	-0.29059607
132	0x3dab5169	0.08365137
133	0xbe4bdb37	-0.19907843
134	0x3e413a0e	0.18869802
135	0x39f5b07b	0.0004686153
136	0xbde80535	-0.11329118
137	0xbe06b1d9	-0.13153781
138	0xbe030414	-0.12794524
139	0x3ea02cd2	0.31284195
140	0xbe9900d2	-0.29883438
141	0x3e4dfdbb	0.20116322
142	0x3e80891f	0.25104615
143	0x3e995c40	0.29953194
144	0x3eb4131e	0.35170835
145	0x3e646ea6	0.22307834
146	0x3e36d658	0.17855203
147	0xbe916c51	-0.2840295
148	0x3cb1d222	0.021706644
149	0x3d52171a	0.051291563
150	0x3e50fb65	0.204084
151	0x3d5122d9	0.051058624
152	0x3d95d202	0.073154464
153	0xbe21a97a	-0.15787306
154	0x3e060d87	0.13091098
155	0xbea32b3d	-0.31868926
156	0x3e8df967	0.2772934
157	0x3d68c447	0.05682781
158	0x3d97a6bd	0.0740485
159	0x3ea25d17	0.31711647
160	0x3ea6e58b	0.32597002
161	0xbeb2e449	-0.34939793
162	0xbdd896dc	-0.10575649
163	0x3e4c0bca	0.19926372
164	0x3ea1c0be	0.31592363
165	0x3c88cd99	0.0166996
166	0xbd543771	-0.051810686
167	0x3e9c8a50	0.30574274
168	0x3df887d6	0.12135284
169	0xbe815eb8	-0.25267577
170	0xbe42c764	-0.19021374
171	0xbea0fda4	-0.31443512
172	0x3e34569d	0.17611165
173	0xbe510172	-0.20410708
174	0xbd42969a	-0.047506906
175	0xbe36d984	-0.17856413
176	0xbc9f9e9d	-0.019484812
177	0x3ea6a7cb	0.3254989
178	0x3eb580bd	0.35449782
179	0xbd4634a8	-0.04839006
180	0xbe2820de	-0.16418788
181	0x3deaef76	0.11471455
182	0xbea65bdd	-0.3249196
183	0x3e0b4a60	0.1360259
184	0xbd641617	-0.05568513
185	0x3e10c071	0.1413591
186	0xbe9210a6	-0.28528327
187	0xbe481469	-0.19539036
188	0xbe8d7b86	-0.27633303
189	0xbeb2869c	-0.34868324
190	0xbd392d25	-0.04520907
191	0x3c688a73	0.014193165
192	0xbd3e7873	-0.046501588
193	0xbcf183d5	-0.029481808
194	0x3eac0662	0.3359862
195	0xbab5dfe9	-0.0013875935
196	0x3e34a13e	0.17639634
197	0xbe77fc4b	-0.24217336
198	0x3e21a718	0.15786397
199	0xbe4cc7a8	-0.19998038
200	0x3e83dfe7	0.2575676
201	0x3db26748	0.087111056
202	0xbeb48d62	-0.35264117
203	0xbdc6a5e2	-0.096996084
204	0x3e895142	0.26819807
205	0xbe41b24a	-0.18915668
206	0xbe63686b	-0.22207801
207	0xbcef4a03	-0.029210096
208	0x3e4e6f8c	0.2015974
209	0xbe874421	-0.26419166
210	0xbeafcb42	-0.3433476
211	0x3cce6817	0.025196118
212	0x3e3618e6	0.17782936
213	0x3e5d0cd7	0.2158693
214	0xbe859460	-0.26089764
215	0xbd93bed0	-0.07214129
216	0xbe0ed23d	-0.13947387
217	0xbdaf0ce0	-0.085473776
218	0x3e92b625	0.2865459
219	0x3eafae0c	0.34312475
220	0xbea6bd9e	-0.3256654
221	0xbe8cdbc9	-0.27511433
222	0xbeb121ab	-0.34596
223	0x3e0a5b54	0.13511401
224	0x3cdf5dba	0.027266372
225	0xbe5a0e41	-0.212945
226	0xbe06a2fd	-0.13148113
227	0xbdb88736	-0.090101644
228	0x3e8210f4	0.2540356
229	0xbe5bde0b	-0.21471421
230	0xbd9a9970	-0.07548797
231	0xbdaf0cac	-0.08547339
232	0x3e9cec99	0.3064926
233	0x3e346714	0.17617446
234	0xbe10d382	-0.14143184
235	0xbe3b4128	-0.18286574
236	0x3dfab77f	0.1224203
237	0x3e01b94a	0.12668338
238	0x3eba4485	0.363804
239	0xbde729a0	-0.11287236
240	0x3e7cd40b	0.24690263
241	0xbe3b68f2	-0.18301752
242	0x3e957826	0.29193228
243	0xbe0bc2c3	-0.13648514
244	0xbea0a71c	-0.31377494
245	0xbe2e4189	-0.17017187
246	0x3e93d7bb	0.28875527
247	0x3e839d2c	0.2570585
248	0xbe578850	-0.21048093
249	0x3e0c9fd6	0.13732848
250	0x3e3258ea	0.1741673
251	0xbebc3dcf	-0.36765906
252	0x3e8059ee	0.2506861
253	0xbe2123e5	-0.15736349
254	0x3d9edd0c	0.07757005
255	0x3e3f6e73	0.18694477

layers.1.gcn_1.bias f4 [6]
0	0x3c4ca949	0.012491533
1	0x3d4cc546	0.049992822
2	0x3d37f314	0.04490955
3	0xbd9050b3	-0.07046642
4	0x3d9a789c	0.07542536
5	0xbdad11c6	-0.08450656
