cache/pretrained/pretrained_108.pt (torch_old, 130085 bytes, 4 tensors)

layers.0.gcn_0.weight f4 [500, 64]
0	0x3edebfa9	0.435056
1	0xbe4d4370	-0.20045257
2	0xbe941b0c	-0.28926885
3	0xbf06b352	-0.5261737
4	0x3f28461f	0.65731996
5	0xbe732cac	-0.2374751
6	0xa8a1e8e7	-1.7975596e-14
7	0x2e4bab88	4.6309206e-11
8	0xbe7da446	-0.24769697
9	0xa6ec8b08	-1.6413474e-15
10	0x3f1f60ae	0.62256896
11	0xbf08d6fc	-0.5345304
12	0xbf054464	-0.5205748
13	0xbf0f87e6	-0.5606674
14	0x3ea1c551	0.31595853
15	0x3ebd4c2f	0.36972186
16	0x3f35c6a3	0.7100622
17	0xbf058c3d	-0.5216711
18	0x3e1759de	0.14780375
19	0x3f22cc23	0.6359274
20	0xbe85a10a	-0.26099426
21	0xbe64beec	-0.22338456
22	0xbe8509d7	-0.2598407
23	0x28ffd29b	2.8402023e-14
24	0x34475ba7	1.8566662e-07
25	0xbe880c72	-0.26571995
26	0xbe547d6e	-0.20750973
27	0x3f1a92b8	0.60380125
28	0x3f0ff082	0.5622636
29	0x3f253718	0.6453719
30	0xa5394fe2	-1.6073258e-16
31	0xbe86cc18	-0.26327586
32	0x3e3a62c7	0.18201743
33	0x3eb099b2	0.3449226
34	0xbe93c0ae	-0.2885794
35	0x3200e868	7.503424e-09
36	0x3ee09473	0.43863258
37	0xbe82eddf	-0.25572106
38	0xbe4aaaa0	-0.19791651
39	0xbe869a94	-0.2628981
40	0x3edd5118	0.43225932
41	0xbe78571a	-0.24251977
42	0xbf0986b3	-0.5372116
43	0x2af81a20	4.4071777e-13
44	0x296e19aa	5.2868876e-14
45	0x3f19d602	0.60092175
46	0xbe767cb0	-0.24071002
47	0x28291787	9.386486e-15
48	0xbe8be00d	-0.27319375
49	0x3ed4a1b9	0.41529635
50	0x2d4b4d59	1.1556389e-11
51	0x3f24165f	0.64096636
52	0xbef4b2ee	-0.47792763
53	0x3e87d7a7	0.26531717
54	0xbe896a6a	-0.26839
55	0x270b0cc0	1.9297037e-15
56	0x3f21fb06	0.63273656
57	0x3ed926e8	0.42412496
58	0xbe940093	-0.28906688
59	0xbf057be2	-0.52142155
60	0x3f35f6b4	0.71079564
61	0xbe84a428	-0.2590649
62	0x3f0d0e2f	0.5509977
63	0xbefab337	-0.48964855
64	0xbd96df91	-0.07366861
65	0x3bd02ec1	0.0063532297
66	0x3cb7c277	0.022431595
67	0x3d94d1c8	0.07266575
68	0xbda7c42a	-0.08191712
69	0x3d1c94fa	0.038228013
70	0x28954e5c	1.6576306e-14
71	0xad062a3d	-7.626397e-12
72	0x3ce55cf8	0.027998433
73	0x28af95dd	1.9493896e-14
74	0xbdc7baff	-0.097524635
75	0x3db272ca	0.087133005
76	0x3dc6e6bf	0.0971198
77	0x3d968f75	0.07351581
78	0xbc19a70b	-0.009378205
79	0xbc8c732c	-0.017144762
80	0xbd9b6ca1	-0.07589079
81	0x3d9c5190	0.07632744
82	0xbd247299	-0.04014835
83	0xbd864914	-0.06556907
84	0x3c813893	0.015774047
85	0x3ccbfef5	0.024901846
86	0x3ceffcfb	0.029295435
87	0x26b3339e	1.2434611e-15
88	0x34e7c70d	4.3171931e-07
89	0x3d58b595	0.052907545
90	0x3d289c24	0.041164532
91	0xbdafe37a	-0.085883096
92	0xbd82a331	-0.063787825
93	0xbda8f217	-0.082493
94	0xa85369cc	-1.1735794e-14
95	0x3d4ee258	0.050508827
96	0xbd2f3a7c	-0.042780384
97	0xbd84928b	-0.06473263
98	0x3db6e1f4	0.08929816
99	0x32872fb8	1.5737768e-08
100	0xbd2e968d	-0.042624045
101	0xba02cfe0	-0.0004990082
102	0x3da1ac74	0.07894221
103	0x3c50368b	0.012708317
104	0xbd1cc719	-0.03827581
105	0x3cba215d	0.022720987
106	0x3daf4bd5	0.08559386
107	0x27c0822f	5.343185e-15
108	0x279b98a6	4.3186644e-15
109	0xbd9d0e41	-0.07668734
110	0x3c9904cd	0.018679047
111	0x28bcbf47	2.0955146e-14
112	0x3d5dcff0	0.054153383
113	0xbd35c746	-0.044379495
114	0x2ca0be85	4.5686254e-12
115	0xbd7ee954	-0.062234238
116	0x3d89763d	0.06712005
117	0xbcf9ffef	-0.030517546
118	0x3d17c77e	0.037055485
119	0x26d67545	1.4881019e-15
120	0xbd8c4cce	-0.06850587
121	0xbd0f6a57	-0.035013523
122	0x3c1d859a	0.009614373
123	0x3d8ca05f	0.06866526
124	0xbdb7e27c	-0.08978745
125	0x3d7bbbcc	0.061458394
126	0xbdb58ea1	-0.08865095
127	0x3d824e19	0.06362552
128	0xbc8f9e68	-0.017531589
129	0x3c3accad	0.011401338
130	0x37ebc22a	2.8104598e-05
131	0x3c9dba04	0.019253738
132	0xbc62d786	-0.01384533
133	0x3c0c93f5	0.008580198
134	0x270ab6b8	1.92504e-15
135	0x2b552769	7.5727494e-13
136	0x3c205a35	0.009787132
137	0x291bd468	3.4601147e-14
138	0xbcb86f28	-0.02251394
139	0x3d0669bd	0.032815684
140	0x3c9556a9	0.0182298
141	0x3cc15a7a	0.023602713
142	0x3c9ed813	0.019390142
143	0x3bc93a7c	0.006141005
144	0xbca65279	-0.020302998
145	0x3c67797a	0.014128083
146	0xbc73f77a	-0.014890546
147	0xbd01f61d	-0.031728853
148	0xbb2d88e3	-0.0026479296
149	0x3ad4d0f8	0.0016236594
150	0xbc01dcca	-0.007926175
151	0xa8276f9d	-9.2945645e-15
152	0x350c85cc	5.2348764e-07
153	0x3c48fc19	0.012267136
154	0x3c989dac	0.018629871
155	0xbc36ccc0	-0.011157215
156	0xba888494	-0.0010415488
157	0xbbb25a0a	-0.0054428624
158	0xa8157ec5	-8.29865e-15
159	0x3c1d0819	0.00958445
160	0xbcbc2a95	-0.022969523
161	0x3c2feb5c	0.010737266
162	0x3c8b3690	0.01699379
163	0xb3113362	-3.3807176e-08
164	0x3c59979a	0.013280774
165	0x3c0f805d	0.008758632
166	0x3c58385a	0.013197029
167	0xbad6a9ea	-0.0016377543
168	0xbba17ac8	-0.0049279667
169	0x3b06445f	0.002048753
170	0x3c778c22	0.015109094
171	0x28e28516	2.5148757e-14
172	0x282c6cf0	9.57154e-15
173	0xbc7cc669	-0.015428164
174	0x3ca5c109	0.020233648
175	0xa8cecebd	-2.2960253e-14
176	0x3cc48038	0.02398692
177	0x3c653d84	0.013991717
178	0x2d430c19	1.1087153e-11
179	0xbbfcafaf	-0.007711373
180	0x3bd86b2a	0.006604572
181	0xbcb74cbe	-0.02237546
182	0xbb5705ff	-0.003280997
183	0x27eff99a	6.6606444e-15
184	0x3b9e5894	0.0048323367
185	0xbbda3678	-0.006659325
186	0x3ba2c1b0	0.004966937
187	0x3c52503b	0.012836511
188	0xbc21166b	-0.009832005
189	0xbb3979bc	-0.002830132
190	0x3c14bf3b	0.009078796
191	0x3cbad51d	0.022806698
192	0x3d5d8b43	0.05408789
193	0x3c1c5a8e	0.009543074
194	0x3adc8836	0.0016825262
195	0xbd7f6525	-0.06235232
196	0x3d921ff7	0.07135003
197	0xbd94f503	-0.07273295
198	0x28348247	1.0020257e-14
199	0x2d4a1d4f	1.1488878e-11
200	0x3c2ce75d	0.010553208
201	0x2832aa3f	9.917901e-15
202	0x3dac5519	0.084146686
203	0xbd54fc47	-0.051998403
204	0xbd3a1d04	-0.045437828
205	0xbd0fe108	-0.035126716
206	0x3ba54d12	0.005044588
207	0x3c8651af	0.016396372
208	0x3d3f64b6	0.046726905
209	0xbd8a3819	-0.06748981
210	0x3d104b67	0.03522816
211	0x3d8212c1	0.06351233
212	0x3b9d0dd8	0.00479291
213	0xbbf4ea71	-0.0074742367
214	0x3c11e598	0.008904837
215	0xa8cde54a	-2.285901e-14
216	0xb37db75b	-5.9072914e-08
217	0xbd316703	-0.04331113
218	0xbc807006	-0.015678417
219	0x3d25a364	0.040439025
220	0x3d3bb7e5	0.045829672
221	0x3d1cbf10	0.03826815
222	0x28192bdb	8.502716e-15
223	0xbd5f315c	-0.054490432
224	0x3d1652dc	0.036700115
225	0x3cfe2490	0.031023294
226	0xbc8e8033	-0.017395115
227	0xb2d17bd5	-2.4387115e-08
228	0x3d7b8728	0.061408192
229	0xbbea00b1	-0.0071411957
230	0xbd7bd303	-0.061480533
231	0xbcfeec23	-0.031118458
232	0x3cf60ca8	0.030035332
233	0x3c61a94d	0.013773275
234	0xbd8dd296	-0.06924932
235	0xa6a78927	-1.1625128e-15
236	0xa8c72628	-2.2109986e-14
237	0x3da519bf	0.08061551
238	0x3cc94dc6	0.024573218
239	0x289b5b1d	1.7247971e-14
240	0xbd30763c	-0.043081507
241	0x3ce2fdd0	0.027708918
242	0xac3b0c7f	-2.6581235e-12
243	0x3d66a931	0.056313697
244	0xbd448634	-0.04797955
245	0x3cfc1cb6	0.03077541
246	0xbbfd5f99	-0.0077323434
247	0x2732baaf	2.4803664e-15
248	0x3d536ec4	0.051619306
249	0x3d834862	0.0641029
250	0x3c2ac429	0.010422745
251	0xbd7522d8	-0.059847683
252	0x3d5f0999	0.054452512
253	0xbd0ff711	-0.03514773
254	0x3d2dc51c	0.042424306
255	0xbd4ecf74	-0.05049081

layers.0.gcn_0.bias f4 [64]
0	0x3d34e8a2	0.04416717
1	0x3d1f34c4	0.03886868
2	0x3d18d72a	0.03731457
3	0x3d8dd287	0.069249205
4	0x3c4d915e	0.012546865
5	0x3d132c82	0.035931118
6	0xb9f8d820	-0.00047463272
7	0xb0006706	-4.6712534e-10
8	0x3d03a52e	0.03213995
9	0xbb973b62	-0.0046152333
10	0x3cc26dd6	0.023734014
11	0x3d8676a0	0.06565595
12	0x3d90f60d	0.070781805
13	0x3d9ad577	0.075602464
14	0x3d698c91	0.05701882
15	0x3d20a708	0.039221793
16	0x3c9792ea	0.018502671
17	0x3d88094c	0.06642398
18	0x3d12b2d9	0.035815094
19	0x3c9c78b1	0.019100519
20	0x3cea36c8	0.028590575
21	0x3d093737	0.033499923
22	0x3cc9f93f	0.024654983
23	0xbb31b221	-0.002711423
24	0xb78e7e61	-1.6986569e-05
25	0x3d10fa99	0.03539524
26	0x3cf23d91	0.029570373
27	0x3c472040	0.012153685
28	0x3d1230d0	0.035691082
29	0x3d2318e6	0.039818667
30	0xb83a9620	-4.448567e-05
31	0x3d13a629	0.036047135
32	0x3d1f8dd4	0.038953617
33	0x3d3562ad	0.044283558
34	0x3d236a8d	0.039896537
35	0xb58bf96e	-1.0428901e-06
36	0x3d25bf89	0.040465865
37	0x3d07d65c	0.033163413
38	0x3d007030	0.03135699
39	0x3ced79cd	0.028988743
40	0x3d377a3b	0.044794302
41	0x3cfb1840	0.030651212
42	0x3da1cf96	0.07900922
43	0xbce5bfa9	-0.028045492
44	0xb9176452	-0.00014437854
45	0x3caf7ead	0.021422708
46	0x3cf608a7	0.030033423
47	0xbb842462	-0.0040326575
48	0x3d3bd864	0.045860663
49	0x3d2ef7a6	0.042716645
50	0xafced520	-3.7622616e-10
51	0x3ca34c98	0.019933984
52	0x3d748054	0.059692696
53	0x3d2400f2	0.040039964
54	0x3d339265	0.043840785
55	0xbae16af3	-0.0017198011
56	0x3d159f4a	0.036528863
57	0x3d41e46f	0.047336992
58	0x3d047512	0.03233821
59	0x3d8000c1	0.06250144
60	0x3cbdfd9f	0.023192225
61	0x3d05136e	0.032489233
62	0x3ccadb71	0.024762841
63	0x3d89a84a	0.06721552

layers.1.gcn_1.weight f4 [64, 3]
0	0x3f70967b	0.93979615
1	0x3f1e5dad	0.6186169
2	0xbfb8911d	-1.4419285
3	0xbee49049	-0.4464133
4	0x3f9c43b3	1.220816
5	0xbf5ceccb	-0.8629882
6	0xbf18e852	-0.5972949
7	0x3fdb8f93	1.715319
8	0xbf8e5112	-1.1118491
9	0xbf90c150	-1.1308994
10	0x3f2231c6	0.633572
11	0x3f282c1e	0.6569232
12	0x3fa5fad1	1.2967168
13	0xbf244dd6	-0.6418127
14	0xbf482f57	-0.78197235
15	0xbf2e5038	-0.68091154
16	0xbf2aafc7	-0.66674465
17	0x3f99d29b	1.2017397
18	0x28b44654	2.0014514e-14
19	0xa97399e3	-5.4090314e-14
20	0xa91ccb9b	-3.4815558e-14
21	0xaecc1b74	-9.2817226e-11
22	0xafcb9e5f	-3.7038014e-10
23	0x2f1dcae6	1.4351151e-10
24	0xbf1c36ea	-0.6102129
25	0x3fae0ea1	1.3598214
26	0xbf7c67fd	-0.98596174
27	0xa8cacc9d	-2.2515242e-14
28	0x299f8f18	7.085841e-14
29	0xa9875364	-6.00967e-14
30	0x3f990c14	1.1956811
31	0xbf204f54	-0.62621045
32	0xbf4609c6	-0.77358663
33	0xbf9ecb63	-1.2405819
34	0x3f5d27f4	0.8638909
35	0x3ee02b88	0.43783212
36	0xbf8b3e64	-1.0878415
37	0x3f100658	0.5625968
38	0x3f2dfb8b	0.6796195
39	0xbf97ef3e	-1.1869886
40	0x3f30dc0a	0.6908575
41	0x3f1bad0e	0.60810935
42	0x3f1c57de	0.61071575
43	0xbfc3c2a7	-1.5293778
44	0x3f7b8859	0.98254925
45	0x3f359966	0.7093719
46	0xbfa78b40	-1.3089371
47	0x3f3868c1	0.7203484
48	0x3fb3b99d	1.404102
49	0xbf2c7592	-0.673669
50	0xbf58cc8f	-0.8468713
51	0xbf929bcd	-1.1453797
52	0x3f043721	0.5164662
53	0x3f29980a	0.6624762
54	0x3ec7ebab	0.39046988
55	0x3f87eea5	1.0619704
56	0xbfac5793	-1.3464226
57	0x3f9732ea	1.1812413
58	0xbf2718a9	-0.65272003
59	0xbf37fcf5	-0.71870357
60	0xbeffa600	-0.49931335
61	0x3f9e74d2	1.2379401
62	0xbf5ccc9e	-0.8624972
63	0xbf121a01	-0.5707093
64	0x3fb08bfa	1.3792717
65	0xbf844969	-1.0334903
66	0xbf115481	-0.5676957
67	0x3fae312e	1.3608758
68	0xbf5c02e9	-0.8594194
69	0xa9e4e51f	-1.016498e-13
70	0x28788dbd	1.37975e-14
71	0xa8154084	-8.285151e-15
72	0xb4935305	-2.7441288e-07
73	0xb671b504	-3.6017163e-06
74	0xb58331b5	-9.774727e-07
75	0xbf252b5d	-0.6451929
76	0xbf6f1aba	-0.93400156
77	0x3fb9013e	1.4453504
78	0xbf0d7970	-0.55263424
79	0xbf772ab9	-0.96549565
80	0x3fb3458c	1.4005599
81	0x3f967c35	1.1756655
82	0xbf0c7864	-0.548712
83	0xbf3d008b	-0.73828954
84	0x3f863e7d	1.048782
85	0xbf86462f	-1.0490168
86	0xbd17de82	-0.037077434
87	0x3f9f15b5	1.24285
88	0xbe64cda0	-0.22344065
89	0xbf8a0a19	-1.0784332
90	0x2959e690	4.838366e-14
91	0x2981872c	5.7521994e-14
92	0xa90106bc	-2.8649595e-14
93	0xbf381b01	-0.71916205
94	0xbf28856c	-0.65828586
95	0x3f939cf4	1.1532273
96	0x3eebb280	0.46034622
97	0x3f6aeb4c	0.91765285
98	0xbfa5cf7a	-1.2953942
99	0x3f4d5dd8	0.8022132
100	0x3f5b17a7	0.85582966
101	0xbfcc1d13	-1.5946373
102	0xbf4892d5	-0.7834905
103	0xbf5a756d	-0.8533543
104	0x3fbe4d88	1.4867411
105	0xb2c71706	-2.3177119e-08
106	0x34a57774	3.0820559e-07
107	0xb3479504	-4.6468827e-08
108	0x3f6277c3	0.8846399
109	0xbf94d6ac	-1.1628013
110	0x3ec7ca43	0.390215
111	0xbf05e065	-0.52295524
112	0x3fd2796c	1.6443305
113	0xbf8f743f	-1.120735
114	0xbf159e5c	-0.5844476
115	0xbf7194b5	-0.94367534
116	0x3fa9d051	1.3266698
117	0xbf177c40	-0.59173965
118	0x3fb02b71	1.3763257
119	0xbf826864	-1.0188107
120	0x3f5eba23	0.8700277
121	0xbfab3626	-1.33759
122	0x3f22410f	0.6338052
123	0xbf134c3a	-0.5753819
124	0x3fbc639c	1.4717898
125	0xbf6f4548	-0.9346509
126	0xbf908cc8	-1.1292963
127	0x3f005bac	0.5013988
128	0x3f30c1c1	0.69045645
129	0x2a4737ce	1.7694112e-13
130	0x2870c0c7	1.3364478e-14
131	0xa9beff48	-8.481979e-14
132	0xa9d77a24	-9.569106e-14
133	0x29bf755e	8.502464e-14
134	0xa903fc08	-2.9306446e-14
135	0x3f95256b	1.1652044
136	0xbf05a2ba	-0.52201426
137	0xbf39d402	-0.72589123
138	0xbf018104	-0.5058749
139	0x3faf733d	1.3707043
140	0xbf818a2e	-1.0120294
141	0xa94ce819	-4.5498412e-14
142	0xa7958b4c	-4.1506834e-15
143	0xa81aeb03	-8.599677e-15
144	0xbf2a8fcb	-0.6662566
145	0xbf7aebcf	-0.98016065
146	0x3fcbdd35	1.5926882
147	0x3f50e53c	0.81599784
148	0xbfb7ead6	-1.4368541
149	0x3f3bf7cc	0.73424983
150	0xad0f17f2	-8.133926e-12
151	0xaf0d4762	-1.2849236e-10
152	0x2da7a446	1.9058654e-11
153	0x3f9f1d20	1.2430763
154	0xbf137418	-0.5759902
155	0xbf48e10c	-0.78468394
156	0xbf87d2cf	-1.0611209
157	0x3ea47f23	0.32128248
158	0x3f5cee8c	0.86301494
159	0x3f230064	0.6367247
160	0x3f720e99	0.94553524
161	0xbfb0a77a	-1.380111
162	0xbf2c00a3	-0.6718847
163	0x3fb167ed	1.3859841
164	0xbf6b0cd3	-0.91816443
165	0xa86932db	-1.2945126e-14
166	0x295c5064	4.891954e-14
167	0x2814bc42	8.256472e-15
168	0x3f9386ba	1.152549
169	0xbefaad66	-0.48960418
170	0xbf5948ff	-0.8487701
171	0x3f6710e4	0.9026015
172	0x3f013b40	0.50481033
173	0xbfa13eb4	-1.259726
174	0xbf114b85	-0.5675586
175	0x3fcf971c	1.621799
176	0xbf8928b6	-1.0715549
177	0xbf93c883	-1.1545566
178	0x3ed293f6	0.4112851
179	0x3f58a9ae	0.8463391
180	0x3fbd6b18	1.4798307
181	0xbf39148e	-0.7229699
182	0xbf429bdf	-0.7601909
183	0xbf3a41a3	-0.72756404
184	0xbf5c8dfe	-0.8615416
185	0x3fadae78	1.3568869
186	0x3f8d94b1	1.1061002
187	0xbe10564d	-0.14095421
188	0xbf86ba69	-1.0525638
189	0xbf947335	-1.1597658
190	0x3ee27bd2	0.44235092
191	0x3f52858f	0.82235044

layers.1.gcn_1.bias f4 [3]
0	0xbd5e55cd	-0.054281045
1	0xbe8e1dbd	-0.27757064
2	0x3e9c9427	0.3058178
