cache/pretrained/pretrained_95.pt (torch_old, 130085 bytes, 4 tensors)

layers.0.gcn_0.weight f4 [500, 64]
00000000: e30f 31bd cb07 7fba 3bf0 53bc 2752 54bc
00000010: 3f57 35bd 964f 05bd 0e45 8e3d cfd3 ce3c
00000020: b7a7 54bd 749e 39bc de70 d2bd 22a1 92bd
00000030: 0db5 c5bc 54c2 edbd 31f7 c4b9 4d55 27bd
00000040: 8dc3 e2bc 3336 71bc ab6a 84bb ff7e b5bd
00000050: 7c68 dc3d ddd2 153c fddb abbd 2493 143e
00000060: 5a96 acbd 4c6f a53d 6205 1a3e 1ecb 9dbd
00000070: 11bb d3bd f403 c4bd 1aaa d5bd 7a00 053e
00000080: 6091 253b 50e1 d9bd d868 e6bd d0b5 e2bc
00000090: b052 fdbd b7ae 1e3d 9600 db3d 03cc 4b3c
000000a0: 42dd 393c 9b98 b6bb cefe 45bd 0e13 fcbd
000000b0: 6ac1 22bd 9927 693b 8d6b 0a3c 99a7 c33d
000000c0: cf10 d73b d7c0 803d 1767 863d 9dbf 343e
000000d0: 2749 e53d a3b0 eb3c af1f 0c3e 0a46 c4bd
000000e0: a05e b6bc 16eb f2bc 20fb 01bb d48c e9bd
000000f0: 91ab ef3d 84ae e23d 1e53 febd 63fd c43d
00000100: 9bb5 ac3d 9181 623d f97e 7dbd 4690 35bb
00000110: ef8d b03c f843 8e3d 867e 5bbd 6a6f a93c
00000120: c385 d33d b823 e93c 065f 153e acb8 103e
00000130: c31e c83c 1cd9 9fbc d36d b2bc 61e8 8bb9
00000140: 503a 6fbd 4e62 4b3d 9d69 173d b866 acbd
00000150: fe5b 833d aae5 dabc cb6a 2d3d cebf cfbd
00000160: ee7d d33d f8ab d8bd 1fbf 123c 0486 e13c
00000170: 3b4e 5f3d ba81 ae3d 1c20 0cbd 3a92 a1bd
00000180: e656 6d3c e132 493d 498d a7bd 4664 ddbd
00000190: d27b 243e c54c 053e 5b1f 69bd f284 6bbd
000001a0: bd41 d9bd abfe d1bb 6715 3ebd c9e3 b1bd
000001b0: bbae d73b cfcd c0bc 5195 78bd 8abd b43d
000001c0: 7c84 cfbd 5df1 103d 02e9 d03d 1f04 b1bd
000001d0: 3d40 71bd ac04 31bc 14fd e6bc 1bc9 b33d
000001e0: ddeb c3bb 3f3f 21bd e297 e0bd 7b12 cb3d
000001f0: e158 adbd ea68 edbd f8ef 1b3d 2fcf c9bd
00000200: 55be a2bd 937f 85bc 085f 24bc 08bd a43c
00000210: 64c7 85bd ac8c be3c 46e2 c33d 3d80 7b3c
00000220: 5584 543d da99 443b 2bf0 213d 5aa3 d63d
00000230: 8a21 a63d 01d3 063e 007c 6d3d 87f1 683d
00000240: 9b8d 47bd 2170 86bd 92fa 713d 0600 ea3c
00000250: 98fe e73a c8cc 63bd f209 55bd 9680 95bd
00000260: 1e0b 263d e474 803d 41cc b33c 8c33 a7bd
00000270: d56e 3e3d 05a0 52bd 3180 1bbd 5af2 9cbd
00000280: 9771 cd3c 5f75 533c c311 6cbd da8a cebd
00000290: 86b9 ce3b 1d48 843d 542c 25bd d2fb 1b3d
000002a0: 082a f2bd 88a0 c7bb a6df 013e c271 1fbd
000002b0: d3c3 0e3e 00bd 243b 7f2b 4bbd 66a8 8c3d
000002c0: e163 33bd e76b 0cbd 46ae 0d3e 4bfd 52bd
000002d0: e29d 873c 031c b8bb d4e4 da3d d51c 8d3d
000002e0: b619 7a3c 598b 1fbc 838f c4bc 6a40 203d
000002f0: 9b0f 13bd ef0b b33c 0548 173e 7107 9e3d
00000300: 1716 f2bd d43c 633d 05e8 8fbd 8ea0 54bd
00000310: b578 b3bd a341 4a3c 0e35 043a ccb4 8a3d
00000320: 5e87 913d dea5 0f3d 42ab 0ebe 39b1 2ebc
00000330: dce7 f2bc 24bd 333d 3970 91bd e565 223e
00000340: 8994 953d 6c74 19bd 5257 2dbd 30e9 8abd
00000350: 6e0f ac3d b2e9 9dbd 14e8 833d 4e16 c4bc
00000360: f425 82bb 3e66 59bd ca62 4a3d 843d 0dbe
00000370: f2c0 dfbc bd13 133d 2ffc df3d d7c0 0abd
00000380: b17c e3bd 533a 1a3c c439 8cbd af4c c3bd
00000390: eb49 373d b611 633d a8dc 4ebd ca01 4b3d
000003a0: 78fe d4bc 7b89 8c3d 951f a53b e88e a6bd
000003b0: caf5 f13d 9f50 d2bd c650 a2bd 6c99 c93d
000003c0: 4813 5c3d 8bb9 bc3d d5b5 2f3d 8489 0f3d
000003d0: 1dd3 d13d 0ddc 11be f3f3 bb3d 7723 67bc
000003e0: 19ef fbbc 235e 30ba 40ac debd c19f 643d
000003f0: 42f4 693d 10b0 b8bd 27d3 5d3c a19e 203c
-0.04322804 -0.0009728639 -0.012935693 -0.01295904 -0.044272657 -0.032546602 0.06946765 0.025247483
-0.051917758 -0.011329282 -0.10275434 -0.0715964 -0.024134183 -0.11609331 -0.00037568205 -0.040852834
-0.027681137 -0.014722395 -0.004041036 -0.08862113 0.10762116 0.009144512 -0.08391569 0.14509255
-0.08427115 0.08077869 0.15041116 -0.07704757 -0.103384145 -0.095710665 -0.10432835 0.12988463
0.0025263652 -0.10638678 -0.11250466 -0.027674586 -0.12369287 0.03874084 0.10693471 0.012438777
0.011344256 -0.005572391 -0.048338704 -0.12308322 -0.039735235 0.003557658 0.008448494 0.09553451
0.006563283 0.06286781 0.065626316 0.1765122 0.11195593 0.02877075 0.13683961 -0.095836714
-0.022261918 -0.029653113 -0.001983352 -0.11403814 0.117026456 0.110684425 -0.12418197 0.09618642
0.08433076 0.055299345 -0.06188867 -0.0027704402 0.021552054 0.06946558 -0.05358746 0.02068301
0.103282474 0.028459415 0.1458703 0.14132947 0.02442873 -0.019512706 -0.021780884 -0.00026685282
-0.05840522 0.049654298 0.036965955 -0.084180295 0.064140305 -0.02672084 0.042338174 -0.10144006
0.103267536 -0.105796754 0.0089567 0.027529724 0.054517966 0.08520837 -0.03421031 -0.07889219
0.01448605 0.049120788 -0.08181245 -0.10810141 0.16062859 0.13017567 -0.05691467 -0.057499833
-0.10608242 -0.0064085326 -0.04640713 -0.08686025 0.006582109 -0.023535637 -0.060689274 0.08825214
-0.10132691 0.035386432 0.10200693 -0.08643364 -0.058899153 -0.0108043365 -0.028196849 0.08778592
-0.005979045 -0.039366957 -0.10966469 0.09915634 -0.08464218 -0.115922764 0.03807065 -0.0985397
-0.07946459 -0.016296184 -0.010032423 0.020109668 -0.06532171 0.023260437 0.095646426 0.015350399
0.051884014 0.002999893 0.039535683 0.104803756 0.08111866 0.13166429 0.057979584 0.056870963
-0.04871903 -0.06564356 0.059076853 0.028564464 0.0017699776 -0.055615216 -0.052011438 -0.072999164
0.040537946 0.06272295 0.021947982 -0.08164129 0.046492416 -0.051422138 -0.03796405 -0.076634124
0.025078578 0.012906401 -0.057634126 -0.100850776 0.006308737 0.06459067 -0.040325478 0.03808195
-0.11824423 -0.006092135 0.12682971 -0.038926847 0.13941889 0.0025137067 -0.049602028 0.06868057
-0.043796424 -0.03428259 0.13836011 -0.05151109 0.016554777 -0.0056185736 0.10688177 0.06890265
0.015264919 -0.009737813 -0.023994213 0.03912393 -0.035903554 0.021856276 0.14773567 0.07716263
-0.118206196 0.055477932 -0.07026676 -0.05191093 -0.087632574 0.012344751 0.0005043306 0.067727655
0.07105897 0.035070293 -0.13932517 -0.01066237 -0.029651575 0.04388155 -0.07101483 0.15859182
0.073037215 -0.037464544 -0.042319603 -0.06782758 0.084013805 -0.077105895 0.0644075 -0.023936417
-0.0039718095 -0.05307602 0.04941062 -0.13792998 -0.027313683 0.035907496 0.10936772 -0.033875313
-0.111077674 0.00941332 -0.068469554 -0.095361106 0.044748228 0.055436812 -0.050503403 0.049562253
-0.026000246 0.0686216 0.0050391653 -0.08132726 0.11814459 -0.102692835 -0.079255626 0.09843716
0.053729326 0.09215077 0.042898018 0.035043254 0.10245345 -0.14244099 0.09177389 -0.014107577
-0.03075366 -0.00067278947 -0.10872698 0.055816416 0.057117708 -0.09017956 0.013539112 0.009803445

layers.0.gcn_0.bias f4 [64]
00000000: 56c5 3fbd 7999 013d c6e6 d33c 1b7e 4dbb
00000010: b633 4c3d 66fa 68bc 5516 1e3d b312 0dbd
00000020: 1221 97bc 0142 00bd d390 193d 4586 68bc
00000030: 64ec c83c 05f1 f73b 634f 10bd 21e5 aebc
00000040: 9533 a33c 2c36 fc3c 0933 503d 5859 d13c
00000050: 46aa f33c 180a 4f3d d5ac e23a 6baa 653d
00000060: c83c 683c 698a 5d3d 6197 e5bc 719d 203d
00000070: d5d1 94bc 5f7f a73c 20d8 5f3c 96cf 04bc
00000080: a9ca 4c3d 93f0 62bc 699b fb3b 6742 5b3d
00000090: 173f 233c a63f 253a c1d0 cb3c 8bc4 13bc
000000a0: c78e 08bd 197a 933c 80de ed3c 9849 753c
000000b0: fd6c 9ebc 01d3 a3bc 2ede a1bb 6a5f ec3c
000000c0: aa13 0c3b fb8a 2e3d 0bd9 ae3c 7632 053d
000000d0: 6bde bd3b 0bda d53c 211a 3a3d 0e74 fe3c
000000e0: fd24 28bd b4e5 88bc 0486 5d3d a707 7c3b
000000f0: c76d 7d3d 4e8d 853c d3bc 143d 5144 233d
-0.046819054 0.031640504 0.025866877 -0.0031355682 0.049854003 -0.014219856 0.038595516 -0.03444166
-0.018448386 -0.031312946 0.03749163 -0.014192169 0.024526782 0.0075665736 -0.03523196 -0.021349492
0.019922057 0.03078755 0.05082992 0.025555298 0.029744279 0.050546736 0.001729394 0.056070726
0.014174648 0.054087076 -0.028026285 0.039212648 -0.018166462 0.020446477 0.013662368 -0.008106133
0.04999796 -0.013851303 0.0076784384 0.053530123 0.009963772 0.0006303735 0.024879815 -0.009019027
-0.033339288 0.018002557 0.02903676 0.014971159 -0.019339079 -0.019998075 -0.004939816 0.02885409
0.0021374025 0.04261301 0.021343729 0.032518826 0.0057943366 0.026104948 0.045435075 0.031061199
-0.0410509 -0.016711093 0.054082885 0.003845671 0.06187227 0.01630273 0.03631289 0.039860073

layers.1.gcn_1.weight f4 [64, 3]
00000000: 775f bbbd 9034 803e 6f2b 5ebe 0395 89be
00000010: f419 8d3d 4b86 5c3d d7ad 923c a839 7ebd
00000020: cacd 79be bd30 8d3e e797 7b3e 8b98 00be
00000030: 1870 853d b262 b2be c718 9b3e 762e 51be
00000040: 27ec 22be b937 d9bd c6ad 0c3e 2d1b f83d
00000050: cdd3 a0be 86f9 b1bd 58f1 333e 2743 493d
00000060: 4d42 8ebe f624 2f3e 82db 633e 99c2 833c
00000070: bacb 843e ac85 253e 0dd7 9fbe c31c 08be
00000080: 4534 ae3e 3dcf 03be 3c6c 9c3e 8725 75be
00000090: 72f2 833e fcf7 9e3d 3c4c 88be 0e8b 68be
000000a0: cad6 6cbe 92de 803e 338e 993d e639 613d
000000b0: 3ea7 53bd 26b0 94be 7dfb 6c3e 080a febd
000000c0: e173 e4bc 2082 b5bd f363 9f3e 6a88 f53d
000000d0: edb0 7cbd a42b 9a3e 7e3a a13e eb60 d4bd
000000e0: 5e73 933e 54d1 1bbe 29ea a6be 8527 9f3e
000000f0: 35ff 5bbd bfb3 143d eecf 77be b288 34be
00000100: 3d10 6abe f434 933d 9328 a0be f670 583e
00000110: da72 923c 237d 183d 8f8c 78be 89fc aebe
00000120: de5f 57be 3b44 393e de79 8f3e ff02 513e
00000130: 1918 49be 7b44 1bbe c647 ce3d 4db5 84be
00000140: 969b 0e3e 1e30 863e b1bc 3b3d cce6 b13e
00000150: 9b74 9cbe 04df 7ebd 0473 413d 9967 07be
00000160: caad a9bd 7e7d a23e 983b a4be 72d4 1b3e
00000170: 1b04 6e3d 3c2a 303e d921 95be 6456 003e
00000180: 48b5 993e b09f 87be 9a85 81be 651d b93d
00000190: 06e5 c53d 520e 493e a792 d0b9 3f3f c3bd
000001a0: d11a 5f3e 8555 ae3d ca0b 4cbe 79c5 69be
000001b0: 5be4 9ebe a964 033e c5fb 9a3c 0548 96bd
000001c0: 7ab6 413e 7be2 093e 3059 033e aaef 82be
000001d0: 223a 713d 3354 dc3b 2b55 233d 318d 833e
000001e0: 5e9c 203e a326 95bd 4b3f 54be 7752 8a3e
000001f0: 85fc 3fbe 89a2 b53e 4697 94bc 0fb8 24be
00000200: 87d6 dd3d ee76 e13c d806 3ebe 6bb2 893e
00000210: b19b 003d fd92 973e a30e 67bd 13da 9dbc
00000220: 5ab5 62be 47ec 84be 7211 44be 1f39 423d
00000230: 087b a93e c53c 83bc 79b6 9e3e e5cc 94be
00000240: cf5a 333d fc19 6f3d ed35 4ebe be9d 2d3e
00000250: ee58 b53c c614 06be 2b0a 1dbe a8dd 5f3e
00000260: c9f9 99be 79e6 6b3e 6e2f 1c3e 9bb4 21be
00000270: ad08 133e 30ad dbbd c20a babe ec15 ec3d
00000280: 3ff8 5cbe 44c2 923e e760 6c3e e6d3 83bd
00000290: 213f 13be 8e53 5ebe 1d7d 613d 4b92 533d
000002a0: a0db 21be c663 7fbd eef5 a63d e58e 57bd
000002b0: b2c7 9c3e 3368 bbbd f1f6 c83d d7f4 51be
000002c0: a97e 4bbe befd babe 564f 03be 363f 3b3e
000002d0: 44b8 863e e804 cebd 4431 ad3d 0fe3 233e
000002e0: 6d7a a7bd 174f bdbd 7689 5dbe ae9e 063c
000002f0: a99b 6cbd 98ce c53d 4260 19bd 1a3a b1be
-0.09149068 0.25040102 -0.21696256 -0.268715 0.06889716 0.05383901 0.017905159 -0.062066704
-0.24394909 0.27576247 0.24569665 -0.1255819 0.06515521 -0.34840924 0.3029234 -0.2042788
-0.15910397 -0.106063314 0.13738164 0.12114558 -0.3141159 -0.08690171 0.17572534 0.049136307
-0.27784958 0.17103943 0.22251704 0.016084002 0.2593668 0.16164273 -0.31218758 -0.13292222
0.34024253 -0.12872024 0.30551326 -0.23940097 0.2577091 0.07762143 -0.26620662 -0.22709295
-0.2312881 0.25169808 0.074978255 0.054986857 -0.051673166 -0.2904064 0.2314281 -0.12404257
-0.027887287 -0.0886271 0.31130943 0.119889095 -0.061692167 0.3011142 0.31489938 -0.10370048
0.28798956 -0.15216571 -0.32600525 0.31084839 -0.05371018 0.03630423 -0.24200413 -0.1763027
-0.22857757 0.071878344 -0.31280956 0.21136841 0.017877031 0.037228715 -0.24272369 -0.34177044
-0.21032664 0.18092434 0.28022665 0.20411299 -0.19638099 -0.15162842 0.100722834 -0.25919572
0.13926539 0.26208586 0.045834247 0.34746397 -0.30557713 -0.062224403 0.047228828 -0.13223113
-0.08285101 0.31736368 -0.32076716 0.1521776 0.058109384 0.17203611 -0.29127386 0.12532955
0.3002112 -0.2648902 -0.25297242 0.0903881 0.096628234 0.19634369 -0.00039782116 -0.095335476
0.21787573 0.08512405 -0.19926372 -0.22829236 -0.31033596 0.12831368 0.018918881 -0.073379554
0.18917266 0.13465302 0.12826991 -0.25573474 0.05889333 0.0067239045 0.039876144 0.25693658
0.1568465 -0.0728276 -0.2072727 0.2701604 -0.18748672 0.35475567 -0.018138539 -0.16085838
0.108319335 0.02752253 -0.18557298 0.26893935 0.03139848 0.2960433 -0.056410443 -0.019269025
-0.22139493 -0.25961515 -0.1914728 0.047417756 0.33101678 -0.016020188 0.3099859 -0.29062572
0.043787774 0.05837439 -0.20137759 0.16954705 0.022137132 -0.13093862 -0.1533591 0.21861899
-0.30073383 0.23037137 0.15252468 -0.15791552 0.14358778 -0.10726392 -0.36336333 0.11527619
-0.21579073 0.28663838 0.2308384 -0.06436901 -0.1437955 -0.21711561 0.055050958 0.051653188
-0.15806437 -0.06235101 0.08152376 -0.05262651 0.30621105 -0.09150734 0.09812725 -0.20503555
-0.19872536 -0.36521715 -0.12823233 0.18285832 0.2631246 -0.100595295 0.08456662 0.16004585
-0.08177648 -0.09243601 -0.21634468 0.008216543 -0.057765637 0.09658545 -0.037445314 -0.3461464

layers.1.gcn_1.bias f4 [3]
00000000: 8855 6f3d 8f1e 37bc 16f3 71bd
0.05843118 -0.011176719 -0.059069715
